历史权重记录/50epoch/weight.pth (torch, 166031 bytes, 34 tensors)

fc1.weight f4 [128, 26]
00000000: 0087 96bc 0162 f03c 40a4 0cbf bafd b63a
00000010: 1883 12bf 9665 88bc 093d 4abe f082 8a3e
00000020: 7388 7cbe 2461 9d3d 701a 123e 869b efbd
00000030: 1427 83be ef37 92be fa2d b93e f8ca d43f
00000040: 673b 88be d5f8 dabd 82b3 3c3f 2157 0abf
00000050: ab14 11be f1f8 10bf 75dd e5be 134e 523f
00000060: cd5d b03d 0f5d f6bd abe0 93be 97ce 1dbe
00000070: 359e 463d f474 52be 8a5c 9dbe e363 fc3d
00000080: 024d 00bf f1a7 4f3b c607 133f c001 0fbc
00000090: 1876 f73d 0912 23bf 3021 8fbd 9a78 123f
000000a0: 315a 423f fae3 fdbe 7f10 9a3c 30dc 3bbe
000000b0: 0108 36bf 05cc b5be 8f7a 5abd 3b90 b7bd
000000c0: fd2d 943d 0a53 bfbe 1183 a0bc 9bbd 663d
000000d0: 33d6 acbd e0e1 e5bd e172 0a3f fe9e b83e
000000e0: 4dad 053f 7a6c 6c3e 0a57 143c 165b 873e
000000f0: 287e c7be 0323 5bbe e638 97be 2bdc c9be
00000100: 305c 03be 555d 853e 3afb dcbe c115 a83e
00000110: a1c7 79bd db70 283f 9bef a6be f303 0a40
00000120: 639e 683e 8920 fe3d 8f4b 383e 91f0 183f
00000130: 9222 063e 1e9a 133e 0646 f3bd c225 29bd
00000140: 27c1 123c e009 b23e ef70 613d 381c ce3e
00000150: 0287 2d3f 89fa 2ebf 1c30 32bf b96c 663e
00000160: 9a7d 0ebf c340 12bf 861f 4fbf 8768 e13e
00000170: 6e0d 4e3f e138 bd3f 190b bfbe ee15 843e
00000180: b30d 56bf ed7a 66bf 3155 823e 23a8 cfbd
00000190: f299 d4be d76b 143f 517c b4bd 79ad 8b3c
000001a0: 75c4 c9bd 13ef d5bd 3506 afbd 067c edbd
000001b0: 1e5c 8bbe c698 55be 81e1 f0be f8bd 763e
000001c0: 2bac 7dbe 95c5 843e b1a5 1440 2b07 3ebf
000001d0: a216 a8be d0fa acbd 1688 963f 6c74 da3f
000001e0: d27c 7dbe f3a9 7a3e 91ec 6b3f 36e5 7dbf
000001f0: c655 41bd 1141 b7bd 0b33 5f3e 8d62 2f3f
00000200: af75 07be 74c4 03bc ca66 843e bd54 363e
00000210: dc53 a93e 3234 d0be 2451 b43e b45f 03bf
00000220: de38 2dbe 3073 913d 71b7 853e ed43 b53e
00000230: 0db8 043f 82ad dfbe b50e 46be 041b e23e
00000240: 6bd4 dd3e 92fa 4d3f e926 29be f5c8 bb3e
00000250: 62ab 583f 603f fb3f 894f 1cbe 3559 e83c
00000260: 360f df3e 8c62 d43e 143f 0cbe a844 ec3d
00000270: 51d6 0b3e 0a75 1b3d a619 d13e 4ef4 d63e
00000280: e999 9a3e 2bdd 293e c87f 813f d792 7cbf
00000290: d197 3dbf bec5 753e 577d b4bf de91 e33e
000002a0: 126a 4abf 4e94 4dbf ba2a cd3e db82 b93f
000002b0: 9df1 c83d 27a5 7e3e cd4c d33e efc7 b5bf
000002c0: ffb7 363e 67c6 153e 9b0c e8be d326 cc3d
000002d0: 29b5 223e ed0c ebbd 99fe 803e 86f4 a83c
000002e0: 31b4 053f 3468 a83d 779d ac3e e7c0 583e
000002f0: 1ab1 fb3c abf4 193e 933a 113f 9eb5 3a3f
00000300: 4db8 20c0 cb23 333e 56a6 acbb dfca 9f3d
00000310: c6e9 cebe b581 92bf f0f2 0ebf bc6c fb3d
00000320: fa20 3ebe 6e62 0140 3746 f83c 10ce 033e
00000330: 48fb c3be 0034 12bf 3156 a6bd c987 51bd
00000340: ebfa 073e 3f1e c03d 1715 e4bd e8d8 243e
00000350: b0dc e63d 8317 72ba 7800 ea3e d2ef 153e
00000360: f2c0 33bf 0c90 43bf ba96 653e c4d9 bc3e
00000370: 0e73 e43f 1c6d eabe 8e0e f8bf 384f d4be
00000380: 85e9 d73d de4c ab3e ca51 37bc 3ed9 fabd
00000390: db01 b0be 746e f03e 6862 6a3d 9332 443e
000003a0: 5673 18be 7e87 403d 6794 6abd 0de5 a13d
000003b0: 6f55 2c3f 3588 a1bd 790b ea3e 9b2b 6fbd
000003c0: b795 4e3e d2a2 e3be 74f9 bebe 7e03 0b3f
000003d0: 9d5d 063f 27b7 c7bf a0e7 2f3f 6062 643f
000003e0: 6904 9a3f 845e 883f aa8b 1f3f b739 a9be
000003f0: 6fab 83be 54d0 2340 1c2b c2bc 39f7 323e
-0.01837492 0.029343607 -0.54938126 0.0013961114 -0.57231283 -0.016650002 -0.19749846 0.27053022
-0.24661426 0.07684544 0.14267898 -0.116995856 -0.25615752 -0.285583 0.3616789 1.6624441
-0.2660782 -0.10691992 0.7371141 -0.540392 -0.1416804 -0.56629854 -0.4489552 0.8215038
0.08611641 -0.12029468 -0.28882346 -0.15410839 0.04849072 -0.20552427 -0.30734664 0.123237394
-0.50117505 0.0031685794 0.57433736 -0.008728445 0.120830715 -0.63699394 -0.06988752 0.57215273
0.7591887 -0.49587995 0.018806694 -0.18345714 -0.71105963 -0.35507217 -0.053339537 -0.08963057
0.07235334 -0.3736804 -0.019593747 0.056333166 -0.08439293 -0.11224723 0.5408154 0.360588
0.5221756 0.23088256 0.009053955 0.2643668 -0.38963437 -0.21400075 -0.29535598 -0.39425787
-0.12828135 0.2604777 -0.4316042 0.32829097 -0.060981397 0.65797204 -0.3260468 2.156491
0.2271667 0.12408549 0.17997573 0.59742075 0.13099125 0.1441426 -0.1187859 -0.041295774
0.008957184 0.3477316 0.055039342 0.40255904 0.6778413 -0.68351036 -0.6960466 0.22502412
-0.556604 -0.5713007 -0.80907476 0.4402506 0.8048924 1.4782983 -0.37313154 0.2579798
-0.83614653 -0.9003132 0.2545562 -0.101394914 -0.415237 0.5797705 -0.08812774 0.017050492
-0.09851924 -0.104459904 -0.08546106 -0.11595921 -0.27218717 -0.2085906 -0.47047046 0.24095905
-0.24772708 0.25931993 2.322613 -0.7422969 -0.32829767 -0.08446276 1.176028 1.7066779
-0.24754646 0.24478893 0.92157847 -0.99177873 -0.04720094 -0.08947957 0.21796815 0.6850975
-0.13228486 -0.008042444 0.25859672 0.17805763 0.33071792 -0.40664822 0.35218155 -0.51317906
-0.16916224 0.071020484 0.26116517 0.35403386 0.5184334 -0.43687063 -0.19341548 0.44161236
0.43326125 0.80460465 -0.1651875 0.36676756 0.8463651 1.9628716 -0.15264715 0.02836285
0.43566293 0.41481435 -0.13695937 0.11536533 0.13655974 0.037953414 0.4083988 0.41983265
0.3019555 0.16588275 1.0117121 -0.9866156 -0.7405978 0.24001214 -1.4100751 0.44447225
-0.790681 -0.8030442 0.4007166 1.4493059 0.09811709 0.24867688 0.41269532 -1.420164
0.17843626 0.14626466 -0.45322117 0.09968343 0.1588942 -0.11477075 0.25194243 0.02062441
0.52228075 0.08223 0.33713886 0.21167336 0.030724097 0.1503474 0.5673 0.72933376
-2.5112488 0.17494123 -0.005268852 0.078023665 -0.4041273 -1.1445833 -0.55839443 0.12276599
-0.18567267 2.0216327 0.030306919 0.12871575 -0.3827765 -0.57110596 -0.081219085 -0.051154885
0.13279311 0.09380769 -0.11136835 0.16098368 0.112725616 -0.0009235071 0.45703483 0.14642265
-0.70216286 -0.76391673 0.22420779 0.36884892 1.7847612 -0.4578637 -1.9379442 -0.4146669
0.10542587 0.33457083 -0.011188934 -0.12248467 -0.34376416 0.4695927 0.057222754 0.19159918
-0.14887747 0.047004215 -0.057270434 0.07905016 0.6731786 -0.078873076 0.45711878 -0.058391195
0.20174299 -0.4446016 -0.37299693 0.54302204 0.5248659 -1.5602769 0.68712807 0.8921261
1.2032596 1.0653844 0.62322485 -0.33051845 -0.2571673 2.5595903 -0.023702197 0.1747712

fc1.bias f4 [128]
00000000: cb10 25be c4b6 43bd 0941 df3d 41f3 7c3d
00000010: 04d3 953d 6598 323e f6bf b1bd ee6f 163e
00000020: 840a fb3a a675 44be e57d 8b3c 7837 6fbd
00000030: c6c1 4bbd 1ddc e7bd 37c9 11be 6b8e 18be
00000040: ae15 40be 9aa3 28be 0237 f1bc b20b 06be
00000050: b53c fb3d 2e31 e2bd 72e4 0bbe a05f 843d
00000060: e6f2 b7bd dd63 163e 5917 0e3e 5679 acbd
00000070: 97d9 cabd 358e c13d ace9 593c eb59 81bd
00000080: 7d8a 03be 450a b3bc 28cf b0bd 31e6 db3d
00000090: bfdf 043e 7073 77bd f407 99bd 7d7c efbb
000000a0: 1fef 023e 12cb 8d3d 2078 b4bd 307d 94bd
000000b0: 3a82 643d f2dc 40bb 1ae6 123e 284c 483d
000000c0: 32c5 98bd a338 17be 953e b93d f550 4abe
000000d0: 478d 0abe 1782 4c3d 398e e53d 3e16 33be
000000e0: e009 7d3d 7d9b 39be ff5c 12be 4348 f5bd
000000f0: ec65 f23d b100 14be d78c d3bd b349 8fbd
00000100: 39f2 293e 1b25 333e 307d 00be 17aa 8cbd
00000110: 36ac 143e cdc8 eebd a0f3 9dbc c86e 4f3e
00000120: 1ae0 2bbd 2b41 123e 2e79 d53d fcce 253e
00000130: a7c9 a8bd 31f9 69bc 9a85 d43c a9dd 0c3d
00000140: 4c35 09be 0c55 ffbc a997 7abc e744 013e
00000150: 8909 3bbe 1b46 29be cbdb e93d e9c6 9abd
00000160: dd70 443d da00 6fbd 6b90 72bd dada 24be
00000170: 77de 53be 46ce 103d 165c 40bd 702e 673e
00000180: c4cc 463e 79a8 2d3e 2392 45be 55d2 c53d
00000190: f655 16bd 7365 0fbe 8287 3abe 1179 ccbd
000001a0: 529e 42be a7b2 42bd f6cd c5bd d8f6 2fbd
000001b0: d628 e53d e02e 0ebe 33db 5b3e 7195 88bd
000001c0: 517b 4f3d c289 dc3d 4837 f53d 0390 153e
000001d0: 02e9 cd3d 59b2 07bd f9d8 c93d 0f32 e83d
000001e0: 7609 bd3d 821e 3e3e 5707 1fbe bd49 d03d
000001f0: c4dc a53d 2a77 e1bd 3cd0 e13c 30eb 22be
-0.16119687 -0.04778172 0.10901076 0.061755423 0.07315639 0.17440946 -0.08679192 0.14691135
0.0019152914 -0.19185504 0.017027805 -0.05840251 -0.049745344 -0.1132128 -0.14236914 -0.14898078
-0.1875827 -0.16468659 -0.029445175 -0.13090399 0.12267438 -0.110445365 -0.13661364 0.064635515
-0.08981876 0.14686532 0.13876094 -0.084215805 -0.09904783 0.09450952 0.013300341 -0.063159786
-0.12845798 -0.021855483 -0.08633262 0.10737265 0.12975977 -0.060412824 -0.0747222 -0.0073085413
0.1278653 0.06923498 -0.088119745 -0.0725044 0.055788256 -0.0029428569 0.1434559 0.048900753
-0.07459487 -0.14767699 0.0904514 -0.19757445 -0.13530456 0.04992875 0.112087674 -0.17488953
0.061776996 -0.1812572 -0.14293288 -0.119766735 0.11835846 -0.14453389 -0.103295974 -0.06996479
0.16596307 0.17494623 -0.12547755 -0.068683796 0.14518818 -0.116593935 -0.019281209 0.20257103
-0.041961767 0.14282672 0.10423504 0.1619224 -0.08241587 -0.014280603 0.025942612 0.03439108
-0.13399237 -0.031168483 -0.015294948 0.1262394 -0.18265356 -0.1653065 0.11418875 -0.0755747
0.047959197 -0.05835042 -0.05921976 -0.1609911 -0.20690332 0.035352968 -0.04696282 0.22576308
0.1941405 0.16958798 -0.19294028 0.09659258 -0.036703072 -0.14003544 -0.18215755 -0.09984029
-0.19005707 -0.047533657 -0.096584246 -0.042960018 0.111894295 -0.13885069 0.21470337 -0.06669129
0.050654713 0.10768463 0.11973435 0.14605717 0.10054208 -0.03312907 0.098558374 0.11337673
0.0923032 0.18566325 -0.15530144 0.101703145 0.08098748 -0.11009057 0.027565114 -0.1591003

bn1.weight f4 [128]
00000000: e22c dc3f 13cf aa3f 7c0b 233f dce0 c73f
00000010: 7263 ca3f 81b8 833f be98 ae3f 0f42 3e3f
00000020: a319 d03f 7bff c53f 4c01 8c3f 88a2 9b3f
00000030: f2f0 b53f 3c4b 803f a5ec 3e3f 13c7 ae3f
00000040: d329 bc3f a25d b13f ec07 853f 7f13 813f
00000050: d884 883f ebaa 6c3f 3bba 433f 14c9 bc3f
00000060: c953 873f 21a7 973f 0147 f83f fac5 cd3f
00000070: c872 a53f 10e5 923f 4240 a73f 33db f33f
00000080: 0bac 8a3f a3aa b73f 93ba 853f 873e b33f
00000090: 3e6a 8c3f 7492 d33f 14ee 5e3f d968 8b3f
000000a0: 0c77 633f 0916 9b3f c88a 8d3f 8bb4 a03f
000000b0: d600 5f3f ee40 ca3f 14a7 d93f ab00 ef3f
000000c0: 6cc7 953f 54c4 b13f af5f 5d3f b447 6a3f
000000d0: 8a83 8c3f 657b 273f 792e 5e3f b5a6 c53f
000000e0: 80cc df3f 87d0 1c3f c409 293f 5697 ce3f
000000f0: e325 9b3f 03f4 ac3f 5f86 aa3f 2029 c93f
00000100: 026a 623f cea4 b83f 3965 783f 6536 cf3f
00000110: ddd9 913f ee0c b13f 6276 943f f3ab b63f
00000120: 0c9a 313f cea0 ce3f 0c19 e83f c0a9 553f
00000130: 4f5b ac3f 319f ce3f 4369 a13f d624 973f
00000140: e8ba 2d3f 3c3b aa3f 127a c13f 049c e53f
00000150: 16eb b63f 4344 893f 8e4e c03f 69aa aa3f
00000160: c6d2 9e3f 45e1 933f a4df 5c3f d593 aa3f
00000170: 840d a13f f0ef c93f d027 5e3f b29e a13f
00000180: fe76 753f 5a45 943f 1ff4 bc3f 094e d53f
00000190: 14a7 a73f 2bfb c83f 8cb1 2a3f 03ce 9e3f
000001a0: aaa1 8e3f b2b8 633f 1081 de3f 57ba ef3f
000001b0: 473c b33f 9d95 ac3f a689 c33f f67f 643f
000001c0: da71 5f3f ed3a a83f d786 ae3f 137d 713f
000001d0: 2cdb 9f3f c9f9 6d3f f6d1 0640 32e9 d33f
000001e0: 22ad b13f 047c 973f 7815 443f 8597 cd3f
000001f0: 2b2d af3f ddeb d83f 0957 473f 983f 823f
1.7201197 1.3344444 0.636894 1.5615497 1.5811598 1.0290681 1.3640363 0.7431955
1.6257824 1.5468591 1.0937896 1.2158976 1.4214156 1.002296 0.7457984 1.3654503
1.4700264 1.38567 1.0393043 1.0084075 1.0665541 0.924483 0.7645604 1.4748864
1.0572444 1.1847879 1.9396669 1.6076043 1.2925653 1.1476154 1.3066485 1.9051269
1.0833753 1.4348949 1.0447563 1.4003457 1.0969923 1.6529069 0.8708203 1.0891372
0.88853526 1.21161 1.1057978 1.2555097 0.8711065 1.5801065 1.7004113 1.8672079
1.1701484 1.388804 0.86474127 0.9151566 1.0977643 0.6542266 0.8678966 1.54415
1.7484283 0.6125569 0.66030526 1.6139934 1.2120937 1.3511966 1.3322257 1.5715675
0.88443005 1.4425294 0.97029454 1.6188475 1.1394612 1.3832071 1.1598628 1.4271225
0.6937568 1.6142824 1.8132644 0.8346214 1.3465365 1.6142331 1.2610248 1.1808116
0.6786332 1.3299327 1.5115378 1.7938237 1.4290493 1.0723957 1.5023973 1.3333255
1.2408073 1.1553122 0.8627875 1.3326365 1.258225 1.5776348 0.867795 1.2626555
0.9588469 1.1583664 1.4762 1.666444 1.3097863 1.570165 0.66677165 1.240662
1.1143086 0.889537 1.7383137 1.8728741 1.400277 1.3483158 1.5276382 0.8925775
0.872831 1.3142983 1.36349 0.94331473 1.2488761 0.92959267 2.106565 1.655554
1.3880961 1.1834722 0.7659526 1.6061865 1.3685659 1.694698 0.7786718 1.0175657

bn1.bias f4 [128]
00000000: 3f45 55be dff0 383f 1ec7 04bf e523 20bf
00000010: 09ca 10bf 0a5a 68be 1ceb c1be 03c2 36be
00000020: 0e63 003f 7fc2 37bc 9e0b 103f d336 b83e
00000030: a911 a3be cd6a 3e3e 4636 d33d 6c29 15bf
00000040: e959 95be 3adf 783e b69d 083f af2f 19bf
00000050: 3553 d03e d1c2 4ebf 425c d2be acb2 023f
00000060: d268 bc3e e022 56bf 1d0b dabc e741 79bd
00000070: c660 093f ca67 39bf 002c 1d3f 6695 1b3f
00000080: ee79 023f 6820 9bbe 6c6a 1fbf 6169 29bf
00000090: e378 583f 925b 903e 1fe8 b8be 19fc d93e
000000a0: 608c c5be eb3d 2abf f6ea dbbe 5e8b be3e
000000b0: 4ddb c33e b9b9 c8be cdfb 563e fc33 023f
000000c0: cfda c03e 1ebf f2be 29cd d6be 8f0a 6c3e
000000d0: 45f9 2bbe 348d 123f 9b59 0cbf 1224 babe
000000e0: b135 283f 8211 55be 6e95 173f 624d 7bbe
000000f0: c40e e0be 83c1 80be 33e0 3ebf 7223 2ebf
00000100: 0269 cbbe 2f11 c9be a195 c4be 9cc4 1bbf
00000110: 32c0 1cbf b250 883f 9e86 00bf a1d6 c9be
00000120: 8595 10bf 3731 9dbd 3629 963e 0247 05bf
00000130: ab5c 0b3f 95a9 f7be 975d 363e 2acb 203f
00000140: bfaa b73d 6744 e03d ddf9 d0be 500d 463e
00000150: 8cbc b9be 74e1 02bf f414 a53e 4b68 44bf
00000160: 6b74 12bf 4952 e8be b68c 373e 1b33 aa3e
00000170: e4f6 17bf 4d18 0fbf ff91 f8be cce5 91be
00000180: 26cb 64bf 94f3 42bf ac31 d33e 2426 39bf
00000190: 90bb 4ebe 8c37 94be 94eb c8be b7d4 0f3f
000001a0: 64a1 ebbd ed13 29bf 7103 c73e 5b2e a9be
000001b0: 45c5 0abf 11c4 c43e dbe6 59be 7614 00bf
000001c0: 18f5 1f3f 2cbe b23e 04ee b0bd 6961 31bf
000001d0: 684c 8a3e ce37 193f e249 a0be 342f cbbe
000001e0: 826e 5bbf 451b 923e fd60 a3be 9bf6 cc3e
000001f0: 55ee debe f610 1c3e 017e 953e 6b52 37bf
-0.20827197 0.7224254 -0.5186633 -0.6255477 -0.5655828 -0.22690597 -0.37874687 -0.17847447
0.50151145 -0.011215805 0.56267726 0.35979328 -0.3184941 0.18595429 0.10313086 -0.5826633
-0.29170159 0.24303904 0.5336565 -0.59838384 0.40688482 -0.80766016 -0.41086012 0.5105388
0.36798722 -0.83646965 -0.026616627 -0.060853865 0.5366329 -0.72423995 0.61395264 0.6077484
0.509673 -0.30298162 -0.6227176 -0.6617642 0.8455946 0.28194863 -0.36114594 0.42575148
-0.3858366 -0.6650073 -0.42952698 0.37215704 0.3825325 -0.39204195 0.20994492 0.5086057
0.37666938 -0.47411436 -0.419534 0.23050903 -0.16794308 0.5724671 -0.5482423 -0.36355644
0.65706927 -0.2080746 0.59212387 -0.24541238 -0.43761265 -0.25147638 -0.7456085 -0.68022835
-0.39728552 -0.39270923 -0.38395408 -0.6084688 -0.61230767 1.0649626 -0.5020541 -0.3942156
-0.5647815 -0.076754026 0.29328316 -0.52061474 0.54438275 -0.48371568 0.17809139 0.62810004
0.08968114 0.10950547 -0.4081563 0.19341016 -0.36276662 -0.51125264 0.32242548 -0.7672164
-0.5720889 -0.4537528 0.1792477 0.33242115 -0.593611 -0.55896455 -0.48548886 -0.28495634
-0.8937248 -0.7615292 0.41248834 -0.7232382 -0.20188737 -0.2894863 -0.39242232 0.5618395
-0.11505392 -0.6604603 0.38869813 -0.3304318 -0.5420726 0.38430837 -0.2127947 -0.5003122
0.6248336 0.34910715 -0.08639148 -0.6928926 0.27011418 0.59850776 -0.31306368 -0.3968445
-0.85715497 0.2853643 -0.31909934 0.40031895 -0.43541208 0.15240845 0.29197696 -0.71610135

bn1.running_mean f4 [128]
00000000: dce7 8bc0 63f2 3ac2 f659 19c1 bf1c 97c1
00000010: a45f dec1 f765 3c42 0c72 a641 ffc9 ba41
00000020: a94a b241 2fe9 d340 9fd5 e140 6727 c9c1
00000030: d90f 9ec1 35db 0c40 5bd2 89c1 2e66 7840
00000040: d45d cf40 6ee4 82c0 d9ce d9bd a978 8f41
00000050: 04fc d4c1 e45e c440 4e0c 43c1 985a dcc1
00000060: 155b 0942 7d52 1541 58ff 7341 7a32 3f41
00000070: a778 8441 fa65 a341 3d2d e5c0 1103 4dc2
00000080: 3e7b 3c40 2b4e 0841 3098 3342 e2da 08be
00000090: 7ee4 9040 ee7e a041 0a06 f3c1 1892 a53f
000000a0: 45ac 2e41 4b9f 29c1 c39a cdc1 ff11 0542
000000b0: 3e99 38c0 4007 e2bf 1daa 6e41 27d4 063f
000000c0: 069a b0c1 6221 7d42 f9c4 723f 3dec 9441
000000d0: 810d f1c1 a178 d8c1 7b90 2e41 bb0f 003e
000000e0: b722 3f41 80b7 11c2 fa32 fb41 6747 40c1
000000f0: 90d1 6fc1 de46 0542 1b78 eb41 3bfd 1d42
00000100: 6191 2241 49ef a341 bd8f 1bc1 fbfc 97c1
00000110: 5383 06c2 f515 00be e2a8 3842 649b 41c0
00000120: 3ea4 3841 0925 0d42 6240 55c1 3e5b 8341
00000130: 4072 9541 29aa b7be 80ca 51c0 1b34 58bf
00000140: d503 cac1 00d9 2ec1 76ac c3c1 89ab 8f40
00000150: f6d8 b941 04c1 a1c0 5bc4 af40 0b15 6241
00000160: ae95 0b42 7e30 41c2 b547 42c2 409b 2d3e
00000170: dd05 d541 b45a 2242 5708 0142 d1dc 873f
00000180: 6e8c fd3e 7718 cc3d 15b2 89c0 4297 febe
00000190: 088b 82c1 578e 4340 1f6f 10c2 0f41 8bbf
000001a0: 5864 ffc1 208a af41 ed17 86c1 c830 4b41
000001b0: d74b 4cc1 d031 d041 efc7 b441 a83f a93f
000001c0: 865e ca41 e3c2 a33f 6439 4a41 f435 acc1
000001d0: 5eac b341 e31a 39c1 3906 3b40 0474 f2bf
000001e0: 3e1c f03f 0745 5ec1 e2a3 82c1 b061 bc41
000001f0: c2b2 a1c1 8af0 aa3e 7283 2542 8d8a f33f
-4.372053 -46.736706 -9.584463 -18.889036 -27.7967 47.099575 20.805687 23.34863
22.286455 6.622215 7.057327 -25.14424 -19.757738 2.2008793 -17.227713 3.8812366
6.4802036 -4.0903845 -0.10635156 17.933916 -26.623055 6.1365833 -12.190504 -27.544235
34.338947 9.332639 15.24984 11.949823 16.558912 20.424793 -7.1617723 -51.252995
2.945022 8.519084 44.89862 -0.13364747 4.527892 20.061977 -30.377949 1.2935209
10.917058 -10.60139 -25.700567 33.267574 -2.8843532 -1.7658463 14.916532 0.5266747
-22.075207 63.2826 0.94831806 18.61535 -30.131594 -27.0589 10.910274 0.12506
11.945975 -36.4292 31.39989 -12.017432 -14.988663 33.319206 29.433645 39.497295
10.160493 20.491838 -9.722592 -18.998526 -33.628246 -0.12508376 46.164925 -3.0251093
11.540098 35.286167 -13.328218 16.419552 18.680786 -0.3587201 -3.2779846 -0.84454507
-25.251871 -10.9279785 -24.45921 4.4896894 23.230938 -5.0548115 5.492719 14.130137
34.89617 -48.297356 -48.570026 0.16953754 26.627863 40.588577 32.258144 1.0614263
0.49521202 0.09965604 -4.3029885 -0.49724776 -16.317886 3.0555627 -36.108517 -1.0879229
-31.923996 21.942444 -16.761683 12.6994095 -12.768516 26.024323 22.597624 1.3222551
25.296154 1.279385 12.639011 -21.526344 22.459164 -11.569064 2.9222548 -1.8941655
1.8758619 -13.891852 -16.33002 23.547699 -20.212284 0.33386642 41.378365 1.9026657

bn1.running_var f4 [128]
00000000: 0d8d d740 11d7 8b42 20db ca42 8d98 dc40
00000010: 492a 8441 82b9 d142 a5fa 4141 70e9 5542
00000020: dc10 8442 7e4c 7a40 ba64 8341 a525 4441
00000030: 493d 6241 0e2c 7b41 aca1 ea41 35f6 a940
00000040: ac43 e63f a13f e03f b14a 4f41 4d42 f741
00000050: 53aa ed42 ac60 2a41 fa0b b442 940c 1b42
00000060: 0250 2042 8120 3841 f8d0 1b42 d30a 8240
00000070: f1e5 8042 ee3f bf41 186f 1041 1d11 8242
00000080: 746a 6d41 62bf 0340 dca5 ed42 af7d cd40
00000090: 1f0e 0a40 eb2c f941 40bc 9442 d0d0 e33e
000000a0: 4ae4 0943 6b9c 2341 cbf5 ae41 477e 7e42
000000b0: b5e7 d341 21d8 633f 6dc5 5c41 c2dd b140
000000c0: b1f4 9f41 0bb4 c342 d832 2e42 b6be 1942
000000d0: 6afb b541 bf83 e742 6a55 0541 d1ff c440
000000e0: b3ac 8941 580d ce42 025a c942 8e34 1740
000000f0: 05bb d840 842c a241 4738 1542 f7bc 5d42
00000100: 6e78 0b42 0fb7 b841 80a5 9c40 52ee aa41
00000110: 7241 f441 c72a 653e d749 2242 7948 9d3f
00000120: a1b8 d242 1bbf 7142 29e8 8740 cba7 b142
00000130: d9fc aa41 b48d 5d40 573f a83e ccc7 e640
00000140: 2d60 4d42 53f2 0741 241d 0942 6846 7d40
00000150: 022a 6d42 0454 9c41 c061 e140 bf01 5941
00000160: ad76 0342 1e11 5e42 b0a5 9742 4fe9 173e
00000170: b147 3741 41ea c542 e126 8342 6027 653f
00000180: 9ebe d23f 5fec 643f 3454 f83f 675b de3d
00000190: c6bc 3841 f07e 833f 1b9b 4d42 fadc 0941
000001a0: 1336 c842 9266 7f42 886c a640 e82a 6b41
000001b0: 185e d541 1a2b af41 4d6a 4c41 8b84 a640
000001c0: 9130 aa41 c1c6 803e 67e5 0341 28fb c841
000001d0: 2a90 1442 e780 9342 d04d e13e 60b1 c03f
000001e0: 0a33 143f 83f7 a041 647a 8f41 85ce 5441
000001f0: b6e1 4c41 ea0b 203f 7178 4942 b719 3940
6.735968 69.92005 101.42798 6.893622 16.520647 104.86232 12.1236925 53.477966
66.03293 3.9109187 16.424183 12.259191 14.139962 15.698256 29.328941 5.3113046
1.7989402 1.7519418 12.955735 30.907373 118.832664 10.648602 90.02339 38.762283
40.078133 11.507936 38.95407 4.0638213 64.449104 23.906216 9.0271225 65.033424
14.83849 2.058556 118.823944 6.421592 2.157112 31.146933 74.367676 0.4449525
137.89175 10.225688 21.870016 63.623318 26.488138 0.8900166 13.7982 5.55832
19.994478 97.85165 43.549652 38.43624 22.74776 115.75732 8.333353 6.1562276
17.209326 103.02606 100.6758 2.3625827 6.7728295 20.271736 37.30496 55.434536
34.867607 23.089384 4.8952026 21.366367 30.531956 0.223796 40.57211 1.2287742
105.3606 60.436626 4.24709 88.82772 21.37346 3.4617739 0.32860824 7.2118893
51.34392 8.496661 34.278458 3.9574223 59.291023 19.541023 7.0431824 13.562926
32.865894 55.516716 75.82361 0.14835094 11.455003 98.95753 65.575935 0.89513206
1.6464422 0.89423174 1.9400697 0.10857277 11.546087 1.0273113 51.40147 8.616449
100.10561 63.850166 5.2007484 14.697975 26.670944 21.896046 12.775952 5.2036796
21.273714 0.25151637 8.243506 25.122635 37.140785 73.75176 0.4400468 1.505413
0.5789038 20.120855 17.934761 13.30042 12.805105 0.6251818 50.36762 2.8921945

fc2.weight f4 [64, 128]
00000000: 1fc3 3d3e 8831 14bd 9697 3b3d 3c75 bebd
00000010: 8d3a 113d e6a6 3f3d 59e4 8f3c 67fc 05bc
00000020: 5157 3f3d d3bb 8c3d bb71 d7ba 9860 9c3c
00000030: 078c 5fbd 90e3 603d 4a57 3f3c 4a5b 5dbd
00000040: e61b 99bd ea6b f3bc 1ef3 553e 9a51 293d
00000050: f426 2f3e ca99 b4bc 0579 093d 016c 0a3e
00000060: ab0f 28be e803 a23d 8960 ef3c ef83 d0bd
00000070: b993 2b3e 4518 023e 542d 3b3b aa24 b3be
00000080: fea2 043e 4f70 68bc bc3a f7bc 9a88 c03b
00000090: db0f 3e3e 60a7 343e 68d0 4a3d 3eb4 dc3d
000000a0: 589b c4bd 5768 7abe fe28 7d3d cb70 4a3d
000000b0: 21c8 c03d e0a4 82bd 9db1 553c 2bb3 70bd
000000c0: 0ab5 efbd b4ee de3d 6a3a 0dbe 8108 c03c
000000d0: 5fac 8dbd 5d59 273e 4cca b43c 7c31 a0bd
000000e0: 03e0 db3c 48e5 af3d 0960 143b 7625 253e
000000f0: 3c49 8b3c 7ef4 8bbc 98d2 95bd 42b4 0ebd
00000100: 3dd2 33bd e5b3 8fbd 384a 173d 0901 34be
00000110: 3ffe a13d 86ce 2f3e 09a2 b03c 76c4 b4bd
00000120: ad06 9abd 09cf 413e e84b 75bb 9da1 96bd
00000130: 8181 fb3d 3e8c 463d 841d d63d 34c0 643c
00000140: 0be3 a5bd c612 863c 06e6 09bd e999 c13d
00000150: c3e8 b1bd 6358 58bd 2620 e63d e759 36bd
00000160: e8da 49bd 7949 383e 4e3f 3f3d 2024 b93d
00000170: e5e1 7b3d d130 0f3e 0cc9 19bb c962 353d
00000180: b0de f83c 3b9c 6abd 1dd6 18be 34af 5abe
00000190: 2b51 17be 1e64 293c e16b db3d eeea 3fbd
000001a0: 8f04 853d 361e fa3c 6d9e 1c3e abd7 213e
000001b0: 7e9b b6bd 464d 893d 576f a33d af65 3e3d
000001c0: 652a 20be c423 703d f171 fdbd fb48 42bd
000001d0: 6f27 8a3d 54a8 cc3d c14d 6b3d 4a31 513d
000001e0: 9ac8 273d ab77 5abd 8aa0 df3d 2b91 d53d
000001f0: 7b6d be3c a590 07be 9938 bbbd 8b82 3fbd
00000200: bfab 08be fad1 86bd 36ad 93bd 0be1 84bd
00000210: 8e5b 81bd e24a 683d c5d9 a23d 561e 4a3d
00000220: 2f2f a1bd d5df 97bd da48 f63d 496d 47bd
00000230: 4823 583d 2883 5d39 1b47 e3bd b706 83bd
00000240: a3a1 fe3c c589 b93c 2e03 cfbc 9a15 a2bd
00000250: d8b4 19be df5e 7abc a1d3 0d3d 56e3 e1bd
00000260: dc63 d13d a8ab 123c f07d 20be 1ca3 09bc
00000270: e2bf 80bd 396c 35be f39e 713d 2430 923d
00000280: 594b dcbc ef31 4d3c adbc c03d aaa0 fe3d
00000290: e2d4 a63d 870e aebd a276 46bd 780d 063d
000002a0: 874c 8bbd 109d 143e d9b7 adbd 9c27 47bc
000002b0: 666d 563d df4b e33d b7ed 06be 8a03 2ebd
000002c0: 608b f63d 16b5 2ebd b2b0 e53d 0678 dc3c
000002d0: a6ec 143d a252 dcbd 9ef7 553c 5a03 613d
000002e0: fa55 cdbc cf01 89bd 1737 b9bc d769 1b3c
000002f0: a3c2 63bd a313 30bd 7c5e 8cbd ddf5 b2bd
00000300: c95a fc3d fa6a 4dbd 77c9 ff3b 46f4 0f3c
00000310: 6f0b b3bd d478 083e ed0a 073d be8d f33d
00000320: 1f90 b43d 6128 8fbd 7f16 a7bb 41b9 223e
00000330: 4696 3f3c e45e edbc e3f3 ab3e abdc e33d
00000340: 2108 883b 0e3a e73d 871c c53c 9223 39ba
00000350: f834 1abe c13b de3d 4ea7 86bc a555 1cbe
00000360: eb13 02be b66e 21be c17a 5cbd 0e59 8d3e
00000370: c3b9 5dbd 2740 55bd 9a53 f9bc a907 d0bd
00000380: 5267 003d 7013 0e3e fb1e 9c3d 9da1 f93e
00000390: b5b2 92bd 6c9a 133e c6af 49bd 481c 2ebd
000003a0: eb2f 8c3c 2e0f 3dbc 2fdd 083e dcd1 0abb
000003b0: 5dac 623d 1763 63bd 6b76 d4bd 2ed9 c9bc
000003c0: 4b35 103e b570 9cbc c12f bfbb 4356 823d
000003d0: 02ae 19be d71f b0bd c592 abbc cd06 b83d
000003e0: e3ee 233e 97ba 993c 0fa7 afbd ae4f 1c3c
000003f0: 859f a6bd 8ac7 f33d da0f 803d a162 cf3d
0.18531464 -0.03618005 0.04579886 -0.092997044 0.03545623 0.046790026 0.01756494 -0.008177853
0.04671413 0.06871762 -0.0016437093 0.019089028 -0.0545769 0.05490452 0.011678526 -0.05404214
-0.07476024 -0.029714543 0.20893523 0.041337587 0.17104703 -0.022045989 0.03356268 0.13517763
-0.16412227 0.07910901 0.029220836 -0.10181414 0.1675557 0.1270457 0.0028560953 -0.3498891
0.12952802 -0.014186933 -0.030179374 0.005875659 0.18560736 0.17641973 0.049515158 0.10776566
-0.09599942 -0.24453865 0.06180667 0.049423974 0.094131716 -0.06379104 0.013042835 -0.058764618
-0.11704452 0.10885373 -0.13791814 0.023441555 -0.06917643 0.16342683 0.022069119 -0.078219384
0.026840216 0.08588654 0.002264025 0.16127571 0.017002694 -0.017084356 -0.07315558 -0.034839876
-0.04390167 -0.07016734 0.036936015 -0.1757852 0.07909822 0.17168626 0.02156164 -0.088265345
-0.075208046 0.18926634 -0.0037429277 -0.07355044 0.1228056 0.04847359 0.104548484 0.01396184
-0.08099946 0.016366374 -0.033666633 0.09453184 -0.08686974 -0.052818667 0.112366006 -0.04451933
-0.04928103 0.17996778 0.04669123 0.090400934 0.061494727 0.13983466 -0.002346578 0.044283662
0.030379623 -0.0572779 -0.14925428 -0.21355897 -0.14777057 0.010338811 0.10713936 -0.046854906
0.0649501 0.030531984 0.1529481 0.15804927 -0.089163765 0.06704192 0.07980221 0.04648369
-0.15641172 0.05862786 -0.12375248 -0.04743288 0.067458026 0.099930435 0.0574472 0.051072396
0.040962793 -0.05333678 0.10919292 0.10428079 0.023245564 -0.13238771 -0.091416545 -0.046755355
-0.13346766 -0.065830186 -0.07210772 -0.06488236 -0.06316291 0.05671204 0.079516925 0.049345337
-0.07870328 -0.074157394 0.12025614 -0.048688207 0.05276802 0.00021125062 -0.11097547 -0.06397765
0.031082934 0.022648701 -0.02527007 -0.079142764 -0.15010393 -0.015281408 0.034625653 -0.11029689
0.10224125 0.008952059 -0.15673041 -0.008400705 -0.06286599 -0.17717065 0.058989476 0.07138088
-0.026891397 0.012524112 0.09410987 0.12432988 0.08146073 -0.084988646 -0.04845298 0.03272769
-0.06801706 0.1451304 -0.08482332 -0.01215544 0.052350424 0.11098456 -0.13176619 -0.042483844
0.120383024 -0.042653166 0.112153426 0.0269127 0.036358498 -0.107579485 0.013059525 0.054934837
-0.02506541 -0.06689798 -0.022609277 0.009485683 -0.055605542 -0.042987477 -0.06853959 -0.08738301
0.123220034 -0.05015085 0.007805999 0.008786267 -0.08742415 0.13327342 0.032969404 0.118922696
0.088165514 -0.069901235 -0.0050991173 0.15890981 0.011693543 -0.028975911 0.33584508 0.111260734
0.0041513597 0.1129037 0.024061454 -0.00070624903 -0.15059268 0.10851241 -0.016437199 -0.15267046
-0.1270291 -0.15764889 -0.053828005 0.27607006 -0.054132234 -0.052063134 -0.030435372 -0.10157711
0.031348534 0.13874602 0.076230966 0.48756114 -0.07162992 0.14414376 -0.049239896 -0.04250744
0.017112693 -0.011539264 0.13365625 -0.0021182215 0.05534016 -0.05551442 -0.10374149 -0.024639692
0.1408283 -0.019096712 -0.00583455 0.06364109 -0.15007785 -0.08599823 -0.020944009 0.08985672
0.16009097 0.01876573 -0.08576786 0.0095404815 -0.08135895 0.119032934 0.062530234 0.10126234

fc2.bias f4 [64]
00000000: 5bde 973d a3ef 32bd 0da6 2f3d 69e2 1dbd
00000010: b948 b3bc 2811 4a3c c840 bbbc 7b34 95bc
00000020: 30f9 08bd 75e4 56bc f7cc 943b bb55 ea3c
00000030: 1d43 91bd 195e 773d 463b cbbd 67a2 423d
00000040: f9f4 e9bc 8b04 99bd 84ac 0cbd 736c 17bd
00000050: 6f0e 843d 3eb1 613d 7295 2e3c 2e83 be3d
00000060: d605 97bd 6d49 67bc 963f 42bd 6ddf 27bb
00000070: b4ce 923d d990 9abd b766 56bc 2b81 8fbc
00000080: 46c7 093c feef 563d f7c7 aa3d 79da 253d
00000090: 4f96 823d ff8a efbc dad6 cd3c 4fac 04be
000000a0: aba9 34bd 050b 3dbb 330d 6b3c 5ee5 913d
000000b0: 0dd0 8d3d 73ca 6cbd 14e9 42b9 76ff 1dbd
000000c0: bbbe 9a3c d400 89bd 5932 babc 669b bb3d
000000d0: a16f f43c 520c 163b b75f 983c 5f76 3cbd
000000e0: 2fca 4d3c bc7c 22bb b1c1 86ba 475c 6fbb
000000f0: 4912 853c 51e2 91bc 8207 843d ef8c 473d
0.07415458 -0.043685567 0.042882968 -0.038546 -0.021885263 0.012333192 -0.022858039 -0.018213501
-0.03344077 -0.013115992 0.0045410353 0.028605333 -0.07092879 0.060392473 -0.09923415 0.04751816
-0.028559195 -0.0747157 -0.03434421 -0.03696866 0.064480655 0.055100672 0.010655748 0.09302364
-0.0737416 -0.014116627 -0.04742392 -0.002561535 0.07168332 -0.07547159 -0.013086013 -0.017517647
0.008409327 0.052474968 0.083389215 0.040491555 0.06376325 -0.029241083 0.025126863 -0.12956356
-0.04410712 -0.002884568 0.014346409 0.071238264 0.06924448 -0.057810258 -0.0001858811 -0.038573705
0.018889775 -0.06689611 -0.022729086 0.09160499 0.029838385 0.0022895527 0.018600328 -0.046011325
0.012560411 -0.0024793586 -0.0010281113 -0.0036523507 0.01624407 -0.017808111 0.064467445 0.04871839

bn2.weight f4 [64]
00000000: df19 1340 9c40 2a40 151b 1140 b679 2e40
00000010: 4765 1540 1286 0640 6f95 3940 236e 3b40
00000020: 0871 3040 bacc 2540 1afe 2540 1b5f 4840
00000030: c5f2 4940 7965 1940 199e 1540 ef4f 0d40
00000040: 9680 1240 2448 4440 ec06 e93f ffc5 2840
00000050: e5a4 0e40 974f 2a40 c09c 1940 e51f 1140
00000060: d3c2 1340 ce27 0b40 3a2c 3f40 b91b 2440
00000070: 41d2 3340 07b3 1c40 d334 0e40 d202 2a40
00000080: fdac 2440 1a31 3840 58b2 2840 6043 0a40
00000090: 5511 3a40 43e1 3040 ea5f 3840 1ad5 1e40
000000a0: 1a18 3b40 7586 1440 b0ce de3f 8154 0540
000000b0: 07d0 1b40 a453 0c40 5e3a 0940 8b70 1c40
000000c0: a028 2740 a576 4140 493e 2740 4974 3b40
000000d0: a70f 0140 2a8c 3340 18f7 0f40 7ce0 3040
000000e0: 941c 2840 05f8 2b40 78c7 fd3f 99dc 3440
000000f0: bb82 3240 3b29 2f40 adbf 0b40 cae4 4340
2.298454 2.6601934 2.267278 2.7261786 2.3343065 2.101933 2.8997457 2.9285972
2.7568989 2.5906205 2.5936341 3.1308048 3.1554425 2.3968184 2.3377745 2.2080038
2.2890983 3.066903 1.8205237 2.6370847 2.2288144 2.6611078 2.4001923 2.2675717
2.3087661 2.1743045 2.9870744 2.564192 2.8097079 2.448427 2.2219741 2.6564221
2.5730584 2.877997 2.6358852 2.1603622 2.9073079 2.763749 2.8808541 2.4817567
2.923346 2.3207066 1.7406826 2.0832827 2.434572 2.192605 2.1441875 2.444369
2.6118546 3.0228665 2.6131766 2.9289725 2.0165803 2.80543 2.2494564 2.7637014
2.6267443 2.687013 1.9826498 2.8259642 2.7892292 2.7368915 2.183574 3.0608392

bn2.bias f4 [64]
00000000: 4eaf 80be 7231 d83e a0b7 cb3d af6a f4be
00000010: 3d32 ce3e abcd bcbe 1133 6d3d a55d 343e
00000020: db4f 913e bf83 e83e c83e d53d ab52 78be
00000030: b268 ad3e 82ef 2d3f a3f5 713e cc67 0abf
00000040: 6e96 90bd f93e a7be f387 793e bbba f03c
00000050: 2aa8 a9bd cde0 7fbb 4b8c 03bf 9107 49bd
00000060: 2576 603f 61bb cfbc 6c52 aabe 5a77 0f3e
00000070: 89be e13d 224c 9fbe ebd6 b13e d918 5abe
00000080: 5515 02ba b047 5c3b 7c14 62be 39e6 db3e
00000090: 72a3 013f f754 89be e4b8 d7bd 1539 ad3d
000000a0: ecef c5be 6b28 d93e 8591 763e 80cb 38be
000000b0: 6c88 c4be 7c8c da3d 677d bfbe 438f b7be
000000c0: 0e3a 8e3c c775 11bd d024 163e 5518 873e
000000d0: d6c6 523e 2923 d63d ba79 fa3e 66b6 ef3e
000000e0: 7de9 82be a123 8cbe 6005 a63e 4e93 9d3e
000000f0: 4a86 10bf 8af6 d43e b043 a5be 613e 00bd
-0.25133747 0.42225224 0.09947133 -0.47737643 0.40272704 -0.36875662 0.05791003 0.17613848
0.28381237 0.45413014 0.10412365 -0.24250285 0.3386894 0.67943585 0.23628859 -0.5406463
-0.07059942 -0.32665232 0.24368267 0.029385915 -0.08284028 -0.0039043904 -0.51385945 -0.04907948
0.87680274 -0.025357904 -0.33266008 0.14010373 0.1102267 -0.31112772 0.34734282 -0.21298541
-0.0004962285 0.0033612065 -0.22078127 0.42949083 0.5064002 -0.26822636 -0.10533312 0.08458153
-0.38659608 0.4241365 0.24078949 -0.18046379 -0.38385332 0.106713265 -0.37400362 -0.35851488
0.017361667 -0.03551271 0.1466248 0.2638575 0.20583662 0.10455925 0.48920995 0.46818846
-0.25568762 -0.27370933 0.32425976 0.30776447 -0.5645491 0.41594344 -0.32278204 -0.03130949

bn2.running_mean f4 [64]
00000000: fba9 283f 6a9b 55bd 77d1 cebe 50c6 fdbe
00000010: ac2d c7bf 6483 0cbf 40c0 c7be a04f 4f3f
00000020: cd00 803f f91f 4dbe 89f8 fb3a ac1c 263f
00000030: 3ce7 173f 5961 4a3f db62 6fbe ef38 87bf
00000040: dae9 6fbf c717 eabe 46a7 2ebe 7772 cbbe
00000050: 124f 0c40 8a67 14bf a432 313f 033d f63e
00000060: 4fc4 af3e 7439 b73f 36f3 a03d 5bea 803f
00000070: 3c8d 093f 2c93 463f 425b 7c3e a635 c63e
00000080: 5493 233e 157c 353e 0d13 9f3e f7bc 9f3e
00000090: 4ded dc3d 63fb 353f e161 103f 3763 323f
000000a0: b0fa 753e 4ecc 923e 98a7 183f 1f1d 08bf
000000b0: ff5c 69be 1e15 a8bf 5f36 04bf e6d4 82bf
000000c0: 0f62 843f b91c 16bf 7647 94bf 8f3b 363f
000000d0: 9723 463e 473c 153f 520c 603f 1143 15be
000000e0: 6b42 31bf fed8 20be da25 1bbe dcc5 933f
000000f0: 1de6 0dbf 3782 873f f140 913f 8449 9d3f
0.6588437 -0.052150168 -0.40394184 -0.49565363 -1.5560813 -0.54887986 -0.39013863 0.80980873
1.0000244 -0.20031728 0.001922385 0.648875 0.5933721 0.7905479 -0.23377554 -1.056425
-0.93716204 -0.45721266 -0.17055997 -0.39735767 2.192326 -0.5797049 0.69217896 0.48093423
0.3432946 1.4314408 0.07858889 1.007152 0.5373113 0.77568316 0.24644187 0.38712806
0.1597417 0.17723115 0.31069222 0.31198856 0.10787449 0.7108671 0.5639935 0.6968264
0.24021411 0.28671497 0.5963073 -0.53169435 -0.22789381 -1.3131444 -0.51645464 -1.0221221
1.0342425 -0.5863758 -1.1584308 0.7118463 0.19349514 0.582951 0.875188 -0.14576365
-0.6924197 -0.15707776 -0.15151158 1.1544757 -0.5542925 1.0586613 1.1347944 1.228806

bn2.running_var f4 [64]
00000000: a5a3 043f 2fa0 1b3f f91a 633e 6a0d 023f
00000010: b5dd ab3e 8a53 093f e3fa 1e3f 095b ff3e
00000020: 84a4 ae3e b50b 863e c9e8 8b3f a66e 003f
00000030: 8e9b 8c3f ed9b 053f 53cd 853e 36c1 223f
00000040: ee0d 9e3e 4565 013f e612 6b3f 343a d63e
00000050: df57 743e 7701 bd3e aff9 ee3e 5a66 fe3e
00000060: bf46 0b3f 485c 363e ebfc 273f 6430 ee3e
00000070: 1053 903e 416d 8d3e df04 c23f 50f0 703e
00000080: b51f bd3e 2861 c03e 524a eb3e ef85 aa3e
00000090: 38cf 0f3f e4dc 953e a873 973e 64da 9d3e
000000a0: 36a0 c43e 7286 fc3e b3b1 403f f805 fa3e
000000b0: e18e 023f 8155 b63e 559b 0040 3f0e 7d3e
000000c0: 4f49 d23e bd73 5e3f ad83 c63f e242 c43e
000000d0: 5ff2 9f3e c813 8d3e 79b5 903e cceb 013f
000000e0: bb15 173f eb74 413e 5045 be3e 1626 d63e
000000f0: ae5f 653f 06e7 fb3e 273f 103f 4c24 3d3f
0.518122 0.60791296 0.22178258 0.5080172 0.33567587 0.53643095 0.6210157 0.49874142
0.3410989 0.26180807 1.0930415 0.50168836 1.0984972 0.5219105 0.26133212 0.63576066
0.30870003 0.5054515 0.9182571 0.4184128 0.23861645 0.3691518 0.46674868 0.49687463
0.54404825 0.1780864 0.656203 0.46521294 0.28188372 0.27622417 1.5157737 0.23529172
0.36938253 0.37574124 0.4595514 0.33305308 0.56175566 0.2927009 0.29580426 0.3083068
0.3840348 0.49321324 0.7527115 0.4883268 0.50999266 0.3561211 2.0094807 0.24712466
0.41071555 0.8689535 1.5508934 0.38332278 0.31239602 0.27554154 0.28263453 0.5075042
0.59017533 0.18892257 0.37162256 0.41825932 0.8959912 0.49199694 0.5634636 0.7388351

fc3.weight f4 [10, 64]
00000000: 468d 383f 4ba8 61be 84f5 68be 07ef aabe
00000010: aea7 2cbf b0c9 8fbe c33f 9d3e 9713 963e
00000020: 84ff 9f3e a714 e73e 8b3e a53e b62e 08bf
00000030: 29a1 9bbe 48ad 373d 918a 4ebf 3920 20be
00000040: 1de5 3fbf bca7 b2be 7b70 d7be 0798 68be
00000050: 6f20 db3e 8535 003e 7368 0b3c 0496 193d
00000060: d89d 1c3e 67ae 283f 572b c53e 3606 623e
00000070: 4e6f 37bf 4f34 0e3f 8bd9 38be a992 e13e
00000080: 75a8 c0be 5077 b93e 6105 f93d c260 313d
00000090: 417c f83d 1454 493c 9443 883e a1f3 183f
000000a0: 602d 96bd 9b78 e83e 7adc 45be ce4f 9bbe
000000b0: a062 5d3f 0612 48bf 5029 03be e8d6 e1be
000000c0: 3f29 debe 87e1 063f 3f74 c83d 3700 50bf
000000d0: ca94 03bd 5f90 ff3e ab59 823e 6a5e c6be
000000e0: 5a81 503f fe63 67be 7cbf c8bd 918d 263e
000000f0: 1c09 abbe 6eb8 ce3e 0fcc 603e 3cb1 363f
00000100: 0c9d 10bf e575 813e 8405 a53e 2b51 743e
00000110: d16e 6b3f 3acd 35bc 280b 313e a61e 29bf
00000120: 9a84 01be 8bfd ca3e 39da e23e 3020 33be
00000130: a671 31bf 488c a73e 376b e13e a3bd 0fbf
00000140: 9b9b b33d 60ec 1bbf 1446 8d3d ce96 f7be
00000150: 6293 1ebf dffd 0bbf e6d2 e3be 46a7 00bf
00000160: 37f7 bd3e 4bac eebe 9601 34be 583b febd
00000170: 12cd a33e e9f5 72be fac3 fd3e 412a d13d
00000180: 878b 1abf c965 cbbd 903d 82bd db16 2cbe
00000190: 36a6 173f 7574 b1be 5ca5 9cbd 3caa 0abf
000001a0: 040a 7cbe 9761 cd3e 4092 2e3f 9241 22bf
000001b0: d598 56be d038 183f fb67 91be 2ba4 91be
000001c0: 1783 60be 5d5f 583e 8250 173f ada9 e3bd
000001d0: f0c6 aa3e 46d8 36be cd7a fa3e e04d 4f3f
000001e0: c622 cbbd 1168 34bf 9f0b 7fbe 7805 f13e
000001f0: c6ee 21bf 4d3b 0a3f 04b2 10bf 90c4 5d3e
00000200: f647 8d3e 719a da3e f17c ae3e 16b2 bbbe
00000210: 4eac 02be 1f40 24be 792e 423e beca 013f
00000220: 8b66 ea3e de6b 903e 06f2 c7be c5de 9c3e
00000230: ddaa 9dbd 68f6 c63e a194 53be 3b95 9abd
00000240: d3b4 8c3e d1dd d8bd 5473 4c3e b6cf 12bc
00000250: 3459 b6bd 80e1 313f c5e1 eebe 9f45 43bc
00000260: dcaf dc3e 2b25 abbe cb5e 24bf 5b85 183f
00000270: 8f71 d0be 7f59 9e3e d971 063f 59f3 2cbf
00000280: c786 ed3d bf89 16bf b55f 1bbf 890b b63e
00000290: 424a bc3e dc37 f03e 96b0 1c3f afe3 95be
000002a0: 3bbb d4bd 5304 3a3e 74d6 24bf 40cf b33e
000002b0: 20ee 32bf 8170 7dbd 326b abbe 4f1b 0bbf
000002c0: 7021 c3be 3d79 6f3e f4df f6be 0ae5 423f
000002d0: 86eb c63e dccd fe3e 60a2 803e 65d3 64be
000002e0: 94eb 3bbf 904f e73c b575 27be 1627 89bd
000002f0: f6f7 bcbc 2d3c b4be 552a e73e 2054 733d
00000300: df55 883e 5a0c 0bbf ef59 083f 1c26 cf3e
00000310: e3b5 cf3e bc86 563f 7e95 eabe 2b14 b4bd
00000320: b6e7 20bf 4c9b 39bf 12ee 6bbf 47f0 013f
00000330: 2d03 2bbf ca58 a7bf 1232 c03d b5d1 673f
00000340: 4ded 0e3e 1bd7 dcbe 99bc 59be fb3d 2ebf
00000350: e47f 463e b954 283e 1f9f 713f 4538 213f
00000360: 6f2d 05bf 19f8 1abf 571e 063e 253e 17be
00000370: d831 95bc cdd9 6f3e fca5 00bf 7243 0cbf
00000380: 3b88 13be 07a4 7f3e f3c0 bdbc d6fb d13e
00000390: 9a6f 6dbf 58e4 693e 38cc c9be 14e7 10bf
000003a0: e278 c9be 4106 bdbe 1f24 263e 153b bf3e
000003b0: d326 84be ce4c d63e 39e4 093e 48b3 b3be
000003c0: f8cc ecbe 1181 00bf aaf8 123f e0b0 84be
000003d0: 9618 e83e 5d65 91bd 1a32 1abf 78f6 2cbf
000003e0: c784 153f a465 073f 2e1f 77be 602c 77bf
000003f0: 4d5d 9c3e c420 993e 1ae0 a23e 1544 4ebf
0.72090566 -0.22036855 -0.22749907 -0.33385488 -0.6744336 -0.28083563 0.3071271 0.2931182
0.3124963 0.45132944 0.3227428 -0.53196275 -0.30396393 0.04484299 -0.80680186 -0.15637292
-0.74958974 -0.34893596 -0.42078003 -0.22714244 0.42798182 0.12520416 0.008508789 0.03749658
0.15294588 0.65891117 0.38509628 0.22072682 -0.7165421 0.55548567 -0.18051736 0.44057205
-0.37628523 0.3622384 0.12159229 0.043305166 0.121330746 0.012288112 0.26614058 0.5974675
-0.07332873 0.45404515 -0.19322386 -0.30334324 0.86478615 -0.781525 -0.12808728 -0.44109273
-0.43390843 0.5268788 0.09787797 -0.8125033 -0.03212432 0.49914834 0.25459036 -0.38743907
0.81447375 -0.22596738 -0.09802148 0.16264941 -0.33405387 0.40375084 0.21952842 0.7136419
-0.56489635 0.2528526 0.3223077 0.23859088 0.9196597 -0.011096293 0.17289412 -0.6606239
-0.1264824 0.39646563 0.44307116 -0.17492747 -0.6931404 0.32724214 0.4402711 -0.5614874
0.08769914 -0.60907555 0.06898132 -0.48357242 -0.6194364 -0.5468425 -0.4449684 -0.5025524
0.37102672 -0.46615824 -0.1757873 -0.12413663 0.31992394 -0.2372662 0.4956358 0.102131374
-0.6036915 -0.09931523 -0.06359398 -0.16805594 0.5923799 -0.34659162 -0.07648727 -0.5416601
-0.24613196 0.40113518 0.6819191 -0.633813 -0.20956738 0.5946169 -0.28399643 -0.28445563
-0.21925007 0.21130128 0.5910722 -0.111163475 0.33354902 -0.1785594 0.48921815 0.809782
-0.09918742 -0.7047129 -0.24906777 0.47074485 -0.63254964 0.53996736 -0.5652163 0.21657014
0.27593964 0.42695954 0.34079698 -0.36659306 -0.12761042 -0.16040085 0.1896304 0.50699985
0.4578136 0.28207296 -0.39051837 0.3063871 -0.07698605 0.38859868 -0.20662166 -0.07547995
0.27481708 -0.10589183 0.19965869 -0.008960655 -0.08903733 0.6948471 -0.46656623 -0.011918454
0.4310292 -0.33426794 -0.6420714 0.59578484 -0.40711638 0.30927655 0.5251747 -0.6755882
0.11597972 -0.58803934 -0.6069291 0.35555676 0.36775404 0.46917617 0.6120695 -0.2927527
-0.10387274 0.18165712 -0.6438973 0.35119057 -0.698946 -0.06187487 -0.3348022 -0.54338545
-0.38111448 0.23386092 -0.48217738 0.76130736 0.38851565 0.49766433 0.25123882 -0.22346266
-0.7340634 0.02823618 -0.16353495 -0.06696908 -0.023067456 -0.3520216 0.45149484 0.0594064
0.26628014 -0.5431572 0.5326223 0.40458763 0.40568456 0.8379934 -0.45817178 -0.08792909
-0.6285356 -0.7250259 -0.9216014 0.5075726 -0.6680172 -1.3073971 0.0938455 0.9055436
0.1395771 -0.43132862 -0.2126335 -0.68063325 0.19384724 0.16438569 0.94383425 0.62976485
-0.5202245 -0.60534817 0.13097511 -0.147698 -0.018212244 0.23422928 -0.5025327 -0.54790413
-0.14407437 0.24964915 -0.023163294 0.41012448 -0.92748415 0.22841012 -0.3941362 -0.566026
-0.3935004 -0.36918834 0.16224717 0.37349764 -0.2581087 0.41855472 0.13465966 -0.35097718
-0.4625013 -0.5019694 0.5741068 -0.25916195 0.45331258 -0.07099412 -0.602327 -0.6756358
0.5840573 0.52889466 -0.24132988 -0.96552086 0.30539933 0.2990781 0.318116 -0.80572635

fc3.bias f4 [10]
00000000: 2dbe 11be 5fb4 e73e 8102 093e 5e33 29bf
00000010: 3677 473d 8896 b9be 2fcf efbd acc3 bebe
00000020: 5b05 213e c12b dbbd
-0.14232703 0.452548 0.13379861 -0.66094005 0.048697673 -0.3624766 -0.11709439 -0.3725866
0.15724699 -0.10701705

exp_avg f4 [128, 26]
00000000: 6585 363a 3da3 3cbc 6ae8 6c38 272c ab37
00000010: 57c4 9f38 48d3 f237 7892 4639 7685 45b8
00000020: 286d beb8 0c71 64b8 fa70 4836 54fe 8e38
00000030: b65d 61b8 9da1 2bb8 19ad 8e35 d11a d537
00000040: 4fc3 0d3a c7da 8a38 79f9 2737 67ea d7b6
00000050: b5ef c33a 7a9a a3b9 7115 5438 6720 9837
00000060: 378f bdbc 5566 aabc d8a6 a53a 88b0 693a
00000070: 642f eab8 a4f4 f6b7 80c7 22b9 7d30 2db8
00000080: 3355 bbb8 6fe1 3238 1ed2 0738 1f63 8237
00000090: 5a55 a7b5 895a 68b6 c450 8936 e7e4 ffb4
000000a0: f14a 02b6 9903 f035 d26f 82ba 26a4 48b9
000000b0: 44c5 12b6 8756 65b6 fc2b 28ba 998d a9b9
000000c0: 9756 beb8 491d e7b7 bf41 2c3c 1f6a 0a3c
000000d0: 96df 3aba 4182 a3ba 207b 24b5 b8b6 8235
000000e0: f1a3 77b5 1eb6 a835 8c7b 4936 d0eb 37b6
000000f0: 53a5 d7b5 fd0c b2b4 0809 e135 cde2 1836
00000100: 2ea5 8cb6 cc4c 7cb6 e11e 9b36 85ed 8c35
00000110: 1f86 85b6 4864 4533 afba 08b6 960a 8fb4
00000120: be50 e037 b38a 03b8 a14f 9533 e5b3 5935
00000130: 6fcc b4b9 75f4 92ba c9bd be3b a3ca 803c
00000140: 7a3c 8fb8 5d2c 82b7 fbc0 d1b8 5ed1 b2b7
00000150: 19dc 36b7 af79 50b8 b71a c737 5849 b837
00000160: e4fa 7937 c0da 7eb8 174c 15b8 652a 9c38
00000170: 6848 fe37 f048 0db7 2978 cab9 39be 68b9
00000180: 7070 d3b7 3090 3437 2a1e b538 bfe8 afba
00000190: 8d76 deb7 f554 90b7 3f3f 52bc 7da7 88bc
000001a0: f142 003c b57a 133c 2798 7db9 2a83 6ab8
000001b0: 93db b4b9 0f2f a7b8 255a 9fb7 70c6 2837
000001c0: 3810 7e37 11eb 41b6 8b92 5eb6 9fa4 2138
000001d0: 948c 2eb8 5f42 5037 b112 4f37 41d9 b5b7
000001e0: f026 00bb 13c1 e3b9 e022 f7b7 ce8f 14b6
000001f0: 8461 deb9 60e9 a6ba 0e58 4ab9 6768 79b8
00000200: 93c5 0dbc 762e 60ba 3816 8bba 938a 7b3a
00000210: d9dc 68b7 5678 f2b6 789c abb7 19eb 2fb7
00000220: 03a5 2638 8598 c9b7 4fe5 43b7 be72 62b6
00000230: 3b11 2eb5 21ef 6d37 ba09 9c36 aa4d d5b6
00000240: 543c 0db7 1022 88b6 6f78 4537 ad0d 36b8
00000250: 5bf6 a9b6 3198 3234 2d18 0d3a 31cb 63b8
00000260: a02d 57b7 6860 17b7 9bfa 00ba 69fe c13a
00000270: f9d3 0c3b 1e6a 70bb 8b3c 5338 0bad 8f36
00000280: 71d2 9838 bcb1 c636 8668 b9b8 cbd6 0938
00000290: 93c4 ae37 7de3 be37 ab97 4837 4e32 0eb8
000002a0: ec95 1838 2e4f 1837 1813 f4b6 f4a9 8fb6
000002b0: 4afb 093a c8b4 0d38 4621 d436 fede 3236
000002c0: 0cc2 0aba 244b 5438 9eef 4438 2daa b636
000002d0: f462 d9ba 84d1 21bb df8a e5b6 7cd8 c13a
000002e0: 0f69 e4b6 b943 3ab6 581f 0cb7 65df 6bb6
000002f0: 0f18 87b8 59e6 1b38 6f8c 9437 5671 dc36
00000300: 2355 4736 1461 e3b7 a2bd 5e37 3cb1 7237
00000310: 30d9 c234 531f 86b5 f24e a8b8 a68f cbb7
00000320: a5ec 8036 8303 f434 726e 01ba 8561 5d38
00000330: 21fa 0036 648a 10b6 eac1 76b9 c896 ed3a
00000340: b00b b9b9 be99 85bb b021 8837 eb52 5737
00000350: 327f b537 08a2 9237 d895 81b7 39dc d335
00000360: daa0 43b6 7d0c 5c37 f72f 7636 22ee f634
00000370: 1b00 28b7 511c 98b4 ae67 c236 b7ab 8736
00000380: 6895 a038 6941 7238 bd66 6736 bc32 8435
00000390: 4db8 ebb8 d917 8cb8 a5e1 8737 68a6 6837
000003a0: ab5a 9abb 14ae d5bb 187d 683b 6cc1 243c
000003b0: af19 2fb9 c93d 8db8 52d4 76b9 ef82 ccb8
000003c0: b5b0 bcb9 3c73 2139 2401 dd38 13e7 b038
000003d0: 2cd1 8737 3f0e 4037 14c6 7db8 4efd 1938
000003e0: da6d ee37 0ce3 86b7 255e dcba 9b6c e7b9
000003f0: 8ca3 d4b6 ed2d 50b7 54f7 11bb 0481 e3b9
0.00069626264 -0.011513528 5.6483237e-05 2.0405349e-05 7.618282e-05 2.8947034e-05 0.00018937315 -4.7092755e-05
-9.080238e-05 -5.446472e-05 2.9868083e-06 6.81846e-05 -5.3731455e-05 -4.092009e-05 1.0630202e-06 2.5404066e-05
0.00054078264 6.621103e-05 1.0012061e-05 -6.4347873e-06 0.0014948758 -0.00031204877 5.0564708e-05 1.81349e-05
-0.02313958 -0.020800749 0.0012638224 0.000891455 -0.00011166817 -2.9439405e-05 -0.00015523843 -4.1291572e-05
-8.9327244e-05 4.264846e-05 3.2382195e-05 1.5543364e-05 -1.246731e-06 -3.4623392e-06 4.0923205e-06 -4.7664e-07
-1.9415131e-06 1.788244e-06 -0.0009951538 -0.00019134636 -2.187052e-06 -3.4174025e-06 -0.00064152456 -0.0003233969
-9.0760346e-05 -2.7550983e-05 0.010513722 0.008448153 -0.0007128654 -0.0012474732 -6.127393e-07 9.738933e-07
-9.2253237e-07 1.2569978e-06 3.0023248e-06 -2.7406386e-06 -1.6066864e-06 -3.3164534e-07 1.6766435e-06 2.278178e-06
-4.1915546e-06 -3.7595628e-06 4.6229547e-06 1.049994e-06 -3.9793226e-06 4.5958842e-08 -2.0374243e-06 -2.6643528e-07
2.674048e-05 -3.1362008e-05 6.9528376e-08 8.110058e-07 -0.0003448459 -0.001121177 0.005820964 0.015721625
-6.830036e-05 -1.5517866e-05 -0.00010001842 -2.1316748e-05 -1.0899291e-05 -4.970439e-05 2.3735089e-05 2.1968663e-05
1.4899972e-05 -6.0762046e-05 -3.5595232e-05 7.446556e-05 3.0312876e-05 -8.421237e-06 -0.0003861797 -0.00022196108
-2.5205518e-05 1.0762407e-05 8.636371e-05 -0.0013420804 -2.6519667e-05 -1.7205699e-05 -0.012832462 -0.016681427
0.00782846 0.009001424 -0.00024184641 -5.5912104e-05 -0.0003449587 -7.971946e-05 -1.8996254e-05 1.0059783e-05
1.5143356e-05 -2.8896068e-06 -3.3165877e-06 3.8538707e-05 -4.1615756e-05 1.2413219e-05 1.2342513e-05 -2.1678048e-05
-0.0019554459 -0.00043440665 -2.9460934e-05 -2.2137424e-06 -0.00042415794 -0.0012734346 -0.00019297024 -5.946346e-05
-0.008653062 -0.0008551845 -0.001061148 0.00095955393 -1.3879698e-05 -7.226171e-06 -2.045765e-05 -1.0485551e-05
3.9731163e-05 -2.403209e-05 -1.1676296e-05 -3.3743413e-06 -6.4845125e-07 1.4181977e-05 4.6502946e-06 -6.356936e-06
-8.418301e-06 -4.0570812e-06 1.1770156e-05 -4.3404918e-05 -5.065272e-06 1.6632909e-07 0.00053823256 -5.4310254e-05
-1.28256215e-05 -9.022748e-06 -0.00049201556 0.0014800552 0.002148865 -0.0036684345 5.0362705e-05 4.281877e-06
7.2871226e-05 5.921551e-06 -8.8409564e-05 3.2863387e-05 2.0833953e-05 2.2755698e-05 1.1956242e-05 -3.3902288e-05
3.637925e-05 9.0783415e-06 -7.2739895e-06 -4.2815172e-06 0.000526358 3.3785385e-05 6.321966e-06 2.6653865e-06
-0.00052931975 5.061472e-05 4.6953202e-05 5.4438337e-06 -0.0016585276 -0.0024691531 -6.8408985e-06 0.0014789249
-6.80716e-06 -2.775558e-06 -8.351948e-06 -3.5147762e-06 -6.441783e-05 3.7169408e-05 1.770837e-05 6.569705e-06
2.9702867e-06 -2.7105714e-05 1.32763835e-05 1.446559e-05 3.629334e-07 -9.992895e-07 -8.025569e-05 -2.4266377e-05
3.8422463e-06 4.5451097e-07 -0.0004937417 5.2781328e-05 1.921908e-06 -2.1538226e-06 -0.00023532627 0.0018126601
-0.00035294658 -0.0040771654 1.622815e-05 1.28343045e-05 2.1636111e-05 1.7480008e-05 -1.5447775e-05 1.5784818e-06
-2.9150892e-06 1.31159295e-05 3.6684776e-06 4.5994335e-07 -1.0013605e-05 -2.833281e-07 5.7937204e-06 4.0433038e-06
7.6572236e-05 5.7758214e-05 3.4481484e-06 9.849532e-07 -0.00011240002 -6.680162e-05 1.6198328e-05 1.3867022e-05
-0.0047105155 -0.006520996 0.0035474952 0.010055881 -0.00016698868 -6.734912e-05 -0.00023539484 -9.751866e-05
-0.0003598981 0.00015397085 0.00010538314 8.435375e-05 1.6190657e-05 1.1447409e-05 -6.0504375e-05 3.671395e-05
2.8422965e-05 -1.6079772e-05 -0.0016812725 -0.0004414067 -6.3371317e-06 -1.2408459e-05 -0.0022272663 -0.00043392938
