cache/weight_best.pth (torch, 166031 bytes, 34 tensors)

fc1.weight f4 [128, 26]
0	0xbcd41609	-0.025889413
1	0x3cc56b81	0.024099113
2	0xbf06126f	-0.5237188
3	0xbd17cc12	-0.03705985
4	0xbf0f2b16	-0.5592512
5	0xbd569a37	-0.052393164
6	0xbe19f9fe	-0.1503677
7	0x3e870205	0.26368728
8	0xbe9267b2	-0.28594738
9	0xbd03e128	-0.032197148
10	0x3e0f95f1	0.14022042
11	0xbdd614ed	-0.1045321
12	0xbe9561f9	-0.2917631
13	0xbe7cbf77	-0.24682413
14	0x3e954578	0.29154563
15	0x3fd9d58d	1.7018296
16	0xbe8974d5	-0.26846948
17	0xbe08fb5d	-0.13377137
18	0x3f3b6dd4	0.7321446
19	0xbf2cfec3	-0.67576236
20	0xbdcf82e0	-0.10132384
21	0xbefa3eec	-0.4887613
22	0xbee84553	-0.4536539
23	0x3f358622	0.70907795
24	0x3da437b9	0.08018441
25	0xbdf674cb	-0.12033995
26	0xbe919ca9	-0.28439835
27	0xbdfd405f	-0.123657934
28	0x3ce312df	0.02771896
29	0xbe4cbc01	-0.19993593
30	0xbe9c9980	-0.3058586
31	0x3de74a6e	0.11293493
32	0xbef29100	-0.4737625
33	0x3c4ab263	0.012371632
34	0x3f16f1f3	0.58962935
35	0xbdf99f9f	-0.121886484
36	0x3ce6255a	0.028093982
37	0xbf119431	-0.5686675
38	0xbe1d0a74	-0.15336019
39	0x3f173639	0.5906711
40	0x3f2c602f	0.67334265
41	0xbf050b79	-0.5197063
42	0x3b4af2a3	0.0030967377
43	0xbe1fbf01	-0.15600206
44	0xbf20831a	-0.62700045
45	0xbe9a9c30	-0.30197287
46	0xbd3cfd2b	-0.046139877
47	0xbdbdee47	-0.092739634
48	0x3c7baf1f	0.015361576
49	0xbecac0cf	-0.39600226
50	0xbcab2856	-0.020893257
51	0x3d709113	0.058732104
52	0xbd8311db	-0.0639989
53	0xbddd5789	-0.10807712
54	0x3f0a20ed	0.5395649
55	0x3eaa1d09	0.33225277
56	0x3f0120c9	0.5044065
57	0x3e4c928f	0.19977783
58	0x3badc598	0.005303096
59	0x3e2a4aa4	0.16630036
60	0xbea3bdc0	-0.31980705
61	0xbe54e91e	-0.20792052
62	0xbe05fa56	-0.13083777
63	0xbeed64e8	-0.46366048
64	0xbdab838a	-0.083746985
65	0x3e1247c5	0.1428519
66	0xbe83e391	-0.25759557
67	0x3f00aa6b	0.5026004
68	0xbd41bc51	-0.047298733
69	0x3f030ca9	0.5119119
70	0xbeef840c	-0.4678043
71	0x3ff0ce01	1.8812867
72	0x3e26cc1b	0.16288798
73	0x3d07d840	0.033165216
74	0x3e5cfe79	0.21581449
75	0x3f06b74e	0.5262345
76	0x3e0384a3	0.12843566
77	0x3e1eba26	0.15500697
78	0xbe0715af	-0.13191865
79	0xbd41b595	-0.04729231
80	0xbac94759	-0.0015356346
81	0x3eb159fe	0.3463897
82	0x3d107e81	0.035276894
83	0x3ecc5d4a	0.39914924
84	0x3f2be6ad	0.6714886
85	0xbf44135a	-0.7659203
86	0xbf09d1c6	-0.53835714
87	0x3e30a57e	0.1725063
88	0xbf066d5f	-0.5251064
89	0xbef472e2	-0.477439
90	0xbf1d3ae9	-0.61418015
91	0x3eb7e227	0.35914728
92	0x3f0e9d5f	0.5570888
93	0x3fa37b31	1.277197
94	0xbea9eff8	-0.33190894
95	0x3e60506d	0.2190568
96	0xbf7d5a86	-0.9896625
97	0xbf577d50	-0.84175587
98	0x3e7e3494	0.24824744
99	0xbdd55048	-0.10415703
100	0xbe9fce4c	-0.3121208
101	0x3f078f7a	0.529533
102	0xbdaa274f	-0.08308279
103	0x3cd81a74	0.026379801
104	0xbdce0480	-0.10059452
105	0xbdd6ce36	-0.1048855
106	0xbd6f1ce4	-0.05837716
107	0xbd3fe5d6	-0.046850048
108	0xbe8101aa	-0.25196582
109	0xbe1ed8a7	-0.15512334
110	0xbed6aece	-0.4193024
111	0x3e233962	0.15939859
112	0xbe4baac3	-0.19889359
113	0x3e436865	0.19082792
114	0x4008ba06	2.136354
115	0xbf2d7e16	-0.67770517
116	0xbe841898	-0.25800014
117	0xbdb45bea	-0.08806594
118	0x3f861b6e	1.0477121
119	0x3fbf5995	1.4949213
120	0xbe60625d	-0.21912523
121	0x3e70213a	0.23450175
122	0x3f5c3937	0.860248
123	0xbf6bce55	-0.9211171
124	0xbd89e7ec	-0.06733689
125	0xbe188db0	-0.148978
126	0x3e619b39	0.22031869
127	0x3f1ee601	0.6206971
128	0xbe07d588	-0.1326505
129	0xbb838093	-0.00401313
130	0x3e6eca39	0.2331933
131	0x3e45bb05	0.19309624
132	0x3e8d894e	0.27643818
133	0xbec4849f	-0.38382432
134	0x3e8fe9ff	0.28108212
135	0xbf035c40	-0.5131264
136	0xbde4a063	-0.11163404
137	0xbd2eaa6b	-0.042642992
138	0x3e80d080	0.25159073
139	0x3eaca536	0.33719796
140	0x3f10d0ad	0.56568414
141	0xbece89f1	-0.40339616
142	0xbdb9f360	-0.09079623
143	0x3ee964a0	0.45584583
144	0x3ea1898d	0.31550255
145	0x3f1345ae	0.575282
146	0xbe1d1129	-0.15338577
147	0x3e9913bd	0.29897872
148	0x3f49bff0	0.788085
149	0x3fd92b80	1.69664
150	0xbe14d22e	-0.14533302
151	0x3d76e3d2	0.06027586
152	0x3ecb4d52	0.39707428
153	0x3ea240a7	0.3168995
154	0xbded00b1	-0.115723975
155	0x3e0d94c9	0.13826288
156	0x3e00786f	0.12545942
157	0x3d23879a	0.03992424
158	0x3ebdd89c	0.37079322
159	0x3ed4d3a6	0.41567725
160	0x3e8b02b4	0.271505
161	0x3e2bd78f	0.16781448
162	0x3f5df180	0.86696625
163	0xbf53cd24	-0.82734895
164	0xbf194980	-0.5987778
165	0x3e748c44	0.23881632
166	0xbfaa407a	-1.3300927
167	0x3ee672b0	0.45009375
168	0xbf3ea4ba	-0.744701
169	0xbf3f58ca	-0.74744856
170	0x3e928596	0.28617543
171	0x3faec772	1.3654616
172	0x3da0153c	0.0781655
173	0x3e97a346	0.29616755
174	0x3e9e21e1	0.30885223
175	0xbf9156e2	-1.135464
176	0x3e34adfc	0.17644495
177	0x3e200f98	0.15630949
178	0xbed0b82a	-0.40765506
179	0x3df3243d	0.11872146
180	0x3e2542c9	0.16138758
181	0xbdf0a3fc	-0.117500275
182	0x3e7217a3	0.23641829
183	0x3c926ffe	0.017875668
184	0x3ee1b6be	0.44084734
185	0x3d95226c	0.07281956
186	0x3e8fe5c6	0.2810499
187	0x3e4c54b6	0.1995419
188	0x3b6be32e	0.0035993564
189	0x3e15b88a	0.14621177
190	0x3f100495	0.5625699
191	0x3f32417a	0.6963116
192	0xc00862a0	-2.1310196
193	0x3e06c7e8	0.13162196
194	0x3e15977e	0.14608571
195	0x3dd12c70	0.10213554
196	0xbf0883bf	-0.5332603
197	0xbf931578	-1.1490927
198	0xbf09c021	-0.5380879
199	0x3e06ac78	0.13151729
200	0xbe91325a	-0.28358728
201	0x4001acd3	2.0261734
202	0x3d2f1346	0.04274299
203	0x3e40e51f	0.18837403
204	0xbea136d4	-0.31487143
205	0xbf05c488	-0.5225301
206	0xbdb28e6d	-0.08718572
207	0xbd5e43e5	-0.054263968
208	0x3dd06c6d	0.101769306
209	0x3dda6f5c	0.10665771
210	0xbdd4550a	-0.103677824
211	0x3e183ac9	0.14866175
212	0x3dd1f01c	0.10250875
213	0xbc05acf0	-0.008158907
214	0x3ec970bf	0.3934383
215	0x3e8c0b17	0.2735221
216	0xbf29de9d	-0.66355306
217	0xbf4a151e	-0.7893847
218	0x3e109707	0.14120112
219	0x3ea576bb	0.32317147
220	0x3fd05077	1.6274556
221	0xbee5669b	-0.44804844
222	0xbfdaaa54	-1.708323
223	0xbe9f5161	-0.31116775
224	0x3de301a1	0.11084295
225	0x3e97ee48	0.29673982
226	0x3e64fc39	0.2236184
227	0xbee079a3	-0.438428
228	0xbea6739c	-0.32510078
229	0x3ec6f06b	0.388553
230	0x3dbaf9e6	0.091296956
231	0x3e553a1e	0.20822951
232	0xbe14c2dd	-0.1452746
233	0x3d7fa274	0.062410787
234	0xbd9e2b13	-0.077230595
235	0x3dbe81ae	0.09302078
236	0x3f22f6bc	0.63657737
237	0xbd82a1e5	-0.06378535
238	0x3ed9c536	0.42533273
239	0xbda3baa3	-0.079945825
240	0x3e80c14d	0.25147477
241	0xbeeeacaf	-0.46616122
242	0xbea9f887	-0.33197424
243	0x3ed08bfc	0.407318
244	0x3ec375e1	0.38175872
245	0xbfb445b5	-1.4083773
246	0x3ee5e7b3	0.44903335
247	0x3f61479c	0.8799989
248	0x3f9a06dd	1.2033345
249	0x3f885ec9	1.0653926
250	0x3f166966	0.58754575
251	0xbea15e2f	-0.3151717
252	0xbebbc98c	-0.36677206
253	0x401a5a5b	2.4117649
254	0xbbe8c283	-0.0071032657
255	0x3e0ea2e1	0.13929321

fc1.bias f4 [128]
0	0xbe25a0a0	-0.16174555
1	0xbd49a386	-0.049228214
2	0x3ddf4742	0.10902263
3	0x3d044226	0.032289647
4	0x3d9da4f5	0.07697479
5	0x3e31dd45	0.17369564
6	0xbdb3bc7f	-0.08776187
7	0x3e1719cc	0.14755934
8	0x38592327	5.176957e-05
9	0xbe48d24d	-0.19611473
10	0x3c887e6f	0.01666185
11	0xbd6b308e	-0.057419352
12	0xbd2ee2c0	-0.042696714
13	0xbde6b644	-0.11265233
14	0xbe12b903	-0.14328389
15	0xbe168aa7	-0.14701329
16	0xbe267ccb	-0.16258542
17	0xbe4b9be3	-0.19883685
18	0xbcea0a2e	-0.028569307
19	0xbe05b757	-0.1305822
20	0x3dfc53c1	0.12320662
21	0xbde5d3b0	-0.11222017
22	0xbe0c6e4b	-0.13713948
23	0x3d842509	0.064523764
24	0xbdab8c93	-0.08376422
25	0x3e12aa8c	0.14322871
26	0x3e10b45d	0.14131303
27	0xbdbf1ad8	-0.09331292
28	0xbdce4ae8	-0.10072881
29	0x3dcfd845	0.10148672
30	0x3c52f1ca	0.01287503
31	0xbd8eaa62	-0.06966092
32	0xbe01db0c	-0.12681216
33	0xbcc1955e	-0.023630794
34	0xbdb09f2b	-0.08624109
35	0x3ddda2b4	0.10822049
36	0x3e123590	0.14278245
37	0xbd73cae2	-0.059519656
38	0xbd9a4e10	-0.075344205
39	0x3c16c980	0.009203315
40	0x3e02f335	0.12788089
41	0x3d7e02e3	0.06201447
42	0xbdad9999	-0.08476562
43	0xbd8ead7e	-0.06966685
44	0x3d64aded	0.05582993
45	0xbc433064	-0.011913393
46	0x3e17b4b2	0.14815024
47	0x3d24e73f	0.040259596
48	0xbdabded1	-0.08392108
49	0xbe156138	-0.14587867
50	0x3dbb66c7	0.091504626
51	0xbe4911e8	-0.19635737
52	0xbe06af02	-0.13152698
53	0x3d50a543	0.050938856
54	0x3df623f8	0.12018579
55	0xbe3773a7	-0.17915212
56	0x3d87d80e	0.06633006
57	0xbe39f8b9	-0.18161286
58	0xbe125cf9	-0.14293279
59	0xbdbce2fe	-0.09222983
60	0x3e026037	0.12732016
61	0xbe083237	-0.13300405
62	0xbdd0edd1	-0.1020161
63	0xbd93b83a	-0.07212873
64	0x3e298aa3	0.16556792
65	0x3e2a840f	0.16651939
66	0xbdfa358c	-0.122172445
67	0xbdb6e1ac	-0.08929762
68	0x3e11732c	0.14204091
69	0xbde99e6b	-0.11407169
70	0xbc81df93	-0.015853679
71	0x3e513616	0.20430788
72	0xbd2e221b	-0.042512994
73	0x3e13853b	0.14406292
74	0x3da4f1dd	0.08053944
75	0x3e25cc18	0.16191137
76	0xbda8908c	-0.08230695
77	0xbc6536cd	-0.013990116
78	0x3b2b1794	0.0026106583
79	0x3d0af230	0.033922374
80	0xbe098a8f	-0.13431762
81	0xbd083f7d	-0.033263672
82	0xbc7f8566	-0.0155957695
83	0x3df6e37d	0.12055109
84	0xbe3b518c	-0.18292826
85	0xbe29264d	-0.16518517
86	0x3deb4169	0.11487085
87	0xbd8257e6	-0.063644215
88	0x3d54b95d	0.05193459
89	0xbd565aea	-0.052332796
90	0xbd67f76f	-0.056632455
91	0xbe2e9ee9	-0.17052807
92	0xbe509798	-0.20370328
93	0x3d1c5637	0.03816816
94	0xbd577252	-0.05259926
95	0x3e50b1d7	0.2038034
96	0x3e4a0bdd	0.19731088
97	0x3e289890	0.16464448
98	0xbe40d340	-0.18830585
99	0x3c82e36b	0.015977582
100	0xbcd1292c	-0.025532328
101	0xbe0a19b2	-0.13486364
102	0xbe3ba1b5	-0.18323405
103	0xbdca9bfd	-0.09893034
104	0xbe420f8b	-0.18951242
105	0xbd4cc14a	-0.049989022
106	0xbd8fcdf1	-0.07021702
107	0xbd0deb17	-0.034648027
108	0x3dd2beea	0.1029032
109	0xbe1427d5	-0.1446832
110	0x3e464d7d	0.19365497
111	0xbd8bdeb5	-0.06829587
112	0x3d4ff55a	0.050771095
113	0x3db9a249	0.090641566
114	0x3dd6b234	0.10483208
115	0x3e111b57	0.14170586
116	0x3dc3c8dd	0.09559796
117	0xbd09c1f7	-0.033632245
118	0x3db1646f	0.08661734
119	0x3e07d81a	0.1326603
120	0x3dc4aed2	0.09603657
121	0x3e3b0596	0.1826385
122	0xbe1d47b8	-0.1535939
123	0x3de4be5e	0.11169122
124	0x3dab7b1f	0.08373093
125	0xbdf49ed9	-0.1194436
126	0x3cef8263	0.029236978
127	0xbe22f5ab	-0.15914027

bn1.weight f4 [128]
0	0x3fd60ad6	1.6722057
1	0x3fa5ab6f	1.2942942
2	0x3f313dff	0.69235224
3	0x3fc605d1	1.5470525
4	0x3fc56143	1.5420307
5	0x3f84f93a	1.0388558
6	0x3fa8c059	1.31837
7	0x3f4b87d6	0.79504144
8	0x3fc04a59	1.5022689
9	0x3fb552e5	1.4165922
10	0x3f870f2d	1.0551506
11	0x3f96bb41	1.1775895
12	0x3fae4e08	1.3617563
13	0x3f7b9a0f	0.9828195
14	0x3f4cb1b4	0.79958653
15	0x3faa0285	1.3282019
16	0x3fb02e6d	1.3764168
17	0x3fa981f7	1.3242787
18	0x3f85532a	1.0416005
19	0x3f80e020	1.0068398
20	0x3f87275c	1.0558887
21	0x3f6c1c0a	0.92230284
22	0x3f4e9939	0.8070255
23	0x3fb86fdc	1.4409137
24	0x3f841cb1	1.0321256
25	0x3f91bc56	1.13856
26	0x3fe74271	1.8067151
27	0x3fbb5fb4	1.4638581
28	0x3fa14e9b	1.2602113
29	0x3f917341	1.1363298
30	0x3fa08c6e	1.2542856
31	0x3fec24dd	1.844875
32	0x3f85ef9d	1.0463749
33	0x3faf3adb	1.3689836
34	0x3f8658cf	1.0495852
35	0x3fb046dd	1.3771626
36	0x3f871ceb	1.05557
37	0x3fc4070b	1.5314649
38	0x3f6755c5	0.9036525
39	0x3f7f8a93	0.9982082
40	0x3f69e34a	0.9136244
41	0x3f970505	1.1798407
42	0x3f8b3756	1.0876262
43	0x3f95701e	1.167484
44	0x3f64bc91	0.8935023
45	0x3fc6f708	1.5544138
46	0x3fc350ea	1.5259068
47	0x3fddb6f0	1.7321453
48	0x3f94a361	1.1612359
49	0x3fab4f8d	1.3383652
50	0x3f630f93	0.8869564
51	0x3f74576e	0.9544591
52	0x3f8c48e7	1.0959748
53	0x3f2efe66	0.6835693
54	0x3f5d046e	0.86334884
55	0x3fb35163	1.4009212
56	0x3fd5dc8d	1.6707932
57	0x3f33ba7f	0.70206445
58	0x3f2eea2a	0.68326056
59	0x3fbc24e6	1.469876
60	0x3f9802d0	1.1875858
61	0x3fa51723	1.2897686
62	0x3fa52489	1.2901775
63	0x3fc70238	1.5547552
64	0x3f6aa99e	0.91665065
65	0x3fb0133b	1.3755869
66	0x3f722bef	0.9459829
67	0x3fc5d8a5	1.545674
68	0x3f8bfd5b	1.0936693
69	0x3faabf96	1.3339717
70	0x3f93a21f	1.153385
71	0x3fb4ada4	1.4115491
72	0x3f361450	0.71124744
73	0x3fc41fea	1.5322239
74	0x3fd68282	1.6758578
75	0x3f585a70	0.84512997
76	0x3fa53238	1.290595
77	0x3fb87da1	1.4413339
78	0x3fa56d8a	1.2924054
79	0x3f900663	1.1251949
80	0x3f46096e	0.7735814
81	0x3f9f93c8	1.2466974
82	0x3fac3c90	1.3455982
83	0x3fd4335a	1.6578171
84	0x3fa966a7	1.3234452
85	0x3f7f227e	0.99662006
86	0x3fb711b1	1.4302274
87	0x3fa39a52	1.278147
88	0x3f9821e1	1.1885339
89	0x3f95d42c	1.1705375
90	0x3f6803ff	0.906311
91	0x3fa3c870	1.2795544
92	0x3f990be5	1.1956755
93	0x3fbec1c7	1.4902886
94	0x3f604f9e	0.87621486
95	0x3f96f14f	1.1792392
96	0x3f741338	0.95341825
97	0x3f954f7d	1.1664883
98	0x3fb12c76	1.3841693
99	0x3fcf6267	1.6201905
100	0x3fa1626d	1.2608162
101	0x3fbbfe79	1.4687034
102	0x3f42ca42	0.7608987
103	0x3f982792	1.1887076
104	0x3f957d03	1.1678776
105	0x3f6071fa	0.87673914
106	0x3fcae108	1.5849924
107	0x3fdd571a	1.7292206
108	0x3fad4414	1.3536401
109	0x3fa6de8a	1.3036664
110	0x3fb9216d	1.4463326
111	0x3f68701f	0.90796083
112	0x3f686484	0.90778375
113	0x3f9ea4cf	1.2394046
114	0x3fa6aab8	1.3020849
115	0x3f717db1	0.94332415
116	0x3f9bf625	1.2184492
117	0x3f717231	0.9431487
118	0x40049ed2	2.0721936
119	0x3fcde37b	1.6085047
120	0x3fb7831f	1.433689
121	0x3f94f998	1.163867
122	0x3f4f3df7	0.80953926
123	0x3fc684f5	1.5509325
124	0x3fa7b16e	1.3101022
125	0x3fd04611	1.6271383
126	0x3f4f03a7	0.8086495
127	0x3f808029	1.0039111

bn1.bias f4 [128]
0	0xbe59c3a5	-0.21266039
1	0x3f253576	0.645347
2	0xbee0d96a	-0.43915874
3	0xbf0aefa2	-0.542719
4	0xbf0b19e0	-0.5433636
5	0xbe36ed14	-0.17863876
6	0xbea275f0	-0.31730604
7	0xbdf67c2c	-0.12035403
8	0x3eedeb40	0.46468544
9	0x3c0be1fc	0.008537766
10	0x3f04f7f5	0.5194085
11	0x3ea84d46	0.32871455
12	0xbe943e7d	-0.28953925
13	0x3e26f8eb	0.16305892
14	0x3d967341	0.07346202
15	0xbf0cb710	-0.5496683
16	0xbe7f1f97	-0.24914394
17	0x3e64fdff	0.22362517
18	0x3ef59eff	0.47972867
19	0xbf0d9dd5	-0.5531896
20	0x3ea2f9f6	0.3183133
21	0xbf43c595	-0.7647336
22	0xbeb64709	-0.3560107
23	0x3f036027	0.5131859
24	0x3eacf19e	0.3377809
25	0xbf44ffc1	-0.7695275
26	0xbb05357b	-0.0020326066
27	0xbd8f352f	-0.06992566
28	0x3efd3ad1	0.49458936
29	0xbf291b9e	-0.66057765
30	0x3f168491	0.5879603
31	0x3f13ee90	0.5778589
32	0x3ee4b56b	0.4466966
33	0xbeb54538	-0.35404372
34	0xbf08d712	-0.5345317
35	0xbf1083c6	-0.5645107
36	0x3f3d6cc0	0.73994064
37	0x3e85922a	0.26088077
38	0xbe9d2a0b	-0.3069614
39	0x3ea0e145	0.31421867
40	0xbeb40e15	-0.35166994
41	0xbf242d34	-0.64131474
42	0xbec0ab03	-0.37630472
43	0x3ea1c101	0.31592563
44	0x3e9e57f7	0.30926487
45	0xbecca2a9	-0.3996785
46	0x3e49cd4b	0.1970722
47	0x3f02b9f2	0.5106498
48	0x3eafa27a	0.34303647
49	0xbed73f00	-0.42040253
50	0xbeaa23c5	-0.33230415
51	0x3e5a68a5	0.21328981
52	0xbe1d4c90	-0.15361238
53	0x3ee7da29	0.4528363
54	0xbef24bbc	-0.47323406
55	0xbeacfa7e	-0.3378486
56	0x3f14bb7c	0.5809858
57	0xbe1eb966	-0.15500411
58	0x3f03e245	0.51517135
59	0xbe7b8024	-0.245606
60	0xbecc9c3a	-0.3996294
61	0xbe8872de	-0.26650137
62	0xbf2863d6	-0.6577734
63	0xbf20af9e	-0.6276797
64	0xbe998f74	-0.2999226
65	0xbebbeb4f	-0.36702964
66	0xbea99915	-0.33124605
67	0xbf10a481	-0.56501013
68	0xbf0e376c	-0.5555332
69	0x3f5c1e68	0.85983896
70	0xbef41a00	-0.47676086
71	0xbeb9f85c	-0.36322296
72	0xbef802de	-0.48439687
73	0xbda12586	-0.07868485
74	0x3e91251b	0.28348622
75	0xbefb4fac	-0.49084222
76	0x3ef314f9	0.47476938
77	0xbedc729f	-0.430562
78	0x3e34e32e	0.17664787
79	0x3f0e0743	0.5547983
80	0x3ddcdbd4	0.107841164
81	0x3e1febd3	0.15617304
82	0xbeae4296	-0.34035176
83	0x3e4f0fce	0.20220873
84	0xbeb01f04	-0.34398663
85	0xbee40f4f	-0.4454293
86	0x3e9aab7e	0.30208963
87	0xbf3c26dc	-0.73496795
88	0xbf05850d	-0.52156144
89	0xbee470b2	-0.4461723
90	0x3e151328	0.14558089
91	0x3e9797b0	0.29607916
92	0xbf155d94	-0.58345914
93	0xbf00dc20	-0.50335884
94	0xbee2ec99	-0.44321135
95	0xbe83d241	-0.25746349
96	0xbf4b2744	-0.7935679
97	0xbf36894b	-0.7130324
98	0x3ead5116	0.33850926
99	0xbf21ca08	-0.631989
100	0xbe4ad7dd	-0.19808908
101	0xbe866cef	-0.26254985
102	0xbeaf4b05	-0.34236923
103	0x3eec0c29	0.46103027
104	0xbddaf6a9	-0.10691578
105	0xbf122b21	-0.5709706
106	0x3eb17f72	0.34667546
107	0xbe95cea1	-0.29259208
108	0xbf0b7619	-0.5447708
109	0x3ecd512c	0.40100992
110	0xbe2b0c66	-0.16703948
111	0xbeecae55	-0.46226755
112	0x3f0b9983	0.54531115
113	0x3e5f77a0	0.21822977
114	0xbda85fc5	-0.082213916
115	0xbf266307	-0.64994854
116	0x3e72cee6	0.23711738
117	0x3f04ff66	0.5195221
118	0xbe81f22a	-0.2538007
119	0xbed0d6fe	-0.40789026
120	0xbf3bc2a9	-0.733439
121	0x3e8f9fca	0.28051597
122	0xbe87797d	-0.26459876
123	0x3ec4f613	0.3846899
124	0xbecefc00	-0.40426636
125	0x3da1ac93	0.07894244
126	0x3e846f90	0.25866365
127	0xbf27ee1d	-0.6559771

bn1.running_mean f4 [128]
0	0xc0b45c5a	-5.6362734
1	0xc22bfc50	-42.9964
2	0xc0e82e08	-7.255619
3	0xc1a03fe9	-20.031206
4	0xc1e1cced	-28.225061
5	0x423f1f9a	47.78086
6	0x419f5c52	19.920078
7	0x41ac85e6	21.56538
8	0x41ac17c5	21.511606
9	0x40c20edd	6.0643144
10	0x410be68b	8.743785
11	0xc1bb23b4	-23.392433
12	0xc199fa83	-19.24732
13	0x3fdb52c6	1.7134635
14	0xc190ddff	-18.108397
15	0x40473cf9	3.1130965
16	0x41145035	9.269582
17	0xc046ad54	-3.104329
18	0x3f040a39	0.515781
19	0x41960571	18.752657
20	0xc1cc2645	-25.518686
21	0x4101f9f4	8.123524
22	0xc14e4940	-12.892883
23	0xc1cd5168	-25.66475
24	0x420c376b	35.05412
25	0x414d4dd4	12.831501
26	0x4167b63a	14.481989
27	0x4146f857	12.43563
28	0x4190154f	18.010405
29	0x419a5892	19.293247
30	0xc0ec2e13	-7.3806243
31	0xc22dd445	-43.457294
32	0x4039b279	2.901518
33	0x4111d895	9.115376
34	0x42284912	42.071358
35	0xbf95f659	-1.1715804
36	0x40956543	4.668611
37	0x41a5f077	20.742414
38	0xc1f416d8	-30.511154
39	0x40091574	2.1419344
40	0x41497f82	12.59363
41	0xc1264f3d	-10.394345
42	0xc1ffddef	-31.983366
43	0x41fb7d80	31.43628
44	0x3e94ff9e	0.2910127
45	0xbf9da48c	-1.2315841
46	0x4181a507	16.20558
47	0xbfbc4258	-1.4707747
48	0xc1bed647	-23.854628
49	0x42733f4a	60.811806
50	0x3fd21ca6	1.6414993
51	0x41823e64	16.280464
52	0xc1f45077	-30.53929
53	0xc1acc356	-21.595379
54	0x416756e3	14.458713
55	0xbf95fed0	-1.1718388
56	0x413ed6ba	11.9274235
57	0xc20c69f2	-35.103462
58	0x41ff324a	31.899555
59	0xc158a413	-13.540057
60	0xc170ff76	-15.062368
61	0x42033869	32.805088
62	0x41e863d5	29.048746
63	0x421750db	37.82896
64	0x40eb1b7c	7.347105
65	0x41aa2ea2	21.27277
66	0xc125b95c	-10.357754
67	0xc1a9fdc7	-21.248915
68	0xc205be30	-33.43573
69	0x3f26c8d4	0.6515019
70	0x42332b2d	44.792164
71	0xc03b00bc	-2.9219198
72	0x40efc804	7.493166
73	0x4206c6c4	33.694107
74	0xc1454fa1	-12.331941
75	0x413043b3	11.016528
76	0x41969cc1	18.82654
77	0xbf953b0a	-1.1658642
78	0xc0532066	-3.2988524
79	0x40299b90	2.6501198
80	0xc1bf4a5d	-23.91131
81	0xc141126f	-12.067
82	0xc1ce399d	-25.778131
83	0x404bb8b5	3.1831486
84	0x41c68445	24.814585
85	0xc0c84b00	-6.2591553
86	0x40de36d0	6.944191
87	0x416c971e	14.786894
88	0x42017c55	32.371418
89	0xc2362f7c	-45.54637
90	0xc239f87b	-46.492657
91	0x3da045ba	0.07825799
92	0x41f70c18	30.880905
93	0x42205bfd	40.089832
94	0x420f7915	35.868244
95	0x3f861b5c	1.04771
96	0x3f86d361	1.0533258
97	0x3f5704ab	0.839915
98	0xc081db7b	-4.058042
99	0xbf3c865c	-0.73642516
100	0xc16f712e	-14.965132
101	0x40283133	2.628003
102	0xc20d1db6	-35.279015
103	0x3ddc2fda	0.107513145
104	0xc1f64b43	-30.786749
105	0x41aa0fce	21.257717
106	0xc187366f	-16.901579
107	0x41473fba	12.453058
108	0xc1746816	-15.275412
109	0x41d22e4b	26.272604
110	0x41cf706e	25.929897
111	0x3fe7e386	1.811631
112	0x41cb66ed	25.425257
113	0x40501a71	3.2516139
114	0x413e00d0	11.875198
115	0xc1b06c64	-22.052925
116	0x41a98234	21.188576
117	0xc0d2a469	-6.5825696
118	0x4033b085	2.807649
119	0xbfb4b1f3	-1.4116806
120	0x3d8a1a8e	0.06743346
121	0xc14fd502	-12.989504
122	0xc17db83c	-15.857479
123	0x41bf3093	23.898718
124	0xc1a5a18c	-20.70388
125	0x3ecb0102	0.39649206
126	0x4219ff94	38.499588
127	0x40adc4cb	5.4302726

bn1.running_var f4 [128]
0	0x40bd33e3	5.912584
1	0x42660cd8	57.512543
2	0x42ccff78	102.49896
3	0x40e70264	7.219042
4	0x41864f05	16.788584
5	0x42b52fb1	90.59315
6	0x413c631e	11.774199
7	0x4256e34a	53.721962
8	0x4262f359	56.737644
9	0x4085609d	4.1680436
10	0x41a33110	20.398956
11	0x411ed449	9.926827
12	0x417f62d8	15.961632
13	0x41a0bb2c	20.091393
14	0x420debf1	35.48041
15	0x4097394a	4.7257433
16	0x405212d0	3.2823982
17	0x3ffd6650	1.9796848
18	0x4170a442	15.040102
19	0x42406572	48.099068
20	0x43070f04	135.05865
21	0x413d4fd3	11.831988
22	0x42c704a2	99.50905
23	0x421cda64	39.213272
24	0x421cd70f	39.21002
25	0x418bece1	17.490664
26	0x42272ca1	41.793583
27	0x408502ee	4.1566076
28	0x4285b184	66.84671
29	0x419d8422	19.689518
30	0x410d5b34	8.834766
31	0x4238f4c8	46.239044
32	0x418257e1	16.29291
33	0x400dd50a	2.2161279
34	0x42dd3737	110.60784
35	0x40c8a0c9	6.269627
36	0x40738c85	3.8054516
37	0x42180785	38.007343
38	0x428b194f	69.54943
39	0x3f1e88f8	0.6192775
40	0x4307d096	135.81479
41	0x4115c3ab	9.3602705
42	0x41e9ee91	29.241488
43	0x426f2be1	59.79285
44	0x41a2a0aa	20.32845
45	0x3fae92d2	1.3638556
46	0x41806ea7	16.05403
47	0x40b62fed	5.6933503
48	0x41b28dae	22.31918
49	0x42b65df5	91.18351
50	0x4214c063	37.187878
51	0x4215c12d	37.43865
52	0x41bb1465	23.384958
53	0x42e286ca	113.26326
54	0x4129c7b8	10.611259
55	0x40cc3832	6.38186
56	0x418a23fc	17.26757
57	0x42bb101d	93.53147
58	0x42b28ba5	89.27274
59	0x403a5f05	2.9120495
60	0x40d5c2e9	6.6800427
61	0x41a730dc	20.898857
62	0x422642c8	41.565216
63	0x42428eb7	48.63937
64	0x420c518a	35.079628
65	0x41c85fbe	25.04675
66	0x40a940d8	5.2891655
67	0x41b1f8cc	22.246483
68	0x420a4ea7	34.57681
69	0x3e7b3068	0.24530184
70	0x42326283	44.596203
71	0x3fa3fc7c	1.2811427
72	0x42da0de0	109.0271
73	0x42773704	61.803726
74	0x408a4ce3	4.3218856
75	0x42c08e1d	96.277565
76	0x419c697e	19.55151
77	0x404bb16c	3.182704
78	0x3e884b6f	0.2662005
79	0x416d1729	14.818154
80	0x4233af03	44.92091
81	0x41182098	9.507957
82	0x421cd728	39.210114
83	0x40754d64	3.8328485
84	0x428529c9	66.58161
85	0x41d6c8aa	26.84798
86	0x41147d75	9.280629
87	0x4168a09d	14.539212
88	0x41ddbc19	27.716845
89	0x42332528	44.786285
90	0x4288ecd9	68.46259
91	0x3de3c9de	0.111224875
92	0x41743b22	15.264437
93	0x42c4f75e	98.48314
94	0x427e6e1c	63.60753
95	0x3fa99865	1.3249632
96	0x402ed6ca	2.7318597
97	0x3f5b96e3	0.8577711
98	0x4044c696	3.0746207
99	0x3dc866e6	0.09785251
100	0x4128a79e	10.540922
101	0x3f6cd86e	0.92517745
102	0x4243abfc	48.917953
103	0x412295d7	10.161582
104	0x42cf7264	103.72342
105	0x4267237e	57.78466
106	0x40ae7937	5.4522967
107	0x415be399	13.743066
108	0x42033ab8	32.807343
109	0x41c321b4	24.391457
110	0x4176e2da	15.430384
111	0x409ee6fc	4.9656963
112	0x419927c8	19.144424
113	0x3ed9708c	0.4246868
114	0x40ed28be	7.4112234
115	0x41c76801	24.925783
116	0x421c70a6	39.11001
117	0x429dca6b	78.89535
118	0x3ed10353	0.4082285
119	0x3fdcb331	1.7242185
120	0x3f54187a	0.8284985
121	0x4181237c	16.142326
122	0x41859e65	16.702341
123	0x416a23fc	14.633785
124	0x412be3ce	10.743116
125	0x3f11f95d	0.57021123
126	0x42369816	45.64852
127	0x4117947d	9.473752

fc2.weight f4 [64, 128]
0	0x3e2e90c0	0.17047405
1	0xbd709db0	-0.058744133
2	0x3d21d3da	0.039508678
3	0xbd45fb94	-0.048335627
4	0x3d2818b9	0.041039202
5	0x3d2f9bf2	0.04287333
6	0xbbcadc8e	-0.006190843
7	0x3c8f7bb1	0.017515035
8	0x3d302e38	0.043012828
9	0x3d492f37	0.049117293
10	0x3bd11124	0.006380217
11	0x3c0ea1f1	0.008705602
12	0xbd5d8c8a	-0.054089107
13	0x3d633d01	0.0554781
14	0xba60ca82	-0.0008575098
15	0xbd52f8b3	-0.05150671
16	0xbdacfa52	-0.08446182
17	0xbd021c21	-0.031765107
18	0x3e37be25	0.17943628
19	0x3d46b405	0.048511524
20	0x3e10da43	0.1414576
21	0xbca034b7	-0.019556386
22	0x3cf6340b	0.030054113
23	0x3e05903d	0.13043304
24	0xbe1a5f94	-0.15075523
25	0x3d1136e4	0.03545274
26	0x3bb31bee	0.005465976
27	0xbde6cbad	-0.11269317
28	0x3e123ac7	0.14280234
29	0x3dd707d5	0.10499541
30	0x3bb4acf6	0.0055137826
31	0xbead9f58	-0.33910632
32	0x3dc92746	0.09821944
33	0x3b749839	0.0037322177
34	0xbca393f2	-0.019968007
35	0x3c1d9cff	0.00961995
36	0x3e23effa	0.16009513
37	0x3e298e02	0.16558078
38	0x3d3d6285	0.046236534
39	0x3db6bce6	0.08922748
40	0xbdb0f519	-0.08640499
41	0xbe7a6de0	-0.24455976
42	0x3d23611b	0.03988753
43	0x3d4d4d30	0.05012244
44	0x3d8dde8f	0.06927215
45	0xbd6dba2f	-0.058038887
46	0x3d2cdaa9	0.042200718
47	0xbdab97a7	-0.08378535
48	0xbdeb9ff0	-0.11505115
49	0x3dfe329c	0.12411997
50	0xbe1310ee	-0.14361927
51	0x3d1521d9	0.036409233
52	0xbd74128a	-0.059587993
53	0x3e128dbf	0.14311884
54	0x3cc04a5a	0.023472954
55	0xbda7efc5	-0.08200029
56	0x3cde574a	0.027141232
57	0x3d7fffcc	0.062499806
58	0x3c2f8356	0.010712465
59	0x3e165b15	0.14683183
60	0xbc2d5deb	-0.010581474
61	0xbc3068bc	-0.010767158
62	0xbd99163a	-0.074749425
63	0xbc9166fc	-0.017749302
64	0xbc9f8ae9	-0.019475417
65	0xbd97b835	-0.074081816
66	0x3b9fef36	0.004880811
67	0xbe157e57	-0.14598976
68	0x3d5d60da	0.054047443
69	0x3df5a00c	0.11993417
70	0x3cc353ab	0.023843607
71	0xbd8a0569	-0.06739313
72	0xbd5bb826	-0.053642415
73	0x3e3eb2fc	0.18622965
74	0x3768843c	1.3859066e-05
75	0xbd6c1a75	-0.05764242
76	0x3de1a537	0.1101784
77	0x3d7f8627	0.062383797
78	0x3dedb1ed	0.11606202
79	0x3cc86283	0.024461037
80	0xbdc21e70	-0.09478462
81	0x3c39537b	0.011311407
82	0xbd2104fe	-0.0393114
83	0x3d94fb36	0.07274477
84	0xbdbc956a	-0.09208186
85	0xbd245250	-0.04011756
86	0x3dea3543	0.1143594
87	0xbcba9bed	-0.02277943
88	0xbd43276d	-0.04764502
89	0x3e2c305a	0.1681532
90	0x3c9c4975	0.019077996
91	0x3d94546d	0.072426654
92	0x3d9bcd7b	0.07607552
93	0x3dfca233	0.123356245
94	0xbc94fe8b	-0.018187782
95	0x3d5b0ae3	0.05347718
96	0x3d280c71	0.04102749
97	0xbd20a29a	-0.03921757
98	0xbe0e10c7	-0.13873588
99	0xbe462311	-0.19349314
100	0xbe1dcb0f	-0.15409492
101	0xbc7cc384	-0.015427474
102	0x3da1675b	0.078810416
103	0xbd4e3d0b	-0.050351184
104	0x3d4dc9ac	0.050241157
105	0x3ccdfd54	0.02514521
106	0x3e129aa5	0.14316805
107	0x3dfc6403	0.12323763
108	0xbd934575	-0.07190982
109	0x3d7cbb8b	0.061702292
110	0x3d93f14d	0.07223759
111	0x3d3e737c	0.046496853
112	0xbe190c06	-0.14945993
113	0x3c8fa56a	0.01753493
114	0xbde9b052	-0.114105836
115	0xbcd015ae	-0.025400963
116	0x3d9c1d4d	0.07622776
117	0x3d95a606	0.07307057
118	0x3d4f4a4e	0.05060797
119	0x3cd00044	0.025390752
120	0x3c95cbec	0.018285714
121	0xbd7da15a	-0.061921455
122	0x3dc6943f	0.096962444
123	0x3e0e9b01	0.13926317
124	0x3c3c5aac	0.011496227
125	0xbe00c965	-0.12576826
126	0xbd9debfe	-0.077110276
127	0xbd93c0d5	-0.07214514
128	0xbe10ff19	-0.14159812
129	0xbca041a4	-0.01956255
130	0xbd7712d0	-0.060320675
131	0xbd95bee4	-0.073118
132	0xbdc193ce	-0.0945202
133	0x3d53a380	0.051669598
134	0x3d71b568	0.059010893
135	0x3cac56e8	0.021037534
136	0xbd89f163	-0.06735494
137	0xbd1482c6	-0.036257528
138	0x3de6b1c5	0.112643756
139	0xbd3d465f	-0.04620969
140	0x3bbccba4	0.0057615805
141	0x3b858bd8	0.0040755086
142	0xbdc59fad	-0.09649596
143	0xbdb1815d	-0.08667252
144	0x3d4b6bed	0.049663473
145	0x3d05219c	0.032502756
146	0xbc761cb3	-0.015021491
147	0xbdaa049f	-0.08301663
148	0xbdd87552	-0.10569252
149	0xbb009820	-0.0019621924
150	0x3d3de445	0.046360273
151	0xbda54429	-0.08069641
152	0x3dc0ac5e	0.094078764
153	0x3beff0b9	0.0073223975
154	0xbe249141	-0.16071035
155	0x3c7727ab	0.015085141
156	0xbd3f15cd	-0.04665165
157	0xbe43ed9d	-0.19133611
158	0x3c72dea7	0.014823592
159	0x3d997da2	0.07494666
160	0xbd7cb439	-0.06169531
161	0xbcd30898	-0.025760934
162	0x3d3bc62f	0.0458433
163	0x3e0019c2	0.12509826
164	0x3d73af2f	0.05949324
165	0xbd455b8e	-0.048183016
166	0xbd6dac65	-0.058025736
167	0x3ccd92d4	0.025094427
168	0xbd9d8035	-0.07690469
169	0x3dec8560	0.11548877
170	0xbdb0fd22	-0.08642031
171	0x3b291d19	0.0025804697
172	0x3d3267ef	0.04355615
173	0x3dd13cc6	0.1021667
174	0xbe034282	-0.1281834
175	0xbd44c7d6	-0.04804214
176	0x3e14b972	0.14523867
177	0xbd808d38	-0.06276935
178	0x3ddea06c	0.10870442
179	0x3c9862a5	0.018601725
180	0x3c8cfa4d	0.017209196
181	0xbd8afc3b	-0.067863904
182	0x3b330562	0.002731644
183	0x3d8861e1	0.06659294
184	0xbcaf8f9f	-0.021430789
185	0xbd4e0fab	-0.05030791
186	0xbc8f2cfa	-0.017477501
187	0x3c79ad6c	0.015239101
188	0xbd894a83	-0.06703665
189	0xbd20d818	-0.039268583
190	0xbdc637e6	-0.096786305
191	0xbe037614	-0.12838012
192	0x3dc306c0	0.09522772
193	0xbd8ba547	-0.068186335
194	0x3aebb4d8	0.0017982973
195	0xbc8ba083	-0.017044311
196	0xbdf77c44	-0.12084249
197	0x3db76288	0.0895434
198	0x3d00d72d	0.031455208
199	0x3db083b3	0.0861887
200	0x3d63ebb8	0.05564472
201	0xbd931823	-0.07182338
202	0xbd5001df	-0.050783034
203	0x3dff63d7	0.12470215
204	0x3d0cd526	0.03438296
205	0xbd32e32a	-0.04367367
206	0x3e90fb84	0.2831689
207	0x3dd4c4f8	0.10389131
208	0x3d18020b	0.037111323
209	0x3dd05cfa	0.10173984
210	0x3c9fe2d5	0.019517342
211	0x3d10bfdc	0.03533922
212	0xbdf71b61	-0.12065769
213	0x3db87d67	0.090082936
214	0xbd1cc51d	-0.03827392
215	0xbe3609d9	-0.17777194
216	0xbdf130d6	-0.11776893
217	0xbe1b8da9	-0.15190758
218	0xbd0ea9be	-0.034829848
219	0x3e58b48b	0.21162622
220	0xbd9fd8db	-0.07805034
221	0xbd920bcb	-0.071311556
222	0xbd22a47b	-0.039707642
223	0xbdc8985b	-0.097946845
224	0x3c88592a	0.01664408
225	0x3d8ab6d7	0.06773155
226	0x3d9430d4	0.07235876
227	0x3ece6265	0.40309444
228	0xbdb9cd49	-0.09072358
229	0x3e09ac81	0.13444711
230	0xbd5a609c	-0.05331479
231	0xbd1b4454	-0.03790696
232	0x3d1d28b3	0.038368892
233	0xbc99a01e	-0.018753108
234	0x3dfff17a	0.1249723
235	0xbc1007df	-0.008790939
236	0x3d4837ab	0.048881214
237	0xbd53c86e	-0.051704817
238	0xbdabb959	-0.08384962
239	0xbce03b79	-0.027372109
240	0x3e131447	0.14363204
241	0x3b880e84	0.004152121
242	0xbbf8b61e	-0.0075900694
243	0x3d9eb9d2	0.07750286
244	0xbe19a69a	-0.1500496
245	0xbd51458a	-0.05109171
246	0x3d193b1f	0.037409898
247	0x3d1c0e0b	0.03809933
248	0x3e25f5ec	0.16207093
249	0x3ced3868	0.02895756
250	0xbd9db48e	-0.07700454
251	0x3c9d94da	0.019236017
252	0xbd8dbe80	-0.069211006
253	0x3e03e4f0	0.12880301
254	0x3d6efda5	0.058347363
255	0x3db9b666	0.09067993

fc2.bias f4 [64]
0	0x3d9f12a8	0.0776723
1	0xbd344920	-0.04401505
2	0x3d20700f	0.039169367
3	0xbd21757b	-0.03941868
4	0xbd1d9882	-0.03847552
5	0x3c50c7c8	0.012742944
6	0xbcd5c451	-0.026094588
7	0xbc9b736b	-0.018975934
8	0xbcf7619b	-0.03019791
9	0xbc2821b0	-0.010261938
10	0x3b7951c4	0.003804312
11	0x3d1b6bf2	0.03794474
12	0xbd8d090d	-0.06886492
13	0x3d80ae1c	0.06283209
14	0xbdb4bda1	-0.08825231
15	0x3d2f4a5f	0.042795535
16	0xbc7332d2	-0.0148436595
17	0xbd8b7e67	-0.06811219
18	0xbd12bc9f	-0.035824414
19	0xbd0d1d37	-0.03445169
20	0x3d25b84e	0.04045897
21	0x3d3bf955	0.04589208
22	0x3c61c11a	0.013778949
23	0x3da7c870	0.08192527
24	0xbd8f9c78	-0.07012266
25	0x3c336432	0.010949181
26	0xbd4e13fc	-0.050312027
27	0xb90f48f0	-0.00013664714
28	0x3da6bada	0.08141108
29	0xbda9382f	-0.08262669
30	0xbc16ecee	-0.009211762
31	0xbcf69eef	-0.030105082
32	0x39b92ba3	0.00035318462
33	0x3d3e690e	0.046486907
34	0x3da68c1a	0.08132191
35	0x3d047077	0.032333817
36	0x3d7af14a	0.061265267
37	0xbcd1aa73	-0.025593972
38	0x3cf11d97	0.029433055
39	0xbde95682	-0.11393453
40	0xbd36095f	-0.04444253
41	0xbbc8e583	-0.0061308756
42	0x3cf4b542	0.029871587
43	0x3d896d4f	0.06710302
44	0x3d87daec	0.06633553
45	0xbd5f678b	-0.054542106
46	0xbb124c6c	-0.0022323383
47	0xbd5ef571	-0.05443329
48	0x3ce5a4a4	0.028032608
49	0xbd7f81fe	-0.06237983
50	0xbcdd2c9a	-0.026998807
51	0x3da470e5	0.080293454
52	0x3d1a7bb9	0.037715647
53	0x3c2c1d58	0.010505043
54	0x3ca3f3ae	0.020013656
55	0xbd40873a	-0.047003962
56	0x3c7e4c71	0.015521155
57	0xbb874c2b	-0.004128953
58	0xb9ca67b4	-0.00038605707
59	0xbc5ebef1	-0.013595329
60	0x3c9147bc	0.0177344
61	0xbcba5600	-0.022746086
62	0x3d878510	0.066171765
63	0x3d669834	0.056297496

bn2.weight f4 [64]
0	0x40065600	2.098999
1	0x401a5727	2.4115694
2	0x4006078a	2.0942101
3	0x401d0e0b	2.453982
4	0x40083c35	2.1286747
5	0x3ffa0280	1.9532013
6	0x402d0b41	2.703812
7	0x40315786	2.770967
8	0x401759f9	2.3648665
9	0x40199564	2.399743
10	0x4025f44e	2.5930362
11	0x402e249a	2.720984
12	0x402e813b	2.7266376
13	0x400c0e65	2.1883786
14	0x400ff3ff	2.2492673
15	0x4007cd87	2.1219194
16	0x400ddd0a	2.2166162
17	0x403710d8	2.860403
18	0x3fe24d05	1.7679754
19	0x4016aaf6	2.3541846
20	0x400b5716	2.1771903
21	0x4018174e	2.3764224
22	0x400602fc	2.0939322
23	0x400c93ab	2.196513
24	0x400bf785	2.1869824
25	0x40056310	2.0841713
26	0x40329185	2.7901318
27	0x401e7ce1	2.476372
28	0x4033be5c	2.8084936
29	0x4011817f	2.2735288
30	0x40096582	2.1468205
31	0x40203dec	2.5037794
32	0x401da9fc	2.4635
33	0x402a1af8	2.657896
34	0x401c933a	2.446486
35	0x4004f079	2.0771773
36	0x4027bc7c	2.6208792
37	0x401e6057	2.47463
38	0x40350643	2.8285072
39	0x40151657	2.3294885
40	0x402dc916	2.7153983
41	0x400c4807	2.1918962
42	0x3fe48e56	1.7855937
43	0x4001b158	2.0264492
44	0x401d4207	2.457155
45	0x4008cf6e	2.1376605
46	0x40074ee4	2.11419
47	0x401282ff	2.2892454
48	0x4024735b	2.5695407
49	0x402f6845	2.740739
50	0x401fbdaa	2.4959512
51	0x4038dfac	2.8886518
52	0x3fe8ecdc	1.8197284
53	0x4023f75b	2.5619724
54	0x4006df0a	2.1073632
55	0x40289bd8	2.634512
56	0x40244d2c	2.5672102
57	0x4014f149	2.3272269
58	0x3ff0fa44	1.8826375
59	0x4022bb6b	2.542689
60	0x40265179	2.5987227
61	0x402310a8	2.5478916
62	0x3ffe4849	1.986581
63	0x40376c1d	2.8659737

bn2.bias f4 [64]
0	0xbe681a1c	-0.2266621
1	0x3eb984c7	0.36234114
2	0x3e158aad	0.14603682
3	0xbee9a3f3	-0.45632896
4	0x3eb35a99	0.35030058
5	0xbebfe794	-0.37481368
6	0x3dab0214	0.08350006
7	0x3e3198f3	0.17343502
8	0x3e8e129c	0.27748573
9	0x3ee471f3	0.44618186
10	0x3de22b9f	0.11043476
11	0xbe56d623	-0.20980124
12	0x3e507973	0.20358829
13	0x3f1e82bf	0.6191825
14	0x3e2d4d8e	0.16924116
15	0xbeedc349	-0.46438053
16	0xbdb8d542	-0.09025051
17	0xbe8afead	-0.27147427
18	0x3e617e52	0.22020844
19	0x3bf20d6c	0.007386854
20	0xbd60fb8b	-0.05492739
21	0x3cb9a4f0	0.022661656
22	0xbeeb6c63	-0.4598113
23	0xbd12f658	-0.035879463
24	0x3f48f3f5	0.7849725
25	0xbd42a94f	-0.047524747
26	0xbe9b945f	-0.30386636
27	0x3e1b42ab	0.1516215
28	0x3dc330e1	0.09530807
29	0xbe85d96b	-0.2614244
30	0x3e9d32c0	0.30702782
31	0xbe7f5bd1	-0.24937369
32	0xbb858296	-0.004074405
33	0x3cf5cc5b	0.03000467
34	0xbe594ce0	-0.21220732
35	0x3ed1afb5	0.40954366
36	0x3efb86ba	0.49126226
37	0xbe558f67	-0.20855485
38	0xbd752d3a	-0.059857585
39	0x3d8b25f3	0.067943476
40	0xbeb85e59	-0.36009482
41	0x3ebae007	0.36499044
42	0x3e6209b5	0.22074015
43	0xbe1a0fcf	-0.15045093
44	0xbea512a1	-0.32240775
45	0x3d9eae5b	0.077480994
46	0xbeb5e2a6	-0.35524482
47	0xbeb90285	-0.36134735
48	0xbb80ec76	-0.0039344383
49	0xbc277328	-0.0102203265
50	0x3db71351	0.08939231
51	0x3e8b2eb5	0.27184072
52	0x3e3b3792	0.18282917
53	0x3e151a86	0.14560899
54	0x3ed85c74	0.42258036
55	0x3ec72098	0.38892055
56	0xbe74b372	-0.23896578
57	0xbe7901d7	-0.24317108
58	0x3e9f9f54	0.31176245
59	0x3e995b5a	0.29952508
60	0xbf03cf65	-0.51488334
61	0x3ebb1096	0.36536092
62	0xbe96db54	-0.2946421
63	0xbd7012cb	-0.058611672

bn2.running_mean f4 [64]
0	0x3f0e7a1e	0.55655086
1	0x3e6dd139	0.23224343
2	0xbe959e5c	-0.2922238
3	0xbf093222	-0.5359212
4	0xbfa8f790	-1.320055
5	0xbf0d1e35	-0.5512422
6	0xbe743a5f	-0.23850392
7	0x3f3a0737	0.7266726
8	0x3f35a31e	0.7095202
9	0xbe03c6fc	-0.12868875
10	0x3c56d7f7	0.0131130135
11	0x3ed41300	0.41420746
12	0x3ee742e7	0.4516823
13	0x3f20d762	0.6282865
14	0xbe50e9ca	-0.20401683
15	0xbf581428	-0.84405756
16	0xbf371335	-0.7151368
17	0xbf05d8e0	-0.5228405
18	0xbef0f821	-0.47064307
19	0xbe9e7557	-0.30948898
20	0x3fe41a23	1.7820476
21	0xbf19cd1f	-0.60078615
22	0x3ec7313c	0.3890475
23	0x3f0f3944	0.55946755
24	0x3e4e7862	0.2016311
25	0x3fa3ab58	1.2786665
26	0x3e2804ee	0.1640813
27	0x3f5c22cd	0.859906
28	0x3ef202fd	0.47267905
29	0x3f27ef1f	0.65599245
30	0x3da5387c	0.08067414
31	0x3e77cb24	0.24198586
32	0x3dde6b00	0.108602524
33	0x3eada0c7	0.33911726
34	0xbcdf121d	-0.027230317
35	0x3e808a23	0.2510539
36	0x3e7553fe	0.23957822
37	0x3ee131dc	0.43983352
38	0x3ebe80bf	0.372076
39	0x3f19e70b	0.6011817
40	0x3bf6863f	0.0075233276
41	0xbd174dcc	-0.036939427
42	0x3f0f00f7	0.5586085
43	0xbf2ef355	-0.68340045
44	0xbe2f85fd	-0.17140956
45	0xbf85ac77	-1.0443257
46	0xbe61ac4e	-0.22038385
47	0xbf65fc14	-0.89837766
48	0x3f33d204	0.70242333
49	0xbee056eb	-0.43816313
50	0xbf7a0d6d	-0.97676736
51	0x3f115188	0.5676503
52	0x3e258696	0.16164622
53	0x3f1ad8a7	0.60486835
54	0x3f47dd0e	0.7807168
55	0xbe46eda3	-0.19426589
56	0xbf0dced0	-0.55393696
57	0xbdcee598	-0.10102385
58	0xbd937ea5	-0.0720189
59	0x3f568503	0.8379671
60	0xbee37001	-0.4442139
61	0x3f68ac5b	0.90887994
62	0x3f5cef1b	0.86302346
63	0x3f83a626	1.028508

bn2.running_var f4 [64]
0	0x3ee9aa5d	0.4563779
1	0x3ef14306	0.47121447
2	0x3e4c7ac2	0.19968703
3	0x3eb6e4df	0.3572149
4	0x3e32dde6	0.1746746
5	0x3ef62ed3	0.480826
6	0x3f1888f1	0.59583956
7	0x3ec60928	0.3867886
8	0x3e76622e	0.2406089
9	0x3e4c70bb	0.19964878
10	0x3f54a24b	0.8306014
11	0x3ecc3a8f	0.39888427
12	0x3f57f88d	0.84363633
13	0x3edf983b	0.4367083
14	0x3e4ce3e1	0.20008804
15	0x3edd2d46	0.43198603
16	0x3e83d87f	0.2575111
17	0x3eddb50e	0.43302196
18	0x3faa4d84	1.3304906
19	0x3eafe5a0	0.34354877
20	0x3e29fed3	0.16601114
21	0x3ed04aa9	0.4068196
22	0x3ea3a0a4	0.31958497
23	0x3eb340d7	0.35010406
24	0x3ec9df24	0.39428055
25	0x3e15cb67	0.14628373
26	0x3f115be6	0.5678085
27	0x3ec032c9	0.37538746
28	0x3e621d14	0.22081405
29	0x3e57bf8f	0.21069168
30	0x3f85f040	1.0463943
31	0x3e494038	0.19653404
32	0x3e91eea9	0.28502396
33	0x3e9846ad	0.2974142
34	0x3f0b5500	0.54426575
35	0x3e890b56	0.2676646
36	0x3efbd8b9	0.49188784
37	0x3e599822	0.2124944
38	0x3e532617	0.20619999
39	0x3e77e5e6	0.24208793
40	0x3ea01f2c	0.31273782
41	0x3f1cb224	0.6120932
42	0x3f318e46	0.6935772
43	0x3ed54792	0.41656166
44	0x3ede8249	0.43458775
45	0x3e88d471	0.2672458
46	0x3fefc747	1.873269
47	0x3e402fa9	0.18768181
48	0x3e81f069	0.2537873
49	0x3f608485	0.8770221
50	0x3f938368	1.1524477
51	0x3e87e60a	0.26542693
52	0x3e94bf52	0.29052216
53	0x3e57c953	0.21072893
54	0x3e790099	0.24316634
55	0x3edace59	0.42735556
56	0x3ef488e5	0.47760692
57	0x3e05f5da	0.13082066
58	0x3ea40643	0.32036027
59	0x3eca0613	0.3945776
60	0x3f2b13a2	0.6682683
61	0x3ec5993d	0.38593474
62	0x3f09b189	0.5378652
63	0x3ef55cfd	0.47922507

fc3.weight f4 [10, 64]
0	0x3f1958c1	0.5990105
1	0xbe024b6f	-0.12724088
2	0xbe2eb4b1	-0.17061116
3	0xbe9f347d	-0.31094733
4	0xbf16f35f	-0.58965105
5	0xbe5f7b0c	-0.21824282
6	0x3e91a052	0.28442627
7	0x3e9b41fa	0.30323774
8	0x3e787066	0.24261627
9	0x3ed89c70	0.42306852
10	0x3ec850b1	0.39124063
11	0xbf01d1fe	-0.5071105
12	0xbe8a6c60	-0.2703581
13	0x3db6e498	0.089303195
14	0xbf3fb292	-0.7488185
15	0xbe2815b4	-0.16414529
16	0xbf36398e	-0.7118157
17	0xbea9213b	-0.33033165
18	0xbecc7245	-0.3993093
19	0xbe5d383f	-0.21603487
20	0x3ed588eb	0.41706023
21	0x3d35ed50	0.044415772
22	0x3c3a1cf6	0.011359444
23	0x3c7d106e	0.015445812
24	0x3e175f2e	0.14782402
25	0x3f234e92	0.63791764
26	0x3eab4e2c	0.33458078
27	0x3e722ae7	0.23649178
28	0xbf3072a1	-0.6892491
29	0x3efb725b	0.49110684
30	0xbe1a5453	-0.1507123
31	0x3ed87696	0.42277974
32	0xbead7982	-0.33881766
33	0x3ea485aa	0.32133228
34	0x3dc19156	0.09451549
35	0xbb84196e	-0.004031352
36	0x3e0aab78	0.13541973
37	0xbc4b8c75	-0.012423624
38	0x3e9605bc	0.2930125
39	0x3f113830	0.5672636
40	0xbdca22ae	-0.09869896
41	0x3ebe94c1	0.37222865
42	0xbe521644	-0.20516306
43	0xbe960b3f	-0.29305455
44	0x3f4bbdee	0.79586685
45	0xbf34895e	-0.70522106
46	0xbe062de5	-0.13103445
47	0xbee08bad	-0.43856564
48	0xbed2366e	-0.41057152
49	0x3efca4ad	0.49344388
50	0x3d6e7512	0.058217116
51	0xbf405d06	-0.7514194
52	0xbcb40ea2	-0.021979634
53	0x3ee284dc	0.4424199
54	0x3e6ff6f5	0.2343405
55	0xbeab958e	-0.3351254
56	0x3f48415c	0.7822473
57	0xbe742ed2	-0.23845986
58	0xbdbe31f7	-0.09286874
59	0x3e0cf231	0.13764264
60	0xbea16579	-0.3152273
61	0x3ec7a6ec	0.3899454
62	0x3e74a6b7	0.23891722
63	0x3f287876	0.6580881
64	0xbf0f452f	-0.5596494
65	0x3e85450b	0.26029238
66	0x3e973e6e	0.29539818
67	0x3e2b9951	0.16757704
68	0x3f5967cf	0.84924024
69	0xbda969e4	-0.0827215
70	0x3e2decf8	0.16984928
71	0xbf273f16	-0.65330637
72	0x3c411f3f	0.011787235
73	0x3ebc7536	0.36808175
74	0x3eca4d9f	0.39512345
75	0xbddaee3a	-0.10689969
76	0xbf1b37dd	-0.60632116
77	0x3e8f04f8	0.27933478
78	0x3ebf08f1	0.3731151
79	0xbf03d4ca	-0.51496565
80	0x3db305fd	0.087413765
81	0xbf0d0a44	-0.5509379
82	0x3d938f8c	0.07205114
83	0xbed09ab6	-0.40743035
84	0xbf12f9a2	-0.5741216
85	0xbede9a86	-0.43477267
86	0xbed1dba5	-0.40987888
87	0xbee45f83	-0.4460412
88	0x3eac6dc7	0.33677503
89	0xbeef5599	-0.46744993
90	0xbe230d74	-0.159231
91	0xbda8ce39	-0.08242459
92	0x3e8adca0	0.2712145
93	0xbe08da46	-0.13364515
94	0x3ee37815	0.44427553
95	0x3d211c89	0.039333854
96	0xbf1118ad	-0.5667828
97	0xbdec887e	-0.11549471
98	0xbdac4c43	-0.08412983
99	0xbdb90477	-0.09034055
100	0x3f0a14b8	0.53937864
101	0xbeb10a39	-0.34578112
102	0xbd323892	-0.04351098
103	0xbf08c846	-0.53430593
104	0xbe60c84a	-0.21951404
105	0x3ed52694	0.41630995
106	0x3f2c296e	0.67250717
107	0xbf0d94c8	-0.5530515
108	0xbe2a2901	-0.16617204
109	0x3f10cd5b	0.5656335
110	0xbe8dd7d7	-0.27703735
111	0xbea23e9a	-0.31688386
112	0xbe27dbb8	-0.1639241
113	0x3e224184	0.15845305
114	0x3f10e04d	0.56592256
115	0xbd171e68	-0.036894232
116	0x3ea6cc29	0.32577637
117	0xbe01de0d	-0.12682362
118	0x3ed863ab	0.4226354
119	0x3f378e6b	0.7170169
120	0xbdcb5e05	-0.09930042
121	0xbf0d55af	-0.5520887
122	0xbe6904ee	-0.22755787
123	0x3ede76af	0.43449923
124	0xbf0fe5f6	-0.5621027
125	0x3eeafeaa	0.45897418
126	0xbf0a308c	-0.53980327
127	0x3e36df23	0.17858557
128	0x3ea54f64	0.32287133
129	0x3ed17fa7	0.40917704
130	0x3ea76f24	0.3270198
131	0xbeabbd6b	-0.33542952
132	0xbe1d607f	-0.15368842
133	0xbe357a43	-0.1772242
134	0x3e81c6a8	0.25346875
135	0x3ef31986	0.4748041
136	0x3ec8654c	0.39139783
137	0x3e8a34ca	0.269934
138	0xbec5cf0d	-0.3863453
139	0x3e5aab6a	0.21354452
140	0xbdcbfd07	-0.099603705
141	0x3eb38287	0.35060522
142	0xbe43beed	-0.19115801
143	0xbdb329be	-0.08748196
144	0x3e635436	0.22200093
145	0xbdfc1ff4	-0.12310782
146	0x3e6e1353	0.23249559
147	0x3c5540da	0.01301595
148	0xbde968bc	-0.113969296
149	0x3f20eadd	0.6285837
150	0xbee11994	-0.43964827
151	0x3cc8fe2a	0.024535257
152	0x3ed78478	0.42093253
153	0xbe9efbc5	-0.3105146
154	0xbf1d3f69	-0.6142488
155	0x3f0bb8de	0.5457896
156	0xbeaa19da	-0.33222848
157	0x3e945178	0.28968406
158	0x3f06a285	0.52591735
159	0xbf1ab62f	-0.6043424
160	0x3daabce3	0.083368085
161	0xbf0b5c55	-0.5443776
162	0xbf0ca6a2	-0.5494176
163	0x3e9bb631	0.3041244
164	0x3ebc723a	0.36805898
165	0x3ede4ff5	0.43420377
166	0x3f03de13	0.51510733
167	0xbe81f328	-0.25380826
168	0xbdaf1ad1	-0.08550037
169	0x3e05d329	0.13068832
170	0xbf1f98ca	-0.6234251
171	0x3e9afd81	0.30271533
172	0xbf314662	-0.6924802
173	0xbda1fb38	-0.07909244
174	0xbeb0c1f7	-0.34522983
175	0xbeef81f2	-0.46778828
176	0xbec49fea	-0.38403255
177	0x3e71af53	0.23602037
178	0xbee64cad	-0.44980374
179	0x3f38959a	0.72103274
180	0x3eb30715	0.3496634
181	0x3eda1edc	0.4260167
182	0x3e8ec7b1	0.27886727
183	0xbe464ad3	-0.1936448
184	0xbf30dba5	-0.6908515
185	0xbcd422ff	-0.025895594
186	0xbe1b8e43	-0.15190987
187	0xbd16c200	-0.036806107
188	0xbd5c7b41	-0.05382848
189	0xbe9bbc67	-0.30417177
190	0x3ed8701d	0.42273036
191	0x3d89f47c	0.06736085
192	0x3e776451	0.24159361
193	0xbf059927	-0.52186817
194	0x3f00d649	0.50326973
195	0x3edf10a1	0.43567374
196	0x3ee8f5cc	0.45500028
197	0x3f351936	0.70741594
198	0xbef060b8	-0.4694879
199	0xbe04b713	-0.12960462
200	0xbf248ac2	-0.6427423
201	0xbf1a3695	-0.60239536
202	0xbf58b721	-0.8465443
203	0x3ef16f9c	0.47155464
204	0xbf1b1ca3	-0.6059057
205	0xbf865a24	-1.0496259
206	0x3e18956d	0.14900751
207	0x3f56f029	0.83960205
208	0x3e24a3f9	0.16078176
209	0xbebdc923	-0.37067518
210	0xbe68449b	-0.22682421
211	0xbf177ccd	-0.59174806
212	0x3e74714e	0.23871347
213	0x3e19aa34	0.15006334
214	0x3f4ed0be	0.80787265
215	0x3f08c679	0.53427845
216	0xbf07e195	-0.53078586
217	0xbf20340b	-0.6257941
218	0x3e3783f4	0.1792143
219	0xbe57d7ce	-0.21078417
220	0xbde23efb	-0.11047169
221	0x3e5171c7	0.20453559
222	0xbf00cfaa	-0.5031687
223	0xbf1c0266	-0.6094116
224	0xbe191f2b	-0.14953296
225	0x3e8bbd75	0.27292982
226	0xbde4fd66	-0.111811444
227	0x3ecf7595	0.40519395
228	0xbf371afb	-0.71525544
229	0x3e349340	0.17634296
230	0xbeccf8b5	-0.40033498
231	0xbef40e38	-0.47667098
232	0xbecd4250	-0.40089655
233	0xbe92632c	-0.28591287
234	0x3e58c08e	0.21167204
235	0x3ed1373f	0.40862462
236	0xbe4c803e	-0.19970796
237	0x3ee56f18	0.4481132
238	0x3e47233e	0.19447038
239	0xbec18426	-0.37796134
240	0xbef98230	-0.48732138
241	0xbeed857e	-0.4639091
242	0x3f04883c	0.5177038
243	0xbeb19396	-0.34682912
244	0x3ee29393	0.44253215
245	0x3b311292	0.0027019125
246	0xbf207452	-0.6267749
247	0xbf16b211	-0.5886546
248	0x3f0f0c11	0.55877787
249	0x3ebf51a0	0.37366962
250	0xbe550b29	-0.20805039
251	0xbf50c9fc	-0.81558204
252	0x3ea3341f	0.31875703
253	0x3e39dbe3	0.18150286
254	0x3e70ccc9	0.2351562
255	0xbf40f1a9	-0.75368744

fc3.bias f4 [10]
0	0xbe04432d	-0.1291625
1	0x3ecdc776	0.4019124
2	0x3e10abbc	0.14128011
3	0xbf1076b5	-0.5643113
4	0x3d300358	0.04297194
5	0xbea33af7	-0.31880924
6	0xbdbc0fc7	-0.09182697
7	0xbeb0968c	-0.34489858
8	0x3e1b847e	0.1518726
9	0xbd99f2f4	-0.07517043
