历史权重记录/60epoch/weight.pth (torch, 166031 bytes, 34 tensors)

fc1.weight f4 [128, 26]
00000000: d6f8 0ebe bd46 293e 09d9 3fbf d203 883d
00000010: f70e fdbe a04e 97be 3aae 0c3f fa2e 83bf
00000020: 14c6 e5be e0de 223f f208 d93f c702 7ebf
00000030: 51c4 03bf 9f9f f73e 2c25 e93e a353 1140
00000040: ae5a dd3c ab85 463f 06ae 2cbe ff91 f43f
00000050: 9e41 103c 1ede 573d f5f0 81be 270c 9e3f
00000060: 30a3 cf3d 6496 98bc 88b4 153d 3056 a7bb
00000070: 3a33 21bf 69b9 2a3d 82d5 49bf f372 aa3d
00000080: 109b f1be cbd3 713f 5801 333f b473 e8be
00000090: fabb 6bbf 7491 003e 6458 a33e 4a53 f23c
000000a0: ed66 82be 23eb c0bf a66c a4bd 38b1 5bbf
000000b0: 1c1e 913f 4fa9 833c ef4d 0fbd 3629 243c
000000c0: 4d31 c83e 36af 33bf 2611 c83b 4dec e4bc
000000d0: 3967 4dbc 19f5 a6bd fdf1 193f 495d 213f
000000e0: 07dc 183f 694d 2a3f 9119 6c3d e38b 3d3f
000000f0: 55a8 583d 27b9 d1be 74ac 13c0 89e5 603f
00000100: 8ce6 5ebf b617 06bf ece2 1cbf 3fe2 9b3e
00000110: 26b9 e5be 2407 ba3e ece2 b6bd 12f4 a33e
00000120: 077e 8ebe f037 1b3e 683e 50bf e6f5 9f3e
00000130: 151c 07bd 04b9 2b3e cc9a 383e 5b96 183e
00000140: a9e2 2a3f 77d9 1dbd 320d d93e 2af0 6d3d
00000150: 6d3d 963e a879 bd3e 28a4 e9be 4376 ffbe
00000160: 1cbc a9bd 6b5f 40bf f0dc 5a3f 7bf3 fdbd
00000170: ac83 df3e 92b2 0c3e e77d a13d c928 b03d
00000180: f249 6b3f 3bca 1d40 3292 83bd 683a f0bd
00000190: 930a 963e fdbd e63d bc65 a5bd faca 72bc
000001a0: 8fa1 f33d eb67 eebd 44dc a4be ab88 9abe
000001b0: 0b38 b8be 4078 04bf 73b1 47bf a4a2 d03e
000001c0: 2fd2 5e3f b145 4d3f f64e 81bc 115f 853e
000001d0: 910b 433f 8f73 0dbe 61d1 26be fd68 16bf
000001e0: 208b f1bd 0832 dcbb 1fa0 8d3f 2aaf aabf
000001f0: 0934 26be 6766 cbbd 2e89 163e 42fa 4abe
00000200: 0d7a 913b 3ba6 4fbd 8eb7 d3bc 8b06 1e3d
00000210: 1fa7 6a3e 36cd 92be cd13 55be f30c 24be
00000220: 334d cebd a8c9 46bf 67b8 4bbe 29e3 9c3f
00000230: 427a 9c3e 81c4 44bf 4cb1 a63f 6043 0fbe
00000240: f07c 10bc 81a1 4f3d 0a70 9e3e 1c8d 5a3f
00000250: c669 c13f 36e2 c73f e32d 73be ad5b 21bf
00000260: 272e 503f 1017 1a3f 5648 593d aa7c 3e3c
00000270: 7c94 b33d 5c9a f63c 25c8 893d ae89 103d
00000280: 43c2 7fbe ce14 493e e5d1 13bf 653e 403e
00000290: eaef 673f b9f9 88be 0271 873f 187f 1cbf
000002a0: 466d f73d 9f02 c3be 58fd 9a3f b6f1 f03e
000002b0: 02ad e4bd 2cfa eebe fa16 873f 6466 cfbf
000002c0: 30be a5be 92e4 633e 905c d93e fe1c 59be
000002d0: f429 5cbc 527f 63bd 59a5 dabe ac8a a3bd
000002e0: 9da8 10be 3a5d bc3c e5e7 1bbe 0023 75bd
000002f0: 523e 4bbe 35f2 e33d 6fcf cd3e c375 97be
00000300: 1495 99bf 45b5 973e c13a a2bd 2082 cdbe
00000310: b165 743d a9d6 d03e c27a babe 4f76 bbbe
00000320: 2607 54bf 8691 99bf 5fc4 443e 0235 febd
00000330: 150f cbbe c8f6 85be aa26 68bd dc6a 513d
00000340: 9ba6 553e 5eb5 2cbd 3190 a53e c099 25be
00000350: 6d6c c33c 5266 81bd 3846 d1be f817 9bbe
00000360: 84bf ae3e 8aec 8c3f 11d4 ab3f eef8 f5be
00000370: a78c ce3e 14f0 23bf ddb2 483f 4e77 f03f
00000380: ab94 41be dea2 b53e 0ec7 0d40 0343 23bf
00000390: 2b47 6dbe 4d8b e9be 7d66 123f 71ac 3c3f
000003a0: a71c 20be 3add 253d 66b6 ae3e 586b d2bb
000003b0: 04f9 183f 2ac7 bdbe 4fbc 403e f665 ebbe
000003c0: fb7a b0be 2370 ae3e c22d 12be 5708 cb3e
000003d0: 2303 563e af7b 1a3f 63e4 963d 396a c5bd
000003e0: f804 5ebf 25f2 aebf e050 bbbd e0b1 b0be
000003f0: cc24 b93e 4189 8d3f 394f 3f3e 6cbd 01bc
-0.13962111 0.16530891 -0.74940544 0.06641354 -0.4942548 -0.29552174 0.5495335 -1.0248711
-0.44877684 0.6362133 1.6955855 -0.9922299 -0.5147143 0.4836397 0.45536172 2.2707298
0.027020779 0.7754771 -0.1686326 1.9107054 0.008804707 0.05270206 -0.25379148 1.2347459
0.101385474 -0.0186264 0.03654912 -0.00510671 -0.6296879 0.041680727 -0.7884141 0.08322706
-0.47188616 0.94463795 0.69923925 -0.45400774 -0.92083704 0.12555486 0.31903374 0.029580731
-0.2546915 -1.5071758 -0.080285355 -0.8581729 1.1337314 0.016071944 -0.034986433 0.010019591
0.39100114 -0.70189226 0.00610556 -0.027944708 -0.012536817 -0.081522174 0.6013487 0.63032967
0.59710735 0.6652437 0.05764157 0.74041575 0.05289491 -0.40961573 -2.3074007 0.8785024
-0.87070537 -0.5237993 -0.61283755 0.3044605 -0.4486782 0.36333573 -0.08930001 0.32022148
-0.27830526 0.15158057 -0.81345224 0.31242293 -0.032985765 0.16769797 0.180278 0.14901106
0.66752106 -0.03853747 0.4239288 0.058090366 0.2934374 0.3700688 -0.45633054 -0.49894914
-0.08287832 -0.75145596 0.85493374 -0.12399956 0.43655145 0.13739994 0.07885342 0.08601529
0.91909707 2.4654682 -0.06424369 -0.1172989 0.29304942 0.11266706 -0.08076045 -0.014818901
0.11896049 -0.116409145 -0.321993 -0.30182394 -0.35980257 -0.51745987 -0.7800514 0.40749085
0.87039465 0.80184466 -0.015784722 0.26049092 0.76189524 -0.13813613 -0.16290809 -0.5875395
-0.11794114 -0.0067198314 1.106449 -1.3334706 -0.16230787 -0.09931641 0.14700767 -0.19822028
0.0044395984 -0.05069564 -0.025844362 0.03858046 0.22915314 -0.2867219 -0.20808335 -0.16020565
-0.10073318 -0.77651453 -0.19894563 1.2256824 0.30562025 -0.7686234 1.3022857 -0.13990545
-0.00881885 0.05069113 0.30944854 0.85371566 1.5110404 1.5615909 -0.23747973 -0.6303051
0.8132042 0.6019144 0.0530475 0.011626402 0.087685555 0.030102901 0.06727628 0.03528755
-0.24976449 0.19636843 -0.5774215 0.18773802 0.90600455 -0.26753023 1.0581362 -0.6113143
0.12081389 -0.38087937 1.2108564 0.4705941 -0.11165811 -0.4667524 1.0553887 -1.6203122
-0.32371664 0.22255161 0.42453432 -0.21202466 -0.013437737 -0.055541344 -0.42704275 -0.07985434
-0.14126821 0.022993673 -0.1522518 -0.05984783 -0.19847992 0.11130182 0.40197322 -0.29582033
-1.199862 0.29630485 -0.07921363 -0.4013834 0.059667293 0.40788773 -0.36421782 -0.366137
-0.8282341 -1.1997535 0.19215535 -0.12412454 -0.39659944 -0.26164842 -0.056677498 0.0511273
0.20864336 -0.042165153 0.32336572 -0.16171932 0.023855412 -0.06318344 -0.40873885 -0.30291724
0.3413049 1.1009686 1.3424093 -0.4804148 0.40341684 -0.64038205 0.78397924 1.8786409
-0.18904369 0.3547582 2.2152743 -0.63774127 -0.2317168 -0.4561409 0.57187635 0.73700625
-0.1563593 0.04049418 0.34123534 -0.006421488 0.5975497 -0.37066013 0.18821834 -0.45976228
-0.34468827 0.3406993 -0.14275268 0.396548 0.20899634 0.60344976 0.0736778 -0.09639401
-0.8672633 -1.3667647 -0.09146285 -0.34510708 0.36160886 1.1057512 0.18682565 -0.007918697

fc1.bias f4 [128]
00000000: 5d8e 23bd 8280 45bd 99ce 36be 0e97 83bd
00000010: 54b5 f3bd 4bc4 04bd 699b 4e3d 17e3 653d
00000020: a1db 12be 12e3 33be 8abc 42bc eb9c 39bd
00000030: 98dd c33d 4844 20be e5ff 85bd 12e2 3dbd
00000040: 3d1f 85bd 7919 063e 765b 97bb ac63 103d
00000050: b45f d6bd 9cd4 0dbe cb81 77bd e29c 0a3e
00000060: 5e92 30bb e76b 033e f900 633d 9501 1fbe
00000070: f9ee a83d e4fb da3d 5e78 03be 3b16 803d
00000080: baf4 643d 8d60 053e 5999 b1bd b0c9 88be
00000090: 29de b53c f061 1d3d 69e7 19be 4c70 14be
000000a0: c3a5 4e3e 998e 96bd e06f aabd c58d adbc
000000b0: 4a0f dfbc 0992 a1bd 8ecc 46be 53f0 2d3e
000000c0: 83c6 d8bd d95a e03d 0f1b 113c 55e0 40be
000000d0: bdd7 d13d 7cae 033c 7eca b7bd 2722 bebc
000000e0: eee0 d9bc 71fb 67bd 4aba 113e c05b 06be
000000f0: 3da6 fa3c 7e65 fe3d d663 e2bd c0aa 3cbe
00000100: 9d2b 42be 85d6 96bd 8215 29bd 2cb5 0bbe
00000110: 246d 213e bbae af3b d00d d93d e8f4 123e
00000120: f879 2d3e 8249 073e 7970 e63d cc43 063e
00000130: a866 b33d 2f2e 313e cce5 033e 6c71 25bd
00000140: 0bb1 35be 987f b9bd c2e3 edbd c940 8c3d
00000150: 244a 403e bf33 883d d36b 333c 820b 8ebd
00000160: ed18 c3bd 0396 ac3d e018 d83d 4f61 3b3e
00000170: b34f 4b3e 6fb3 5cbe 4ef0 4b3e fa57 15be
00000180: ee06 203e 19fc aabd ac46 4ebe 3151 adbc
00000190: 27b6 313e 1dd9 1b3e a8ee 4dbe 0fb3 293c
000001a0: f9a2 1b3e 1996 3a3d ecd8 acbc 849e 5abd
000001b0: 3705 343d 6208 903d 2189 2f3e bdcc 103e
000001c0: 4265 e0bd d2cc 25be 5295 3abe 38b4 13be
000001d0: 328f aabc 154e 9abd 4a8a a5bd f794 69bc
000001e0: 41c8 a13c 3882 263e 8d41 9dbd 8340 36bd
000001f0: 8b0e 4fbe 55e6 1cbd acb4 553a a9a4 1dbe
-0.03993069 -0.048218258 -0.17852248 -0.06425296 -0.1189982 -0.032413762 0.05044118 0.056124773
-0.14341594 -0.17567089 -0.0118857715 -0.045315664 0.0956375 -0.15651047 -0.06542949 -0.046358176
-0.06500099 0.13095655 -0.0046190573 0.035251305 -0.10467473 -0.13850635 -0.060426515 0.13536409
-0.002694271 0.1283413 0.05542085 -0.15527947 0.082487054 0.106925756 -0.12838885 0.0625424
0.055897452 0.13025112 -0.08671827 -0.26716375 0.02220066 0.03842348 -0.15029682 -0.14495963
0.2018042 -0.07351417 -0.0832212 -0.021185765 -0.02722897 -0.07889182 -0.19413969 0.16986208
-0.10584738 0.10954828 0.008856549 -0.18835576 0.10246227 0.008037206 -0.08974169 -0.023209644
-0.026596513 -0.056636278 0.1423122 -0.13120937 0.030596847 0.12421702 -0.110541984 -0.18424511
-0.1896195 -0.07365135 -0.041280277 -0.1364333 0.1576429 0.0053614057 0.10598338 0.14351237
0.16941059 0.13211635 0.11251921 0.131118 0.087598145 0.17302774 0.1288063 -0.04039137
-0.17743318 -0.0905754 -0.11615707 0.06848294 0.18778282 0.06650495 0.010951 -0.06935789
-0.095262386 0.0842705 0.105516195 0.18298839 0.19854622 -0.21552823 0.19915888 -0.14584342
0.15627643 -0.08348865 -0.20144147 -0.02115688 0.17354642 0.15219541 -0.20110571 0.010357632
0.15198888 0.0455533 -0.02109953 -0.05337383 0.043950286 0.07032849 0.17142154 0.14140601
-0.109568134 -0.16191414 -0.18221024 -0.14424217 -0.020820234 -0.07534424 -0.08083017 -0.014256707
0.019748809 0.16260612 -0.076785184 -0.044495117 -0.20220391 -0.0383056 0.00081522274 -0.15394844

bn1.weight f4 [128]
00000000: fe86 9c3f b73c 0040 18ce 893f db56 483f
00000010: 927b a03f 3d40 c83f f114 6d3f c81f d63f
00000020: 0c42 6d3f 2edc 8d3f 11bf b23f a738 f63f
00000030: 97eb 0040 8b45 9d3f db70 4c3f 3310 de3f
00000040: cf53 4c3f 40a2 ef3f e892 9f3f 7d73 563f
00000050: f14b ae3f 4dc9 a93f 3ff2 2c3f 5327 ad3f
00000060: 27eb 903f 71a0 ab3f 0bb9 993f aad3 ca3f
00000070: 2a0b eb3e 334d a63f c285 493f 5f2f f33f
00000080: 9fab 9c3f c466 8e3f c58b 623f ee2b b53f
00000090: e6ae 973f 6e6f 843f bcbb 823f 5494 1940
000000a0: 5a38 643f 825e a53f fa6d a33f 8700 f43f
000000b0: ed09 993f f9f6 1a3f 665b ba3f 13d9 9a3f
000000c0: 8b60 d33f ac7c af3f 523b 273f 7da6 e23f
000000d0: 774a 493f 53f6 b43f 0f0a 803f 8fff 873f
000000e0: 4ae4 8c3f 5f66 c03f 50ef c63f 9edc 903f
000000f0: d55e 883f b9bd ab3f d8ed 7c3f a659 943f
00000100: 861b ad3f d9e1 e23f 2af8 9d3f de18 b03f
00000110: 5228 3b3f 82f4 3e3f f5b5 c53f b2f4 943f
00000120: 93a3 8f3f 7e1c 803f cf73 d43f 3d28 d03f
00000130: b22d ca3f e4f6 8b3f 1597 b93f 83d5 453f
00000140: 741d 053f 8269 e63f bb81 8d3f 76cb e93f
00000150: f65e fd3f 48c5 9b3f 5fc2 703f 1794 243f
00000160: e3c8 b43f ddb4 813f c784 c13f d06b 663f
00000170: c0f3 9f3f 8e09 a93f 8c0d a83f 544d dd3f
00000180: b784 ae3f f973 853f 0d69 c23f bbac dc3f
00000190: d310 643f f343 8f3f 0d53 d73f 3ec7 af3f
000001a0: 19a6 0f40 2565 0040 d5af 853f 7c11 d63f
000001b0: 54b7 d13f cab7 0440 f922 b93f 3a0a c13f
000001c0: 9c9a bc3f 815a 9e3f d603 ee3f baf8 853f
000001d0: dd6b cb3f 852c d03f 9b11 c23f f2a7 ba3f
000001e0: d44c 683f 2008 ad3f 5bca 893f 5505 f43f
000001f0: 2803 923f 57b9 163f 3b22 893f 8b79 433f
1.2228696 2.0037057 1.076602 0.7825753 1.2537711 1.5644604 0.9261008 1.6728449
0.92678905 1.1082819 1.3964559 1.9236039 2.0143793 1.2286848 0.79859704 1.7348694
0.7981538 1.872139 1.2466707 0.8376997 1.3616925 1.3264557 0.6755714 1.3527626
1.1321763 1.3408338 1.2009596 1.5845845 0.45906955 1.2992309 0.78719723 1.8998832
1.2239875 1.1125112 0.8849452 1.4154031 1.185025 1.0346506 1.0213542 2.3996782
0.89148486 1.2919466 1.2767937 1.9062661 1.1956154 0.605331 1.4559143 1.2097496
1.6513838 1.3709922 0.6532489 1.7707058 0.7862925 1.4137672 1.000307 1.0624865
1.1007168 1.5031241 1.5541782 1.1317327 1.065394 1.3417274 0.9880042 1.1589859
1.3524024 1.7725173 1.2341359 1.3757589 0.731084 0.7459184 1.5446154 1.1637175
1.1221794 1.0008695 1.6597842 1.626228 1.5795195 1.093472 1.4499232 0.7727892
0.51998067 1.8000948 1.1055216 1.8265216 1.9794605 1.216958 0.94046587 0.6428847
1.4123806 1.013332 1.5118645 0.9000826 1.2496262 1.3206041 1.3129134 1.7289224
1.3634251 1.0426017 1.5188309 1.7240213 0.8908817 1.1192611 1.682222 1.3732679
2.2445128 2.0061734 1.0444285 1.6724086 1.6384072 2.0737176 1.4463798 1.5081246
1.4734683 1.237137 1.8594921 1.046653 1.5892292 1.6263586 1.5161623 1.4582503
0.9074223 1.3518105 1.0764879 1.9064127 1.1407213 0.58876556 1.0713571 0.76357335

bn1.bias f4 [128]
00000000: 2d82 823e d700 ca3e addc 06bf afdd 1cbf
00000010: 097d d23e a3d9 18bf 2870 e63e ae5e 30be
00000020: ed84 05bf 6641 1f3f dbc7 77be 0c1a eebe
00000030: 162b 98be 3198 45bf 40af 25bf 0f1a 7cbe
00000040: 9ca4 53bf 6a39 62be 82ea 8e3d 45f4 9b3e
00000050: aa91 d7be 26e8 3bbe 8760 babe c58b 11bf
00000060: 1a4f 18bf 4e1e bebe 7e5b d23e 1b16 b23e
00000070: a6a9 09bf f517 de3e 5d75 c5be 6c40 e43d
00000080: 684f 703e 2338 22bf 53ca be3e e0df 443f
00000090: 98db 613e 99b0 2a3f d27d 753f feda 983e
000000a0: 2a95 963e 475a 893e 8a0a c93e a255 6c3e
000000b0: 4da4 da3e 4d19 ed3e d578 33bf f893 063f
000000c0: cc18 48bf be07 183f 8006 f2be 1453 e73d
000000d0: 9efb 23bf 978e 19bf d3e0 113f f807 2b3d
000000e0: 0395 4bbf 37c7 2f3f 7ac7 203c 4f41 15be
000000f0: 67f5 183f 1486 d63d dd09 6f3f c959 1ebf
00000100: 99c9 44bf 2d8a 213e 292f 293f 81ff c3be
00000110: e8c4 e8be 4ab6 c53e 9bea 5fbe c932 e3be
00000120: b574 003f 0190 c23e 0f79 ef3e a86a 413f
00000130: ca07 05bf 7934 31bf a79f 763e 8668 11bf
00000140: 0756 353d d360 c63e 481a 3a3f bff5 debe
00000150: e8dd 7a3d b536 1b3f 9e13 2fbf bbef 4ebd
00000160: bf3f 6f3d 5535 68bd 460c 8a3d 01eb 47bf
00000170: b2c4 6a3f 35b8 7c3f 5543 30bf f184 41be
00000180: 9a19 443f f300 0d3f e77f 47be 37f4 a93e
00000190: ea7b 8cbe 7429 09bf 5243 d83e 811b a1bd
000001a0: 3624 05bf a498 5dbe 226c 9abc 6cfb 533e
000001b0: 98da 373f c265 68bd 3d49 0cbe 4fcf a3be
000001c0: c149 b4bc 6e74 1bbf cacf 4bbf d1c4 18bf
000001d0: 7cec 82bf 3184 f73e 0967 4e3f 126b 793e
000001e0: 115b 0dbf 507c c73e 6d5b c2be b428 01bf
000001f0: f135 19bf 8aa2 15bf c076 02be 9f41 893e
0.2548994 0.39453766 -0.52680475 -0.6127576 0.4111102 -0.5970709 0.45007443 -0.17223617
-0.52155954 0.62209165 -0.24197333 -0.46504247 -0.29720372 -0.7718535 -0.64720535 -0.24619316
-0.8267305 -0.22092214 0.069783226 0.304598 -0.4210332 -0.18350276 -0.3640177 -0.56853896
-0.594957 -0.37132496 0.41085428 0.3478249 -0.5377449 0.43377653 -0.38566104 0.111451
0.23467791 -0.6336691 0.37263736 0.76904106 0.22056425 0.66675717 0.9589511 0.29854578
0.29410678 0.2682669 0.39265853 0.23079541 0.42703477 0.46308365 -0.7010625 0.5256953
-0.7816284 0.59386814 -0.47270584 0.11295143 -0.6405581 -0.599832 0.5698368 0.041755646
-0.7952425 0.6866335 0.009813184 -0.14575695 0.59749454 0.10474792 0.93374425 -0.6185575
-0.76870114 0.15775366 0.66087586 -0.38280872 -0.45462728 0.38615638 -0.21866839 -0.44374683
0.5017808 0.3800049 0.46772048 0.7555337 -0.5196501 -0.6922069 0.2408434 -0.56800115
0.044271495 0.38745746 0.7269635 -0.43546864 0.061246783 0.6063035 -0.6838931 -0.050521594
0.058410402 -0.056691486 0.06740622 -0.7809296 0.91706383 0.9871858 -0.6885274 -0.1889837
0.76601565 0.55079573 -0.19482385 0.33194134 -0.2743829 -0.5357888 0.4223886 -0.07866574
-0.5200838 -0.21640259 -0.01885039 0.20701379 0.7181792 -0.05673767 -0.13699813 -0.319941
-0.022007825 -0.6072453 -0.79613936 -0.5967532 -1.0228419 0.48343042 0.8062597 0.2435725
-0.5521708 0.3896203 -0.37960377 -0.50452733 -0.59847933 -0.5845114 -0.12740612 0.26807877

bn1.running_mean f4 [128]
00000000: 04b7 0141 4757 843f 308f c4c0 4fe9 0242
00000010: aea8 a5c0 ee33 f13f ea57 0341 7275 56c2
00000020: 10de 1b41 2862 0b42 0309 12bf 8150 56c1
00000030: 5c1b 1ac2 17a4 ecbf c62f b1c1 bf98 4a41
00000040: c495 16c2 66d0 0d40 887a 51c0 5511 2141
00000050: dcfc 2a41 649b f4c1 6b39 6c3e cb6a da41
00000060: 7d82 32bf 8761 3740 ed98 7c41 033f 19c1
00000070: d3ad 36c2 ec08 d541 33fd 7540 5c01 3142
00000080: c63c 2ec0 ebbd a0c1 3d7d 76c1 8e3f 5ac1
00000090: 8489 56c2 6b88 58c2 026c 03c0 0865 b541
000000a0: 5b19 1cc2 c189 7141 7e03 c6c0 a3ae 2241
000000b0: ec6d f541 04a2 3cc1 bf87 b5c1 76ce 41c2
000000c0: d080 2fc2 7e9f c1bf 72a1 d241 6738 86c0
000000d0: ad40 5f41 af3e b5c1 b477 2740 a5d9 6641
000000e0: f3bb 0941 d291 c241 756b 6140 1a23 8e3d
000000f0: dda9 9c3f 6408 0abf 0849 33c2 5cab c841
00000100: b370 6042 a490 293e 6500 b7c1 aebd 09c1
00000110: be2f 0541 2837 0a42 9454 7041 89a5 45c0
00000120: b660 9341 b1fe 29c2 6926 c841 6080 533f
00000130: 1208 ee41 1936 b7c0 0a92 0641 43f7 77c1
00000140: 9a95 b340 9e22 0cc1 550d 86c1 7991 28c1
00000150: 0847 bac0 ffbe a040 e086 f7c1 99ae 8ec1
00000160: e4d3 e740 5a56 55c0 1493 e73f 7259 5241
00000170: 8108 1240 83c0 ca41 64a5 2041 e00c 4e41
00000180: 9185 b23f ea6e 41c1 fdd5 4d41 1998 4c40
00000190: f87d 1ec2 480d 26c1 b6ed 34c0 b794 6541
000001a0: 7607 63c0 ec8e 9dc0 fc65 a641 08f2 ff3f
000001b0: cd18 b6c0 da3e 6040 dc0c dabf 46ce 0141
000001c0: 28b9 3dc0 dc9f 5542 67cd c640 2a8b d3bd
000001d0: 9413 1d42 208d 2842 7c11 e541 344e 3b41
000001e0: 4397 1242 39be 9c3f 92cb 42c2 8f38 fcc1
000001f0: e371 d441 c8bc 0042 a02f 68c2 587f 3141
8.107182 1.0339135 -6.142479 32.72784 -5.176841 1.8843973 8.208963 -53.614693
9.7417145 34.845856 -0.57045 -13.394654 -38.52672 -1.8487576 -22.148327 12.662292
-37.646255 2.2158446 -3.2731037 10.066731 10.686733 -30.575874 0.23068778 27.302145
-0.6973036 2.8653276 15.787335 -9.577884 -45.66975 26.629356 3.843579 44.251328
-2.7224593 -20.092733 -15.405576 -13.640516 -53.634293 -54.13322 -2.0534673 22.674332
-39.02476 15.096131 -6.1879263 10.167636 30.678673 -11.789555 -22.691282 -48.451622
-43.875793 -1.5126798 26.32883 -4.194385 13.95329 -22.655607 2.616681 14.428136
8.608386 24.321201 3.5221837 0.06940289 1.2239338 -0.53919053 -44.82132 25.083672
56.110058 0.16559082 -22.875193 -8.6088085 8.324156 34.553864 15.020649 -3.0882285
18.422222 -42.498722 25.018755 0.8261776 29.75394 -5.7253537 8.410654 -15.497867
5.612012 -8.758451 -16.75651 -10.535516 -5.821171 5.023315 -30.940857 -17.835253
7.2446156 -3.3333955 1.809176 13.146837 2.281769 25.344 10.040379 12.878143
1.3947011 -12.089579 12.864743 3.1967833 -39.623016 -10.3782425 -2.8270087 14.348807
-3.5473304 -4.9236965 20.799797 1.9995737 -5.6905274 3.5038362 -1.7035174 8.11286
-2.964426 53.406113 6.2125735 -0.10329278 39.26912 42.137817 28.633537 11.706593
36.647717 1.2245551 -48.6988 -31.527617 26.555609 32.184357 -58.04651 11.09359

bn1.running_var f4 [128]
00000000: 2b2c 4141 074e 5c3f c72b cc41 8f70 9442
00000010: 48b4 aa40 9f85 8040 197a 0841 9b9d 8042
00000020: f94b 1d42 ad06 d241 3fab 513f 5fff 5c40
00000030: 999a c442 fdaf 4440 2bfb 1643 1610 0e40
00000040: 80c4 9542 0629 5d41 7a86 7741 1346 da42
00000050: dc37 e740 ab3f b742 7ecd f642 2468 8f42
00000060: 4587 9f41 80e3 0f3f 33fc 5242 03d9 8340
00000070: 6e4f 0c43 cb3a b941 2f49 e542 cde3 4842
00000080: c1a1 4b3e 778b 9c41 2c79 a842 3d95 9a40
00000090: 740c 9442 2cff 0243 5631 2e3f d78e 3641
000000a0: a2ff d442 349a 1042 f1c6 8a3f bc93 2141
000000b0: 56b5 ee42 fd92 5f41 617f 1142 94fe 9842
000000c0: 43b7 1142 c3f3 ba40 ba3f 7442 2e47 0340
000000d0: 5977 6942 c95e 9841 7e9f 963f 2dda e541
000000e0: 063a db41 4c6d bc42 166a 2341 0169 8142
000000f0: f768 ce41 043b 2a3e 7bba ad42 3a86 7941
00000100: 0492 ab42 b6ab 8f3e 886a 5141 14a6 c841
00000110: 1637 f142 cbfd d642 d472 1e40 36c0 d740
00000120: 6ca8 bb41 fa5e 6642 76aa 1442 835a 0c3e
00000130: 3bd1 4d41 2cab 8942 a29f d841 3ece 7242
00000140: 4c63 1442 eeb9 7a40 61af 6941 b5d0 a741
00000150: bbda c240 a685 0e41 0c7d 2c42 91a2 1543
00000160: 0e4c bc40 99c9 3740 1c37 fb3f 842f fe42
00000170: f32e 0341 3025 3542 d91a 0641 52c4 0b41
00000180: f630 123f 1478 4741 2cd4 5f40 42a9 433f
00000190: 7461 4f43 485f bc40 d25e f33e 2ea5 c941
000001a0: 589b d83f 6a02 d240 24be 1b42 86f3 9f3e
000001b0: 4739 6d3f 28e8 fb3f 4c1a 6e3f 5dfa f13f
000001c0: c716 b340 637b cc42 794c 6040 3c29 2b42
000001d0: 3765 2d42 c866 d142 f7b4 3142 addd 9141
000001e0: e2f4 2443 4e10 bc40 c556 fe42 15cb fc41
000001f0: 424b 1342 4ee7 bf42 2879 cf42 4172 b241
12.073283 0.8605656 25.521376 74.21984 5.334507 4.016311 8.529809 64.30782
39.324192 26.25326 0.81901926 3.4530866 98.30195 3.0732415 150.98112 2.2197318
74.88379 13.8225155 15.470331 109.13686 7.225569 91.62435 123.40135 71.7034
19.94105 0.5620651 52.74629 4.1202407 140.31027 23.153708 114.64294 50.22246
0.19885923 19.568098 84.236664 4.8307176 74.02432 130.99677 0.6804403 11.409873
106.49928 36.15059 1.0841962 10.098568 119.35417 13.973386 36.374393 76.49722
36.428967 5.842256 61.062233 2.0512195 58.36655 19.046282 1.1767423 28.731531
27.403332 94.21347 10.2134 64.705086 25.801252 0.16624075 86.86422 15.59527
85.78519 0.28060693 13.088509 25.081093 120.60759 107.49569 2.4757586 6.7422132
23.457237 57.59275 37.166466 0.13706402 12.863582 68.83432 27.077946 60.70141
37.09697 3.9175982 14.605317 20.976908 6.0892005 8.907629 43.122116 149.63503
5.884284 2.8716795 1.9626193 127.092804 8.198962 45.286316 8.381555 8.73543
0.5710596 12.466816 3.497325 0.7643014 207.38068 5.886631 0.4753328 25.205654
1.6922407 6.5627947 38.935684 0.3124048 0.92665523 1.9680223 0.93008876 1.890453
5.5965304 102.24099 3.5046675 42.790268 43.348843 104.700745 44.426723 18.23324
164.95657 5.8769903 127.16947 31.599161 36.823494 95.95177 103.73663 22.305788

fc2.weight f4 [64, 128]
00000000: 33b6 143c 2937 2d3e d008 cebd a9dd 21be
00000010: c9d1 163e ab16 02be 4fa1 ebbb 4dfe 6b3c
00000020: e951 14be 40ad 203c 1065 89bd 0060 303d
00000030: e72c 0bbc e320 c9bd 8a1e 6a3d 8ac0 03bd
00000040: 0f5a c4bd ba43 04bd 8585 3d3d 6906 50bd
00000050: daec e8bc f1c9 583d 3595 b4bd cde0 48bd
00000060: f9f0 55bd d6b8 063d e2c4 bb3d f906 e93d
00000070: 8bbb 02be e8de 3dbd 6eca c33c 67c2 b23d
00000080: db4f 19bc 3caa 2abe 4232 17bd c7d0 073b
00000090: fbc0 e3bc cbe9 ca3d 4b41 883e 02ec db3d
000000a0: 733c 9abb cead da3d 265e 193e c621 bf3d
000000b0: 356d 6b3c 8277 393d 0fb7 2ebe ae6b 813c
000000c0: 09ab 74be 6a99 273d f6d9 37bc dcee 67be
000000d0: 7848 2fbd a8fa 28bd 85cb 393e 5fcb 1c3d
000000e0: ece0 80bd d74f 0f3e db30 a63d e33d 363b
000000f0: bdbf 173e 9c3d 7cbe 8beb 1b3e 24e5 e9bd
00000100: 4b46 6cbe 37cd 8e3e a134 cb3d b7c2 f0bc
00000110: a135 803b 73a3 42bd 93c9 fe3d dc69 993b
00000120: 52ca 383d 88bb d23d cc84 9bbc 96c2 453d
00000130: 6c81 42be 85be c03c 256d 0a3d 36c1 04be
00000140: 684c 07bd cb21 a8bd 6683 843e b2f0 bfbd
00000150: f305 89bc 3510 20bc b38b 8ebc 0ce4 f13c
00000160: a011 cabc 7197 d53d 52b0 c63d aaad 533b
00000170: 82e6 183e 56e7 1f3e f468 57be 9549 4dbe
00000180: 87a0 9f3c a944 0c3e 0756 2c3e 4a1b 81bc
00000190: 56a1 c4bd 6cc1 3fbe 982b 243e 6014 3cbd
000001a0: 6875 dabc 66bd efbd 0cbe 193b 28f6 4bbe
000001b0: 9026 12bd 0dd2 2f3e d2f2 203e fc1a 263d
000001c0: 0a2c 78bd f24a 37be 2480 27bc d038 4dbe
000001d0: fcf5 20be 2770 aabd 5d19 433c ecf3 37bd
000001e0: e742 b83b 6ae5 463e f080 f03a d066 fb3b
000001f0: 5fa2 d0bd 67bc ecbd c090 213d 9e75 ca3d
00000200: 4d60 c43c 84a4 a13d 7aed 913d 1aa2 ccbc
00000210: bb07 e93d 870a 7f3d 1215 c9bd 33e4 46bd
00000220: 0ec0 91bd 9c74 86bd 2279 1fbd c084 243e
00000230: 049e 97be 3056 80bd 1135 2f3d ae2f 18be
00000240: 3315 873d 9595 22bd e9b4 bbbc beb8 9c3d
00000250: 1fc8 8abd 9f0e adbd c5f7 46bc 4838 a03c
00000260: 5cb9 19bd c564 353d 4d9c a1bc cea1 c33d
00000270: e7c7 39bc 2698 d2bd 410d 45bd b484 ac3c
00000280: 8688 06be 23bc febc d978 933d bb3f 373e
00000290: 911b d2bd 4479 c63c cf48 423e d0c0 eb3d
000002a0: 6a82 b7bd 9bc3 bdbc 60af e73d 0c90 dfbc
000002b0: be22 ea3b 3edb 843d 09a0 32be 1507 593d
000002c0: 7287 bfbc b62d 92bd 9648 183d 1fa7 acbd
000002d0: 8e61 9938 9433 1ebe 3335 113e 12f2 f6bc
000002e0: c4fd 2ebd ddee f33b 9047 9e3d 6678 f23d
000002f0: 0259 b13d 9278 febd 0009 5f3e bae5 ee3c
00000300: 7558 e4bb ece8 363e f46f bdbc e9ed 06be
00000310: 8fb8 f7ba afd3 acbd 998a 46bd f9c0 3f3d
00000320: a7de f6bb 47e0 75bd c65d ddbb 6fd7 e43e
00000330: 7848 e23b b95e f63b 91ab d8bb 64e4 b03c
00000340: 5f20 aebc 0c79 63bb 0918 c6ba 5b95 293e
00000350: 14ba b8bd f60e 373c 66b7 083d 426e 843d
00000360: 6430 533e 211c c83d 5eb6 f1bb 527f c3bd
00000370: ede1 193c f0e9 09bd f112 14bd 19dd b1bd
00000380: 66f0 1c3e 4e7a b73d 3482 0abb df94 173d
00000390: 6bf1 3ebd 3e9a 103d 55b5 19be a1f3 533d
000003a0: 7940 f0bd 5f48 a6be 22f0 c2bd 4d9d 4c3d
000003b0: b04d a43b e5da 823e a90a 23bb 5c8b 91bd
000003c0: 158c 7cbd 577e 43bd 027a c83c e7c2 0f3c
000003d0: c2a8 643e b17a 043e fa4a 123d a95e 223e
000003e0: 43e9 29be 8e5d a63d 79cb 9ebd f6eb c13d
000003f0: 89ab 8dbc f35d 8b3c 65ae 05bd 05ce 02bc
0.009076643 0.16915573 -0.100602746 -0.15807213 0.14728464 -0.1270396 -0.0071908603 0.014403892
-0.14484371 0.009806931 -0.06708729 0.043060303 -0.008494592 -0.09820726 0.05715803 -0.03216604
-0.0958749 -0.03229115 0.046269912 -0.050787363 -0.028433252 0.05292696 -0.088175215 -0.04904251
-0.052231763 0.032891117 0.09168412 0.11378283 -0.12766854 -0.046355158 0.023900237 0.087284856
-0.009357418 -0.16666502 -0.036913164 0.0020723806 -0.027801981 0.09907874 0.26612315 0.10738374
-0.004706913 0.10677682 0.14977321 0.09332614 0.014369299 0.045279987 -0.17062019 0.015798416
-0.2389337 0.04091779 -0.0112213995 -0.22649711 -0.04279372 -0.04125467 0.18144043 0.038279887
-0.062929004 0.139953 0.08114787 0.0027807883 0.14819236 -0.24632877 0.15226571 -0.11420658
-0.2307369 0.27890942 0.099221475 -0.029389722 0.003912643 -0.04751916 0.12440791 0.004681809
0.045114823 0.10289675 -0.01898422 0.048281275 -0.18994683 0.023528347 0.033795495 -0.12964329
-0.03303185 -0.082095705 0.258815 -0.09372081 -0.01672647 -0.009769489 -0.017400598 0.029527687
-0.024666607 0.10429276 0.09701599 0.0032299557 0.14931682 0.15615591 -0.2103613 -0.200476
0.019485725 0.13698067 0.16829692 -0.015760083 -0.09601085 -0.18726128 0.16032255 -0.04591787
-0.026667312 -0.11706047 0.0023459224 -0.1991812 -0.035681307 0.17169972 0.15717629 0.040553078
-0.060588874 -0.17899683 -0.010223422 -0.20041203 -0.15718836 -0.083221726 0.011907903 -0.044910356
0.0056232098 0.19423452 0.0018348973 0.0076721683 -0.1018722 -0.115593724 0.039444685 0.09885715
0.023971701 0.07892707 0.07125373 -0.02497964 0.113784276 0.0622659 -0.09818472 -0.04855747
-0.0711671 -0.0656521 -0.03893388 0.16066265 -0.29612744 -0.06266439 0.042775217 -0.14861938
0.0659584 -0.039693434 -0.022913413 0.07652424 -0.06776451 -0.084500544 -0.012144034 0.019558087
-0.037530288 0.044285554 -0.01972785 0.09552346 -0.011339164 -0.10282926 -0.048108343 0.021059372
-0.13138017 -0.03109557 0.07200784 0.17895405 -0.10259164 0.024227746 0.18973087 0.115113854
-0.089604214 -0.023164561 0.11312747 -0.027290367 0.007145255 0.0648713 -0.17443861 0.05298527
-0.023380015 -0.07137625 0.0371786 -0.08430313 7.3137795e-05 -0.15449363 0.1418045 -0.030144725
-0.04272248 0.007444246 0.07728493 0.118393704 0.08659555 -0.12425341 0.21780777 0.029162277
-0.0069685527 0.1786229 -0.023124672 -0.13176693 -0.0018899607 -0.08438813 -0.04847202 0.046814892
-0.0075338664 -0.06002834 -0.0067555634 0.44695613 0.0069056116 0.007518616 -0.006612249 0.02159328
-0.02125567 -0.00347096 -0.0015113364 0.16560881 -0.090198666 0.011173001 0.033378027 0.064663425
0.20623928 0.0977099 -0.007376476 -0.09545769 0.009392244 -0.033670366 -0.036150876 -0.08684749
0.1532608 0.08958875 -0.0021134736 0.03700721 -0.046616953 0.035303347 -0.15010579 0.051746015
-0.11731047 -0.3247709 -0.09518458 0.0499547 0.005014144 0.25557628 -0.002487818 -0.07106659
-0.06165703 -0.04772791 0.02447224 0.008774496 0.22330001 0.12937428 0.035716034 0.15856422
-0.16592889 0.08123313 -0.07753653 0.09468834 -0.017293708 0.017012572 -0.03263702 -0.007983689

fc2.bias f4 [64]
00000000: 9c07 81bd 9de7 debd e8dc 06bd 76f9 8ebb
00000010: fa68 00bd 2fa2 7dbd b90b 3abd 204b 9ebb
00000020: 8f81 1bbd 2c3e 6abd 218e 953c 2051 f83c
00000030: cc2e e5bc 6011 5cbc 7013 4f3d d827 af3d
00000040: 9dcc 26bd ab09 14bc 9d77 883c dadc 21bd
00000050: 1689 48bc 8683 b43d dbc2 9d3d 1fb6 05bd
00000060: fc00 dfbc dec5 b13d f3d4 7a3d 311e ecbd
00000070: 53c7 493d 1718 b5bd 9ed6 973d d89a c13c
00000080: dabb 4c3d e546 343d a042 463d 98df c1bc
00000090: 2137 57bb 2188 a73d 3580 e53c 4ad5 44bc
000000a0: ad97 c03c 3ae4 773d 3f41 983d 7f45 13bd
000000b0: e093 8bbd 9fb2 a33c 853d 1cbc 1afe 2d3d
000000c0: 54a0 88bc d4a0 853d c674 35bd c955 593d
000000d0: 1077 a6bd 1d3c 6e3c bd0c 13bd 35ed 463b
000000e0: 5223 f03c e9eb 7f3d 08ff 71bd c1bd 0bbc
000000f0: 0ae6 933d 54ca 0c3e 7d0b 82bd a898 66bc
-0.063002795 -0.108840205 -0.032925516 -0.004363234 -0.031350113 -0.06192225 -0.045421336 -0.004830733
-0.037965354 -0.057188198 0.018256249 0.03031212 -0.027976416 -0.013431877 0.050555646 0.085525215
-0.04072248 -0.009035508 0.016658599 -0.03951726 -0.012239715 0.088141486 0.07703181 -0.032644387
-0.02722215 0.08680318 0.06123824 -0.11529196 0.049262356 -0.088424854 0.07413982 0.023633406
0.049983837 0.044012923 0.048403382 -0.023666188 -0.0032839256 0.081802614 0.028015235 -0.012013743
0.023509825 0.06052039 0.0743432 -0.03595495 -0.06815314 0.019982634 -0.009536152 0.04247866
-0.016678013 0.06524816 -0.044300817 0.053060327 -0.08128178 0.014540699 -0.03590082 0.0030353789
0.029313717 0.06248084 -0.059081107 -0.008529128 0.07221611 0.13749057 -0.063498475 -0.014074482

bn2.weight f4 [64]
00000000: 3f31 0f40 1a0c 0440 4064 0040 9149 2340
00000010: ce5a 4940 d333 2540 e276 4e40 4df6 1e40
00000020: 3d90 2540 cb99 4340 bff5 3440 21d5 1840
00000030: 6113 2a40 34d8 0f40 0767 6240 9b14 2c40
00000040: 34e9 1040 3366 5840 36ac 0840 8d25 4140
00000050: e5a1 3840 e814 4340 5d9f 3a40 847e 1840
00000060: 27aa 2640 8769 1740 c1a5 1740 cde3 1640
00000070: 6b5b 1f40 102a 2140 2ef5 2940 1757 3940
00000080: 66c7 2040 f253 5240 dd81 2740 aeb1 0640
00000090: c9cf 3b40 b0e3 3640 5909 6140 8360 3a40
000000a0: db6d 4740 2f3e 3640 4a23 3040 2087 ea3f
000000b0: c3e2 2f40 ecc6 3040 7810 d83f f68a 1b40
000000c0: b4aa 1d40 de60 2240 7352 4740 2cd9 0b40
000000d0: ab94 3140 9124 2d40 5b61 1140 6358 2340
000000e0: 1ddd 5640 f78e 1240 cb16 2e40 0b2f 4c40
000000f0: a5ae 3240 c3c3 2040 f46f 2740 819c 0140
2.2373807 2.0632386 2.0061188 2.5513651 3.1461673 2.581288 3.226006 2.483783
2.5869286 3.0562618 2.8274992 2.3880084 2.6574328 2.247571 3.5375383 2.6887577
2.2642336 3.3812377 2.135511 3.017917 2.8848813 3.048151 2.9159768 2.382722
2.6041353 2.3658159 2.3694918 2.3576539 2.4899547 2.5181923 2.6555896 2.8959405
2.5121703 3.2863736 2.6173012 2.1045947 2.9345572 2.857647 3.5161955 2.9121406
3.11608 2.8475454 2.7521539 1.8322487 2.7482154 2.7621412 1.6880026 2.4303565
2.463544 2.5371623 3.1144073 2.1851301 2.774699 2.7053568 2.271567 2.5522697
3.3572457 2.289976 2.7201412 3.1903713 2.7919095 2.5119483 2.616208 2.0251772

bn2.bias f4 [64]
00000000: 56c6 bc3e 16a3 19bf 02a1 483c ff72 123f
00000010: 365f 243b db51 c33e 12cc 90be da38 fdbe
00000020: aebe 563c 2ef3 05bf dc1c 89bc 6da1 f8bc
00000030: 7889 4b3e adf0 7d3d f82d f7be 0c9c 02bf
00000040: d920 8bbe a58f 2dbf a89d 46bf 5bb0 9cbd
00000050: 318a 013e 792a 26be c0c5 1bbe 66c1 1dbf
00000060: 84f4 f83e 88e1 143e 8725 3dbe 71d5 12be
00000070: 6fc3 bc3e 2d61 86be 4e6b e8bd 241a 9dbe
00000080: 772f 83bd 4316 8abe 3f05 40be ca97 2fbf
00000090: 21e3 be3e 6e5f 523e 29c1 f03e 8968 063f
000000a0: b88b 84be 59b7 aabe 7521 13bf 2c5c 6d3e
000000b0: fa16 803d 2ba1 c5bc ab90 e7be 4567 aa3e
000000c0: 73ff 10be ad52 7e3d 334c e7bd f3b3 733e
000000d0: 0904 3d3c 0eaf c8be 7a6b 19be baca 243d
000000e0: 78b0 183f d853 b4be 22d3 57bd fee6 c73e
000000f0: b7df adbe 582d 7dbe 479d 673e 7a49 b5bd
0.36870068 -0.60014474 0.0122454185 0.5720672 0.0025081164 0.38148388 -0.28280693 -0.49457437
0.013106985 -0.5232419 -0.016737394 -0.030350411 0.19876659 0.061997104 -0.4827726 -0.5101936
-0.27173498 -0.6779731 -0.77584314 -0.07650825 0.12650372 -0.1622714 -0.15212154 -0.6162323
0.4862405 0.14539158 -0.18471347 -0.14339234 0.36867854 -0.26246014 -0.11348592 -0.30684006
-0.064055376 -0.2697011 -0.18752001 -0.68590987 0.3728266 0.20544216 0.4702237 0.5250326
-0.25887847 -0.33343008 -0.57472926 0.23179692 0.062543824 -0.024124702 -0.4522756 0.33281913
-0.14159946 0.062090565 -0.11293831 0.23799114 0.011536607 -0.39196056 -0.14982405 0.040232398
0.5964427 -0.35220218 -0.052691586 0.3904342 -0.33959743 -0.24724329 0.2261859 -0.08851905

bn2.running_mean f4 [64]
00000000: 1dc6 0c40 823b 3b3f b54c a6be 2b1a 80bf
00000010: ca91 9a3f ed05 c3bf f6f4 bd3c 4b1f 0e3f
00000020: 7fce 903f 6b57 793e 3a40 84be 4201 843f
00000030: 122c c33d 1310 c7be 196b 2f3e 19ff 80bc
00000040: 19cd 973d bb36 efbf ebbc 22bf a545 593d
00000050: f8fe 123f 7c27 4fbe a9c4 993f b51a 78bf
00000060: 49c8 4e3f 246f 803f 7892 2c3f 3993 73bf
00000070: a0fb 4d3f 1ca7 923e 728a 0f3f 9077 3b3f
00000080: a833 76bf 9fb5 bcbe f9b5 afbe d9fc 903e
00000090: f30e 00bf cf27 883f 923e 873e b645 733f
000000a0: 84e5 45bf 5ea9 3f3f 1131 cdbe d859 5ebe
000000b0: 4ea5 0a3f ea68 8f3f 5f23 3f3f 12ed 3c3f
000000c0: d05a a9bf cf6a 25bf bca2 c9be 602a 663e
000000d0: 72b3 4c3f d8e3 99bf f335 023e b21d 95be
000000e0: 6bae e73f ba20 943e 1462 a93f d5bc 8abe
000000f0: eeb4 40bf a341 87bf a34c 573f 90b8 6d3f
2.1995919 0.73137677 -0.32480398 -1.0007986 1.2075741 -1.5236183 0.023188096 0.555165
1.1313018 0.24349754 -0.2583025 1.0312884 0.0952989 -0.3887945 0.17130698 -0.01574664
0.07412166 -1.8688577 -0.63569516 0.053044934 0.574203 -0.20229906 1.2013141 -0.9691575
0.8077436 1.0033917 0.67410994 -0.9514652 0.80462074 0.2864312 0.56070626 0.7322931
-0.9617257 -0.36857316 -0.34318522 0.28317907 -0.5002281 1.0637149 0.26414925 0.95028245
-0.7730334 0.7486781 -0.40076497 -0.2171396 0.54158485 1.1203892 0.74663347 0.7379924
-1.3230839 -0.646161 -0.3938197 0.22477102 0.7996131 -1.2022657 0.12715892 -0.29124218
1.8100103 0.28931218 1.3233056 -0.27097192 -0.75276077 -1.0566906 0.84101313 0.92859745

bn2.running_var f4 [64]
00000000: 2ea6 ba3e d9dc 663e ec45 763e ae58 ea3e
00000010: 3331 2b3f d6a7 ef3e 2648 003f f5b3 ad3e
00000020: 6063 bf3e 8f0b c33e e1da 9d3f 22f3 083f
00000030: c580 143f d8ad 0a3e 8976 673f efe9 853e
00000040: be61 db3e f744 543f db86 ae3e 0e2d a73e
00000050: fe02 5e3e 39d2 973e 53b9 003f b426 8b3e
00000060: d0c7 b83e e73d 2d3f f5c5 a53f 2d82 9b3e
00000070: c980 8a3e 27ee c63e d288 1a3f 76a7 c23e
00000080: 1778 733e 50ef ac3e f664 fb3e 6cc0 b73f
00000090: 871d a73e b571 9c3e 1b0a 2e3f c615 b83e
000000a0: 75c4 f73e 2064 3f3f 5aaa 283f 900e 9d3e
000000b0: 17be 223f 8164 e33e 47b9 c43f fa34 863f
000000c0: d66f da3e c2d7 e63e 15fe 243f 366a 7b3e
000000d0: f0ba d83e 3c16 233f 9d26 2b40 43e3 be3e
000000e0: 89c0 233f 79f8 ea3e 67fb 5c3f 933d 563f
000000f0: 19fc c23e 0f35 b23e 996a d43e b585 d73e
0.3645491 0.22545184 0.2405011 0.45770782 0.6687195 0.46807736 0.5011009 0.3392636
0.37380505 0.38094756 1.2332422 0.5349599 0.58008987 0.13542879 0.90415245 0.2615504
0.4284801 0.8291773 0.34087262 0.32651561 0.21680829 0.29652575 0.5028278 0.27177966
0.36089945 0.6767258 1.2951037 0.30372754 0.2705138 0.3885357 0.6036502 0.38018388
0.2377628 0.3377633 0.49100465 1.4355597 0.32639715 0.30555502 0.6798417 0.35954112
0.48392072 0.74762154 0.65884936 0.30675173 0.63571304 0.44412616 1.5369042 1.0484917
0.4266345 0.45086485 0.644502 0.24552235 0.42330122 0.637058 2.6742318 0.37282762
0.6396566 0.45892695 0.8632111 0.83687705 0.3808296 0.34806105 0.41487578 0.42094198

fc3.weight f4 [10, 64]
00000000: ec51 2a3f 29da 303f a0f9 2abf 7280 053f
00000010: 5cd5 aebe cb45 9abe 565d a1bd d4b7 783e
00000020: 3ca5 2a3f e2cd 11be 4c09 8f3e 0d2f a63e
00000030: e98d 09bf 0305 17bf 0a3b 1c3f 244f a93c
00000040: 07bb 23bf 8cb0 853d e9c6 e9bd 8a21 e1be
00000050: a5b9 b5be 24ab b73e e1ff 073f fca5 9bbe
00000060: eed7 7d3e ca28 19be 369f e53e 9a68 913e
00000070: 2817 b33e 0b59 223e 5e6e 8e3e 105c 7d3f
00000080: c6ca 54be 0cc9 d83e b4e9 8ebe e57f bcbe
00000090: 20e6 083d 6487 873e d1fa a23d e30c 7a3e
000000a0: b309 373d a1f2 f23c e2d5 243d 506a 15be
000000b0: 2378 273e 7502 2a3f 2a90 0d3f 5586 bdbe
000000c0: 4461 0cbf a5a7 13bf cc9e 9cbe 9226 f13e
000000d0: c6b7 1c3f 4b4f 5dbe 3aab aabe 3cb2 25bf
000000e0: b6b0 e13e 5a09 2a3f 0980 a6be 3105 dc3d
000000f0: e79c 84be 8ce6 1abf 0207 9a3e 64d1 d4bd
00000100: d807 48bf 2d12 46bf 5b21 1b3f 0344 bc3e
00000110: 1f6d b7be 2be5 523e bf29 93be 45cc 23bf
00000120: 1b4c d8be 4c5c 1dbf 5871 0d3f 70fb a7be
00000130: 0f63 0a3e 609e 833e c7a1 24bf 3f9f 62bf
00000140: 2cac 8bbe 09c8 45bf 6447 0bbf de63 b2be
00000150: 8d15 1a3e e153 04bf 6158 bd3e ca5f cebe
00000160: 2418 173f 8169 dcbe b748 94be cb1f b1bd
00000170: 745d 1a3f 7e40 f5be 429e 4d3c b0b5 fabe
00000180: 6e87 123f bb9d 123c 41ae 603e 683a 1cbf
00000190: e0f6 d0bd e3e3 84be 5f54 f13e 77b7 0a3e
000001a0: fcf0 173f be73 39bf f749 16bf 5dc4 c3be
000001b0: 2661 44be ab36 1d3e 661b 36bf a691 073f
000001c0: 92ec f9bd 6c22 39be cd5b 483f 3e80 af3e
000001d0: 48c6 7d3e 5658 e7be fcf5 5abe 2c0e cc3d
000001e0: 2c88 a6be 5ff6 03bf 5ca2 d83e ab58 053f
000001f0: 12bc af3e 89d3 f5bd d1cf 15bf f03e c3be
00000200: 7873 a7bd d93f d23d 9800 cbbe 91c0 94be
00000210: 4834 633e 4ce4 003f 0738 31bf ff8d 49ba
00000220: ca2a 98be f422 0dbe adc4 f43e dcb6 f03e
00000230: 39d5 423f 369e 96be a24e 34bf 93c3 98bb
00000240: 8117 903e 8fbb 8fbe d4a6 03bf b5bf 353f
00000250: e053 273f e5a1 e73e 665a 20bf b855 a3be
00000260: 8213 5d3e 5914 dbbd 0da4 fabe 9d67 bbbe
00000270: 1607 3bbe 1040 ee3d 8ca2 88be 441e 91bd
00000280: bf76 f7be d05a 12bf c6c7 febe e360 54be
00000290: 46f5 303f d0ed 1c3f 2b3d a43e 91ca 3b3f
000002a0: f830 bd3e 5927 3f3f 9ffd ee3d e6d9 fc3e
000002b0: b63d 063f 8468 373d 9701 c33e a9cd d63e
000002c0: 7ebe 543e a084 7fbe 2ed3 bcbe 898a 2c3e
000002d0: a4a0 af3d 70d6 253e 82db eb3e a1b9 003f
000002e0: 3e0b bebd 05d7 0bbf 4728 f1bc 2c46 bbbd
000002f0: 7930 05bf a428 c63e ca13 ac3e b520 dabe
00000300: f746 bb3e 3e81 52be 23b1 073f 5e3a 1cbd
00000310: 1943 493f 436d 8cbe d672 f9be 94a4 8c3f
00000320: aa66 05bf 3e7a 493f a786 80be 1cbc 0abf
00000330: b09c 3f3f b4e5 633f d35a 713c fffa 9cbe
00000340: 23fb b13e 9358 b43e b98c 663f e232 46be
00000350: 96bc f4bd 3d60 6e3f 7e6c 3a3f f419 02bf
00000360: dc9a adbe 5d20 66bd 68dd 213e 2018 493f
00000370: 2cfd 2cbf c250 d5be 8990 ba3e d9ec 25be
00000380: 18ab b3be 46a4 0d3f 7a23 b2be da07 043f
00000390: 294a dfbe fd73 6fbf 3981 d0be 0c58 8ebf
000003a0: 987e 9bbf 5040 843e c9cd 933f c55e 6dbe
000003b0: e542 2fbf 3875 8cbe ff14 ac3e 673f 18bf
000003c0: 3030 e33e daa3 353f 6f37 543f a413 91be
000003d0: babb 083f 6e4e 203f f959 02bf 5109 03bf
000003e0: 331a 77bf a6d4 51be d483 32bf 7600 b2bf
000003f0: 9c32 063e e825 b73d 6401 49be 64bf ed3e
0.6653125 0.69082886 -0.6678715 0.52149117 -0.34147155 -0.30131373 -0.078791305 0.24288875
0.6665838 -0.14238694 0.2793678 0.32457772 -0.5373216 -0.5899202 0.61027586 0.02066762
-0.63957256 0.06527814 -0.11414892 -0.439709 -0.35493198 0.35872757 0.53124815 -0.30400074
0.24789402 -0.14956966 0.4484803 0.28400117 0.34978604 0.1585428 0.27818578 0.989686
-0.20780477 0.42340887 -0.27912676 -0.36816326 0.03342259 0.26470482 0.07957996 0.24418978
0.044686984 0.02965671 0.040243037 -0.14591336 0.16354422 0.6641 0.552981 -0.3701655
-0.54835916 -0.5767768 -0.30589902 0.4709974 0.61217916 -0.21612279 -0.3333376 -0.6472509
0.44080132 0.6642052 -0.32519558 0.10743178 -0.25900957 -0.60508037 0.30083472 -0.103915006
-0.7813697 -0.77371484 0.6059777 0.3677064 -0.3582544 0.20595233 -0.28742787 -0.63983566
-0.42245564 -0.6146896 0.55251074 -0.3280902 0.1351435 0.25706768 -0.6430935 -0.8852424
-0.27279794 -0.77258354 -0.5440581 -0.34841818 0.15047283 -0.5169049 0.3698149 -0.40307456
0.5902121 -0.43049243 -0.28961727 -0.08648642 0.6029885 -0.47900766 0.012549939 -0.48966742
0.572379 0.008948739 0.21941473 -0.6102662 -0.10203338 -0.25955114 0.47134683 0.13546549
0.5935209 -0.72442234 -0.5870661 -0.3823575 -0.19177684 0.15352885 -0.71135557 0.52956617
-0.12203325 -0.18079537 0.78265077 0.3427753 0.2478267 -0.45184582 -0.21382898 0.099636406
-0.32525766 -0.5154781 0.4231137 0.5208842 0.34323174 -0.12003238 -0.5852023 -0.38133955
-0.08176321 0.10266084 -0.3964889 -0.29053167 0.22187912 0.50348353 -0.69226116 -0.00076887006
-0.29720145 -0.13782865 0.47806302 0.4701451 0.761066 -0.2941758 -0.70432484 -0.004661986
0.28142932 -0.28072783 -0.51426435 0.70995647 0.6536236 0.45240703 -0.6263794 -0.31901336
0.21589473 -0.106972404 -0.48953286 -0.36602488 -0.18264422 0.11633313 -0.26686513 -0.07085851
-0.48332784 -0.5716982 -0.4976179 -0.20740084 0.6912426 0.61300373 0.32077917 0.73355967
0.36951423 0.74669415 0.11669468 0.49384993 0.52437913 0.04477741 0.3808715 0.4195378
0.20775792 -0.24952936 -0.36879867 0.16849722 0.08575562 0.16195083 0.4606591 0.5028325
-0.09279488 -0.5462497 -0.029438151 -0.091442436 -0.5202709 0.3870288 0.33608848 -0.42603078
0.3657758 -0.20557114 0.53004664 -0.0381416 0.7861801 -0.2742711 -0.48720425 1.0987725
-0.5210978 0.7870215 -0.25102732 -0.5419328 0.7484846 0.89022374 0.014731127 -0.30660245
0.34761915 0.35223827 0.90058476 -0.19355348 -0.119500324 0.931156 0.72821796 -0.5082085
-0.3390721 -0.056183208 0.15807116 0.78552437 -0.6757381 -0.41663176 0.36438397 -0.16203631
-0.35091472 0.55328786 -0.3479269 0.5157448 -0.43611267 -0.9353636 -0.4072359 -1.112062
-1.2148008 0.25830317 1.1547176 -0.23180683 -0.6846145 -0.2743318 0.3360977 -0.59471744
0.44372702 0.7095314 0.82897085 -0.28335297 0.5341145 0.62619674 -0.5091854 -0.5118609
-0.9652435 -0.20491275 -0.69732404 -1.3906391 0.13105243 0.08942777 -0.19629437 0.46435082

fc3.bias f4 [10]
00000000: c33f 55bd c62b e83e 1b62 8c3e a2cb 44bf
00000010: a77e 883c 4e89 ddbe d714 b2be d7fc f7be
00000020: 5739 9b3d 2c46 38be
-0.05206276 0.45345896 0.274186 -0.7687322 0.016661955 -0.43268818 -0.34781525 -0.4843509
0.07579296 -0.17995518

exp_avg f4 [128, 26]
00000000: b44c d9ba 44d1 da3b 0e45 7a38 9dfc 2ab7
00000010: 520e aa38 3024 55b7 ddf7 6139 d0f2 d1b8
00000020: 7b18 a4b8 7766 13b8 3c21 06b6 1d67 b237
00000030: b57a 7a38 11be 24b8 2eb9 e7b7 524c 6cb7
00000040: 9e39 3c3a 06ad a0b8 25df e7b4 573d 44b6
00000050: f61c b33a b00c 46b9 582d 0038 7d8e 6ab7
00000060: 6999 63bc b95a b8ba efa6 aebc fa88 f0bd
00000070: b3a6 713a 5530 d539 721c ae3a 399b 143a
00000080: 53fe b0ba 1dc1 ba39 5ee1 ec39 d4f2 9839
00000090: d363 8339 0f58 1f3a b28f 0aba 19e4 57b9
000000a0: a59a 0b39 4108 dbb6 a025 9e3b 5ab8 4f3b
000000b0: b8c5 3638 6a93 8c37 41f0 0abc a42d 813b
000000c0: 83a0 373a a7da d339 d4de 723d 6e73 93bd
000000d0: 3932 b2b7 6791 9f39 f32f 7837 58ef 4336
000000e0: e754 af37 11aa 9b36 9040 9837 0c35 36b7
000000f0: 1766 aab6 bea2 8e36 21d6 d8b6 d408 c5b7
00000100: 0afc 8836 38da 8137 c560 d5b5 8f15 b936
00000110: 1c7c 6f39 53ad 8837 da49 4f36 5bdd 2eb1
00000120: ca8f 8038 9888 efb8 e74f 7937 b6b1 ac36
00000130: fce7 283b 1ace 883a 8511 4c3a 853b e7b9
00000140: 5eb5 54b7 0f18 1db6 7d33 99b7 8d99 80b6
00000150: c090 c2b7 c099 b136 3c31 8637 4243 9f35
00000160: 8f97 4035 e3bd aab6 e2fd d2b6 65ea dd36
00000170: 2620 e936 ab9e 12b6 e78e e5b8 19cd aab7
00000180: 3869 9035 ee46 09b5 9c6f 72b8 91fd 03b8
00000190: 0d4c e7b6 955c 15b6 acc1 4a39 af3a 163b
000001a0: 4f18 e9b9 2639 0b3b d510 97b8 79b6 bbb7
000001b0: cfc9 c6b8 8847 e2b7 b2a9 16b9 d650 aa38
000001c0: 866d 8638 95e5 2a37 393d 46b7 6995 e2b8
000001d0: 1fac 2738 9571 8438 abe7 3737 7bf2 cab6
000001e0: eaed 3fba ceea 3eb9 45f1 2bb7 0a06 26b7
000001f0: 2e32 9eba d6f8 21ba 4282 8eb8 d4b4 7cb7
00000200: d632 053b 29d9 093c df26 bdbb 9c16 9b3b
00000210: a77f 8cb8 b2ab 4db8 3771 beb8 a3bf 90b8
00000220: 4ed1 7a38 5201 b838 be2e 98b8 9e5e 34b8
00000230: 2518 06b8 2439 1db8 438a 5138 361e a337
00000240: 17e8 8ab7 f6d8 80b7 4f2b 00ba 6281 a2b9
00000250: bf1a 4eb7 9af0 06b7 b41a 003b dfa5 b3b9
00000260: b1b6 98b8 cc95 51b8 74bb 163b b632 b83c
00000270: e684 ce3a 2d9c 863b 2c03 9bb8 abf7 ebb7
00000280: c20b d6b8 c01a 26b8 89a9 09b8 39ce 9338
00000290: 54ae 36b7 d4b2 77b7 ea68 49b7 61d5 eab7
000002a0: c9f5 8037 9124 9237 077b ebb6 62d4 1436
000002b0: 4bbb 3cba cbaf 43b9 c628 40b7 b452 e0b5
000002c0: 604d a6b8 7872 b8b7 8129 95b8 9a97 efb7
000002d0: 857c 603b 5c16 1d3c 0c1a 78ba 29a3 b9bb
000002e0: a421 bb38 438a 1d38 b894 0439 d684 5938
000002f0: 0b8e 8b38 43d1 29b8 805c 04b8 8b6e feb6
00000300: a17e 5b37 6ab1 6338 6ff4 acb7 e687 acb7
00000310: a39f 46b7 c566 a9b5 e220 4c3a 5748 8339
00000320: 233a 4b37 d5c6 3936 b1e6 b238 f7c6 7439
00000330: 2da5 a938 0404 1538 773a 02bc a207 8bbc
00000340: efb7 21ba f385 863a b33d f6b7 180a 76b7
00000350: d348 2cb8 ce6b b1b7 9f56 6937 6896 5537
00000360: 3d8e 9cb7 68c9 25b5 e3e7 f6b6 de92 23b8
00000370: 81b8 7c37 2b15 8b37 ee09 ad36 168f 1336
00000380: f3c6 5eb9 1ec3 00b9 80a0 c2b6 9789 8634
00000390: cbb7 b439 6765 37b9 c396 e5b7 c138 74b7
000003a0: a2e0 9839 672c c63b d855 f437 8d36 c339
000003b0: 036b a437 dfec 0137 ead2 f137 93ae 1e37
000003c0: bf78 7437 f44d cdb7 0949 7a36 39ee 8634
000003d0: 53b5 c636 e242 6237 900f c6b7 2f44 a2b6
000003e0: b252 4837 d0b2 4a36 f3dc e138 a786 6b38
000003f0: 0fa5 2635 bf7b 97b4 adaf 1339 440d d539
-0.0016578645 0.0066777784 5.9668957e-05 -1.0191606e-05 8.108899e-05 -1.2704215e-05 0.00021550008 -0.00010011124
-7.824689e-05 -3.514296e-05 -1.99869e-06 2.126727e-05 5.9718925e-05 -3.927766e-05 -2.7623577e-05 -1.4084466e-05
0.00071802165 -7.661623e-05 -4.3189462e-07 -2.924198e-06 0.0013665247 -0.00018887478 3.0559808e-05 -1.39806625e-05
-0.013891556 -0.0014065123 -0.021319835 -0.11744876 0.00092182605 0.00040662536 0.0013283624 0.0005668882
-0.0013503529 0.00035620565 0.0004518134 0.0002917262 0.00025060642 0.00060784904 -0.00052856945 -0.00020588971
0.00013313683 -6.5276695e-06 0.0048262626 0.0031695575 4.357632e-05 1.6757946e-05 -0.008480133 0.0039422084
0.0007004814 0.00040407965 0.059294537 -0.07199751 -2.124264e-05 0.00030435176 1.4793116e-05 2.919658e-06
2.0901161e-05 4.6391583e-06 1.8149876e-05 -1.0860396e-05 -5.0782796e-06 4.2508755e-06 -6.4622295e-06 -2.3488341e-05
4.082457e-06 1.5479614e-05 -1.58979e-06 5.5159394e-06 0.0002283905 1.6293174e-05 3.088839e-06 -2.5446159e-09
6.1302984e-05 -0.00011421851 1.486016e-05 5.1466877e-06 0.002577304 0.00104374 0.0007784593 -0.000441041
-1.26784125e-05 -2.3408827e-06 -1.8262997e-05 -3.832573e-06 -2.3194007e-05 5.29291e-06 1.5996971e-05 1.1865998e-06
7.174612e-07 -5.0885005e-06 -6.2880436e-06 6.6136004e-06 6.9476837e-06 -2.1848052e-06 -0.000109461886 -2.0361085e-05
1.0759459e-06 -5.1139693e-07 -5.780124e-05 -3.1468986e-05 -6.89319e-06 -2.225662e-06 0.0001933637 0.0022923162
-0.00044459334 0.002124378 -7.203376e-05 -2.2377108e-05 -9.4789655e-05 -2.6974609e-05 -0.00014368331 8.1212886e-05
6.410018e-05 1.0186243e-05 -1.1815974e-05 -0.000108043496 3.9976203e-05 6.315407e-05 1.0961589e-05 -6.0482976e-06
-0.0007321524 -0.00018207284 -1.0248569e-05 -9.895777e-06 -0.0012069398 -0.0006178742 -6.79535e-05 -1.5062473e-05
0.002032449 0.008413591 -0.005772456 0.00473292 -6.699497e-05 -4.9035712e-05 -9.080994e-05 -6.90215e-05
5.9799575e-05 8.77405e-05 -7.256631e-05 -4.3003463e-05 -3.1970576e-05 -3.7484933e-05 4.995825e-05 1.9445182e-05
-1.6558957e-05 -1.535982e-05 -0.0004889266 -0.00030995446 -1.2284784e-05 -8.043042e-06 0.0019547166 -0.00034265124
-7.281954e-05 -4.9968992e-05 0.0022999914 0.022485118 0.001575616 0.004107973 -7.391567e-05 -2.8129512e-05
-0.00010206505 -3.9602397e-05 -3.2821237e-05 7.047918e-05 -1.0888634e-05 -1.4763984e-05 -1.2004961e-05 -2.7994336e-05
1.5373242e-05 1.7421584e-05 -7.017868e-06 2.2177342e-06 -0.00071995397 -0.00018662137 -1.1453585e-05 -1.671337e-06
-7.929909e-05 -2.1987813e-05 -7.112604e-05 -2.8561615e-05 0.0034253907 0.00958785 -0.00094643305 -0.005665202
8.923121e-05 3.7560483e-05 0.00012643903 5.1860545e-05 6.654494e-05 -4.048763e-05 -3.15574e-05 -7.582659e-06
1.30829e-05 5.4286247e-05 -2.0617821e-05 -2.056728e-05 -1.1838888e-05 -1.2621391e-06 0.00077868823 0.00025040164
1.2113279e-05 2.7682884e-06 8.530671e-05 0.00023343774 8.089314e-05 3.5528108e-05 -0.007948509 -0.016971413
-0.0006169071 0.0010263309 -2.9354216e-05 -1.4665093e-05 -4.107582e-05 -2.1150245e-05 1.390805e-05 1.27308085e-05
-1.8662884e-05 -6.1760375e-07 -7.3583665e-06 -3.899901e-05 1.5063329e-05 1.6579948e-05 5.1569577e-06 2.1987994e-06
-0.00021245684 -0.00012279718 -5.800335e-06 2.5059555e-07 0.00034469212 -0.00017490015 -2.7369131e-05 -1.4556747e-05
0.00029159064 0.0060477736 2.912704e-05 0.00037233942 1.9600155e-05 7.74415e-06 2.8827653e-05 9.45818e-06
1.4571647e-05 -2.4474204e-05 3.7295415e-06 2.5132775e-07 5.9219688e-06 1.3486222e-05 -2.3610686e-05 -4.835914e-06
1.1940183e-05 3.0204428e-06 0.00010769991 5.615377e-05 6.208001e-07 -2.821598e-07 0.00014084457 0.0004063641
