历史权重记录/400epoch/weight.pth (torch, 166031 bytes, 34 tensors)

fc1.weight f4 [128, 26]
-0.61415064 -0.02026672 0.3940264 -0.04081693 -0.27455604 0.33908755 -2.5578933 -2.1343057
3.091527 7.714569 2.9601192 3.5654242 -5.961984 -4.154591 7.1630816 -0.22150812
0.15567663 -0.3071823 0.78007144 -0.6814386 -0.74951273 -0.44772843 1.2574133 0.44835624
0.06702489 0.3047339 -0.107823215 -0.024228657 3.3204052 10.975438 -0.27235708 10.7117195
-7.3857393 30.472013 6.2482467 -32.860542 -23.651686 10.610826 1.1679085 6.3174133
-16.294685 -31.642876 -0.12296997 -10.410255 -5.218359 -8.495132 0.6981803 -0.5532785
9.661707 -10.085501 0.55006677 -0.20646638 0.19973664 1.945612 0.44852588 3.1834304
2.9188833 2.551515 0.7027598 17.82771 -17.848028 9.930512 -24.53304 22.380936
-4.5311837 -5.1758327 -24.859848 -17.26255 1.6064217 8.26845 5.839542 44.139706
10.516386 -3.2495737 5.375831 3.8080313 0.026000246 0.45853236 0.21355599 -0.85554874
1.9618502 -4.719368 4.522092 -4.4898252 10.143595 -6.0079737 1.0542746 -35.268597
21.40972 -27.293982 40.336666 10.123851 -2.880684 12.80166 1.8359808 -10.491886
11.651312 7.2266927 1.7759794 4.1925306 -4.510004 -7.5417953 0.17254104 0.14455673
3.343393 -0.018823406 -11.492259 8.905279 -10.3107 8.688726 -5.788159 2.078341
17.30234 -11.082375 9.067611 10.525027 -18.726534 3.2577147 -8.262306 -6.8134274
-0.5474486 8.827597 -2.3069317 -27.455294 -1.4863406 6.2848263 -2.0406516 9.954384
4.444247 -0.27051103 -0.7398447 -0.033629626 -0.18174846 -0.2486814 -0.5226502 -0.21513233
-0.137766 -0.56114984 0.46254095 0.54879177 1.139443 -0.8495935 1.0319283 -0.57592905
0.927566 2.4214497 -0.19903429 0.47592598 1.079752 -0.59573644 -0.07390449 -0.2928408
0.113377795 0.8642461 0.1436218 0.12060588 1.6282566 -0.55188835 -5.3281503 -4.310108
-3.368591 -5.1369467 26.854794 -17.14083 -23.858198 -33.63731 5.907075 8.209559
-23.820858 -15.8475 6.6420903 49.935688 -1.9109756 0.3597872 6.955396 -15.593458
1.6373507 -6.9198527 -13.896445 -2.1853056 0.45065615 0.096588455 -0.07534103 0.322408
-0.79174167 0.9817495 -6.6988215 2.3607001 11.600875 -16.61582 -10.689768 5.574671
-5.6943545 -0.975201 20.401466 18.24523 -32.14526 -43.718723 -4.583018 -14.931078
-44.111057 40.621593 -1.7026044 -4.564487 -14.644418 -10.400865 -0.15158486 -0.32040644
8.445289 1.9332365 0.3649402 1.9056933 -0.07948687 2.2263198 -1.164967 1.202521
-3.0272315 2.6384845 0.5084031 0.15052943 1.0093819 0.40479264 -1.5282956 -1.9321612
-2.098776 1.5912062 1.3632336 1.2730335 -0.77709454 -3.3774006 -0.7645023 0.52454823
-0.1364829 -0.45522353 -0.5421049 -0.17658275 -1.8493036 -0.06940965 -1.8483764 -0.46596432
-1.952887 1.9872599 3.3544247 -0.31649595 -1.0627693 0.51910883 0.13527335 -0.81825256
0.017435348 -0.85122126 -1.003991 -0.65589136 0.11171917 -7.5188594 -0.02113767 0.3266837
00000000: fa38 1dbf 6406 a6bc d4bd c93e a72f 27bd
00000010: 9c92 8cbe e29c ad3e 86b4 23c0 7798 08c0
00000020: 94db 4540 c0dd f640 9872 3d40 e92f 6440
00000030: 93c8 bec0 69f2 84c0 f737 e540 06d3 62be
00000040: b269 1f3e 0047 9dbe c3b2 473f c372 2ebf
00000050: 11e0 3fbf a93c e5be ebf2 a03f f38e e53e
00000060: 5844 893d 1506 9c3e 6bd2 dcbd 2d7b c6bc
00000070: 8581 5440 659b 2f41 6372 8bbe 3463 2b41
00000080: fa57 ecc0 afc6 f341 a3f1 c740 3271 03c2
00000090: a736 bdc1 f1c5 2941 077e 953f 4028 ca40
000000a0: 845b 82c1 9c24 fdc1 aed7 fbbd 6890 26c1
000000b0: ccfc a6c0 10ec 07c1 f2bb 323f a9a3 0dbf
000000c0: 5a96 1a41 365e 21c1 2dd1 0c3f ec6b 53be
000000d0: c387 4c3e d009 f93f 2fa5 e53e 53bd 4b40
000000e0: fcce 3a40 064c 2340 11e8 333f 269f 8e41
000000f0: c3c8 8ec1 61e3 1e41 aa43 c4c1 280c b341
00000100: 75ff 90c0 6ca0 a5c0 f8e0 c6c1 b419 8ac1
00000110: 3a9f cd3f 924b 0441 87dd ba40 0f8f 3042
00000120: 1e43 2841 04f9 4fc0 cf06 ac40 c9b6 7340
00000130: 78fe d43c c1c4 ea3e 6cae 5a3e 3e05 5bbf
00000140: e81d fb3f 1005 97c0 fab4 9040 a6ac 8fc0
00000150: 2a4c 2241 5241 c0c0 78f2 863f 0b13 0dc2
00000160: 1b47 ab41 135a dac1 bf58 2142 4bfb 2141
00000170: 205d 38c0 99d3 4c41 6b01 eb3f c4de 27c1
00000180: c66b 3a41 1141 e740 4b53 e33f 3629 8640
00000190: f451 90c0 6356 f1c0 99ae 303e ae06 143e
000001a0: 27fa 5540 8b33 9abc 4be0 37c1 067c 0e41
000001b0: a1f8 24c1 0605 0b41 9938 b9c0 8a03 0540
000001c0: 316b 8a41 6851 31c1 ef14 1141 8366 2841
000001d0: f1cf 95c1 667e 5040 6832 04c1 9907 dac0
000001e0: 9725 0cbf d63d 0d41 c5a4 13c0 71a4 dbc1
000001f0: 6940 bebf 4c1d c940 099a 02c0 2845 1f41
00000200: 4537 8e40 6c80 8abe 7666 3dbf 38bf 09bd
00000210: 451c 3abe 56a6 7ebe 67cc 05bf a64b 5cbe
00000220: 8812 0dbe 84a7 0fbf 2bd2 ec3e 9e7d 0c3f
00000230: 45d9 913f f67e 59bf 3a16 843f 1670 13bf
00000240: f774 6d3f 08f9 1a40 a5cf 4bbe 92ac f33e
00000250: 5035 8a3f 2f82 18bf 3d5b 97bd 3bef 95be
00000260: 9e32 e83d 3b3f 5d3f 9811 133e 3700 f73d
00000270: b66a d03f 8e48 0dbf 3580 aac0 68ec 89c0
00000280: ff96 57c0 de61 a4c0 9ed6 d641 6b20 89c1
00000290: 97dd bec1 9b8c 06c2 c206 bd40 5b5a 0341
000002a0: 1e91 bec1 5c8f 7dc1 018c d440 25be 4742
000002b0: d99a f4bf 0736 b83e 9b92 de40 ce7e 79c1
000002c0: b594 d13f 6f6f ddc0 d757 5ec1 0cdc 0bc0
000002d0: 67bc e63e 2bd0 c53d 664c 9abd a912 a53e
000002e0: 95af 4abf ef53 7b3f bf5c d6c0 b615 1740
000002f0: 2f9d 3941 33ed 84c1 4a09 2bc1 b463 b240
00000300: 2738 b6c0 c6a6 79bf 3436 a341 3bf6 9141
00000310: bf94 00c2 f9df 2ec2 15a8 92c0 b2e5 6ec1
00000320: b971 30c2 837c 2242 f1ee d9bf 4710 92c0
00000330: 894f 6ac1 f169 26c1 1039 1bbe 500c a4be
00000340: e71f 0741 4b74 f73f 71d9 ba3e c2ed f33f
00000350: 03ca a2bd 067c 0e40 a31d 95bf 35ec 993f
00000360: 29be 41c0 eedc 2840 b526 023f 6324 1a3e
00000370: 6d33 813f fb40 cf3e 319f c3bf 0f51 f7bf
00000380: 5952 06c0 a5ac cb3f 707e ae3f c3f2 a23f
00000390: abef 46bf 5527 58c0 6cb6 43bf cb48 063f
000003a0: 2cc2 0bbe 0f13 e9be 63c7 0abf 1cd2 34be
000003b0: fbb5 ecbf a626 8ebd 9997 ecbf e092 eebe
000003c0: 34f8 f9bf 885e fe3f e5ae 5640 c20b a2be
000003d0: d308 88bf 51e4 043f 1985 0a3e 0079 51bf
000003e0: 93d4 8e3c a3e9 59bf c782 80bf 7fe8 27bf
000003f0: 05cd e43d 7f9a f0c0 e828 adbc 1643 a73e

fc1.bias f4 [128]
0.16016756 0.16075355 -0.13020952 -0.14699908 0.19797157 0.055394303 0.024799645 -0.39816755
0.15436454 0.1219044 -0.084451586 0.16088308 0.1650603 -0.8384985 0.0741363 0.003206247
-0.1537359 -0.18345186 -0.059925426 0.059292268 -0.03320961 -0.006429631 -0.07494891 -0.034984294
0.19481851 -0.009011026 -0.09406704 -0.059583645 -0.0121740205 0.20084853 -0.03728421 -1.5948671
-0.12232074 0.2547206 -0.105643384 -0.0027082835 0.016243502 -0.12557758 0.14958662 0.10039122
-0.017566675 0.045639105 0.21340099 0.0672337 0.09423484 0.08660553 0.013398692 -0.028451623
0.09136639 0.028701069 -0.2785109 0.05567374 -0.19383287 -0.051393706 -0.21791956 -0.37712958
0.018904306 0.091365896 -0.14362085 -0.26702714 -0.13890295 -0.13676624 -0.0053370045 -0.44493568
-0.008266566 -0.999839 0.572985 0.29676154 -0.034924265 0.51670754 0.24770936 0.16659926
0.12434566 -0.17960693 -0.11660726 0.12893806 -0.10807842 0.18146637 -0.17328367 -0.22428074
0.090141565 0.15593766 0.16046324 0.07444746 0.1324768 -0.027053189 -0.119966455 0.11105172
0.16192448 -0.27139574 -0.01671587 0.04727422 -0.16480073 -0.2974826 -0.10235154 -0.026606223
-0.16222325 -0.039031096 -0.006580669 -0.53779423 -0.10279325 0.13637212 -0.37305567 -0.7229426
0.3126742 0.03372706 0.11680056 -0.036312934 -0.042580884 -0.1283143 0.12566885 0.06938619
-0.20140776 0.032635715 -0.05224363 -0.51523453 0.2093849 -0.13412787 -0.15809484 -0.2506344
0.59622294 -0.015447364 0.5662031 -0.1347057 -0.18906173 0.10590879 0.041023448 0.3650634
00000000: f702 243e 949c 243e a555 05be ed86 16be
00000010: 0fb9 4a3e 23e5 623d a028 cb3c 9edc cbbe
00000020: bd11 1e3e 04a9 f93d f4f4 acbd 89be 243e
00000030: 9105 293e d6a7 56bf c6d4 973d e61f 523b
00000040: f26c 1dbe ceda 3bbe 5d74 75bd 73dc 723d
00000050: cd06 08bd a7af d2bb d07e 99bd b14b 0fbd
00000060: 817e 473e fba2 13bc 38a6 c0bd fb0d 74bd
00000070: 8b75 47bc 3dab 4d3e 54b7 18bd 9b24 ccbf
00000080: 4c83 fabd bd6a 823e 8f5b d8bd 757d 31bb
00000090: 1811 853c 6997 00be 3c2d 193e e999 cd3d
000000a0: fde7 8fbc 12f0 3a3d ca85 5a3e d2b1 893d
000000b0: 32fe c03d 3d5e b13d 3086 5b3c 6113 e9bc
000000c0: 4d1e bb3d 811e eb3c fb98 8ebe 260a 643d
000000d0: 207c 46be 3582 52bd 4e26 5fbe 2117 c1be
000000e0: 34dd 9a3c 0b1e bb3d 5811 13be c8b7 88be
000000f0: 933c 0ebe 730c 0cbe 0ae2 aebb 9cce e3be
00000100: 7e70 07bc 73f5 7fbf 25af 123f 21f1 973e
00000110: bf0c 0fbd f246 043f 86a7 7d3e ff98 2a3e
00000120: f0a8 fe3d e1ea 37be cacf eebd 5708 043e
00000130: 3858 ddbd 52d2 393e 4671 31be daa9 65be
00000140: 249c b83d 1fae 1f3e 7a50 243e e977 983d
00000150: 00a8 073e a69e ddbc f9b0 f5bd 166f e33d
00000160: 88cf 253e 62f4 8abe b8ef 88bc 9da2 413d
00000170: 86c1 28be a44f 98be af9d d1bd 4bf5 d9bc
00000180: da1d 26be 12df 1fbd a7a2 d7bb e2ac 09bf
00000190: 4485 d2bd 22a5 0b3e 2701 bfbe c412 39bf
000001a0: d516 a03e 6325 0a3d 2235 ef3d dfbc 14bd
000001b0: 4b69 2ebd d364 03be 56af 003e 591a 8e3d
000001c0: d63d 4ebe 07ad 053d 6bfd 55bd 69e6 03bf
000001d0: ff68 563e d158 09be 9de3 21be 2753 80be
000001e0: 11a2 183f f116 7dbc b0f2 103f 4bf0 09be
000001f0: 6699 41be b5e6 d83d 3408 283d 97e9 ba3e

bn1.weight f4 [128]
0.067274384 5.0680265 5.0527353 3.531729 5.70957 -0.07341802 2.7585304 3.8392332
6.9291058 0.096811585 0.5122483 3.6228962 4.164419 2.5993514 4.1131454 4.3303466
6.8581557 5.428181 0.43166527 0.75156283 5.6537485 2.7170334 1.9450098 -0.09915224
6.7499943 2.4732873 5.0117126 6.2607093 0.60854995 3.2262096 0.43660185 2.2673273
4.4213758 5.7335167 0.739275 3.713194 4.495249 1.7757525 7.612824 4.0100493
2.8873487 -0.02959341 4.597458 5.02795 0.73539937 4.9852138 0.20451605 6.166321
4.3022013 4.3738685 4.07281 2.9446752 3.847443 0.049630113 6.3691883 4.0152836
0.16335315 0.6781708 0.2332607 2.8330772 0.8932149 2.3538299 1.2296032 3.7256358
4.952034 3.196796 3.3017738 4.306849 4.382273 4.2809925 3.9551742 6.80442
3.1328323 2.6092427 -0.05835028 4.4380717 1.461013 0.7406121 5.4850893 3.309983
7.803781 -0.10409777 4.6999307 3.3964093 4.272026 0.14257716 5.2404156 2.1604884
3.886508 4.9769316 6.3036394 3.6593559 3.8272438 5.593077 -0.1309011 4.3995576
0.08908076 3.8941216 5.425659 2.6624544 3.5829942 4.4513593 3.1553278 4.3306975
3.6409764 3.406666 4.380465 7.023467 3.6488833 -0.1786266 1.9991249 4.873687
5.3521047 4.342949 1.9418825 2.9500763 3.341093 1.7845904 0.3718927 4.192535
2.746135 2.9912243 3.9133272 4.1183124 2.2329555 6.3279195 -0.11173763 3.4486427
00000000: 27c7 893d 462d a240 02b0 a140 d907 6240
00000010: ccb4 b640 305c 96bd c38b 3040 ffb5 7540
00000020: 3cbb dd40 2745 c63d b422 033f 88dd 6740
00000030: ec42 8540 c65b 2640 e39e 8340 3392 8a40
00000040: 0376 db40 a9b3 ad40 3b03 dd3e 6c66 403f
00000050: 82eb b440 e0e3 2d40 15f6 f83f 5410 cbbd
00000060: f4ff d740 574a 1e40 f35f a040 bb57 c840
00000070: eec9 1b3f 387a 4e40 478a df3e e41b 1140
00000080: e97b 8d40 f878 b740 2041 3d3f f8a4 6d40
00000090: 14d9 8f40 dc4b e33f 419c f340 5352 8040
000000a0: 52ca 3840 e16d f2bc 601e 9340 f7e4 a040
000000b0: 2243 3c3f df86 9f40 a86c 513e 8052 c540
000000c0: a2ab 8940 bbf6 8b40 7654 8240 8f75 3c40
000000d0: 823c 7640 f248 4b3d 64d0 cb40 347d 8040
000000e0: 0c46 273e 9a9c 2d3f e5db 6e3e 2351 3540
000000f0: bba9 643f 26a5 1640 a363 9d3f d170 6e40
00000100: 1077 9e40 4e98 4c40 4350 5340 b5d1 8940
00000110: 953b 8c40 e4fd 8840 9321 7d40 cfbd d940
00000120: 5380 4840 d5fd 2640 b400 6fbd af04 8e40
00000130: 7902 bb3f c198 3d3f da85 af40 c3d6 5340
00000140: 93b8 f940 3631 d5bd d565 9640 c55e 5940
00000150: 70b4 8840 bfff 113e 7cb1 a740 7145 0a40
00000160: 8cbc 7840 0643 9f40 6ab7 c940 e332 6a40
00000170: 90f1 7440 7dfa b240 f00a 06be 2dc9 8c40
00000180: f96f b63d 4a39 7940 009f ad40 a765 2a40
00000190: c74f 6540 8971 8e40 e4f0 4940 1395 8a40
000001a0: c205 6940 d106 5a40 c52c 8c40 3ec0 e040
000001b0: 4e87 6940 e4e9 36be 53e3 ff3f 3ef5 9b40
000001c0: 7144 ab40 70f9 8a40 9b8f f83f 0dce 3c40
000001d0: 78d4 5540 756d e43f b868 be3e 3f29 8640
000001e0: adc0 2f40 3870 3f40 f473 7a40 37c9 8340
000001f0: bee8 0e40 517e ca40 b3d6 e4bd 90b6 5c40

bn1.bias f4 [128]
-6.3154845 4.1124525 -0.45865434 4.15674 4.028709 -6.005299 -4.5204697 -4.4135885
10.047559 6.0258985 -6.0966835 1.6842612 -4.0133524 -2.4929254 1.0343423 -3.1090758
-10.120289 -0.79789054 -6.2098923 -6.2200627 5.1334143 -1.0651052 -0.3983751 -6.038861
-10.066288 0.286686 -4.2781816 -4.1337085 6.3532896 -2.8954525 -6.226888 2.647131
1.4490455 0.9578146 -5.761678 -4.1149282 3.8391063 5.2074723 -0.9316768 2.2289095
-4.642593 -6.1085634 -2.0683057 -0.81749207 -6.252434 -3.79816 6.123301 -1.2913307
-4.427309 1.904367 -4.2344494 3.262833 -1.1171035 5.96507 -1.3466105 4.537558
6.0704865 6.260277 6.2094398 3.2593732 -5.755634 -5.6051927 6.8622985 -2.2422361
-4.3972836 -4.0721025 3.047236 -4.9383616 1.6644669 3.283007 -2.245183 -3.7450304
-3.1548417 0.9923356 -5.989158 -1.315305 -5.8817334 -5.70196 3.798503 -4.517838
1.7490374 6.073639 4.6290026 -0.618851 3.0882258 6.244956 -1.1515967 6.2977953
4.2046313 3.4219027 8.88546 2.7295542 -0.44900733 -3.9118483 6.0571704 4.100424
-6.0110397 -3.4182577 -2.026487 3.153636 3.8672988 -3.388983 -4.401875 -2.5932736
2.2317104 -2.36777 -1.5583564 -0.087890446 -2.9411466 6.2185755 -1.7529153 -3.1798089
-3.8826544 3.5570526 0.81701165 -1.6711346 4.1532235 -6.041841 -6.270379 2.9002333
-3.4275115 1.5309252 3.0229821 -3.8835073 2.4444997 1.0327199 6.0268636 -1.2009678
00000000: 7318 cac0 3699 8340 bed4 eabe 0404 8540
00000010: 2feb 8040 692b c0c0 b0a7 90c0 1e3c 8dc0
00000020: cdc2 2041 29d4 c040 0818 c3c0 df95 d73f
00000030: 626d 80c0 178c 1fc0 5465 843f 19fb 46c0
00000040: b4ec 21c1 8e42 4cbf 70b7 c6c0 c10a c7c0
00000050: ee44 a440 5e55 88bf d2f7 cbbe 593e c1c0
00000060: 840f 21c1 82c8 923e dde6 88c0 5747 84c0
00000070: 264e cb40 184f 39c0 ab42 c7c0 986a 2940
00000080: 537a b93f 5633 753f ab5f b8c0 7ead 83c0
00000090: ebb3 7540 9da3 a640 5f82 6ebf 74a6 0e40
000000a0: 1f90 94c0 5a79 c3c0 1f5f 04c0 2947 51bf
000000b0: f013 c8c0 0e15 73c0 15f2 c340 534a a5bf
000000c0: 84ac 8dc0 4cc2 f33f 9c80 87c0 42d2 5040
000000d0: 3ffd 8ebf dae1 be40 bc5d acbf ad33 9140
000000e0: 6d41 c240 3054 c840 bbb3 c640 9299 5040
000000f0: 272e b8c0 bd5d b3c0 f397 db40 cc80 0fc0
00000100: 8cb6 8cc0 aa4e 82c0 ea05 4340 0f07 9ec0
00000110: 400d d53f c91c 5240 14b1 0fc0 94ae 6fc0
00000120: ede8 49c0 b509 7e3f 2fa7 bfc0 ea5b a8bf
00000130: 2937 bcc0 7576 b6c0 ac1a 7340 2192 90c0
00000140: 75e0 df3f 405b c240 ca20 9440 056d 1ebf
00000150: 7ea5 4540 aed6 c740 8567 93bf 8a87 c940
00000160: 578c 8640 7400 5b40 d82a 0e41 04b1 2e40
00000170: 4ae4 e5be b95b 7ac0 57d4 c140 ac36 8340
00000180: 705a c0c0 bcc4 5ac0 f7b1 01c0 2cd5 4940
00000190: d381 7740 19e5 58c0 29dc 8cc0 32f8 25c0
000001a0: 58d4 0e40 8b89 17c0 3978 c7bf e8ff b3bd
000001b0: bf3b 3cc0 92fe c640 875f e0bf fd81 4bc0
000001c0: 697d 78c0 c0a6 6340 ad27 513f bde7 d5bf
000001d0: 35e7 8440 c356 c1c0 f2a6 c8c0 6c9d 3940
000001e0: 595c 5bc0 5bf5 c33f 8a78 4140 628b 78c0
000001f0: af72 1c40 2a30 843f 11dc c040 50b9 99bf

bn1.running_mean f4 [128]
-55.701374 0.98273355 328.90155 -35.751053 490.7708 -70.46344 83.621086 -36.7384
1053.2257 -69.84111 200.57614 -1264.4432 -179.00716 55.432236 -181.39326 56.558693
-976.74286 82.71393 347.4204 400.6454 -135.78252 -37.82063 1.8759083 -76.90192
-982.8248 34.64256 62.951294 152.80522 -557.35205 64.982895 115.67169 30.764076
118.60783 -167.05396 138.14076 72.14227 68.27201 -120.18217 -908.12177 261.92505
-14.178319 -80.850716 57.784966 22.739672 287.92474 85.78816 -65.60643 1343.5222
101.4117 187.47939 -207.86934 18.711874 -325.695 -67.548775 -289.17502 -259.43033
-66.47947 -318.82617 -91.23873 -9.375815 432.0589 273.89145 -164.48149 101.807526
-281.11627 38.801098 -30.67416 954.73956 -188.06638 24.794233 178.26031 320.22302
3.3704135 -20.814976 -57.778282 -59.801594 82.54421 85.24503 -1379.823 211.87717
67.273834 75.90023 -847.99243 117.36465 -460.7822 41.114513 88.95646 -351.10205
226.96649 -91.22379 1151.5209 -6.787447 -347.6821 185.08852 84.13781 86.39327
72.68826 806.1264 -394.92953 -62.610577 -40.128704 127.202614 145.15166 -28.24997
-211.1703 -25.636406 93.35703 171.23415 376.1297 100.98792 -14.281852 268.3907
747.1272 -677.63586 -101.43519 85.12089 155.12735 638.6009 132.96297 -257.8621
53.184193 101.56155 -16.955221 -153.54466 17.658499 -548.90466 76.83359 138.65012
00000000: 35ce 5ec2 6d94 7b3f 6673 a443 1401 0fc2
00000010: aa62 f543 48ed 8cc2 ff3d a742 1ff4 12c2
00000020: 39a7 8344 a6ae 8bc2 7e93 4843 2f0e 9ec4
00000030: d501 33c3 9cba 5d42 ad64 35c3 1a3c 6242
00000040: 8b2f 74c4 886d a542 d0b5 ad43 9c52 c843
00000050: 53c8 07c3 5348 17c2 c31d f03f c8cd 99c2
00000060: cab4 75c4 fb91 0a42 20ce 7b42 23ce 1843
00000070: 8856 0bc4 3ef7 8142 e857 e742 d41c f641
00000080: 3537 ed42 d00d 27c3 0924 0a43 d848 9042
00000090: 458b 8842 455d f0c2 cb07 63c4 68f6 8243
000000a0: 65da 62c1 91b3 a1c2 ce23 6742 d9ea b541
000000b0: 5ef6 8f43 8a93 ab42 7e36 83c2 b6f0 a744
000000c0: cad2 ca42 b97a 3b43 8dde 4fc3 ebb1 9541
000000d0: f6d8 a2c3 f918 87c2 6796 90c3 15b7 81c3
000000e0: 7df5 84c2 c069 9fc3 3b7a b6c2 5703 16c1
000000f0: 8a07 d843 1bf2 8843 437b 24c3 749d cb42
00000100: e28e 8cc3 5334 1b42 ae64 f5c1 55af 6e44
00000110: fe10 3cc3 975a c641 a442 3243 8c1c a043
00000120: dbb4 5740 1285 a6c1 f61c 67c2 d534 6fc2
00000130: a316 a542 757d aa42 567a acc4 8ee0 5343
00000140: 348c 8642 ebcc 9742 84ff 53c4 b3ba ea42
00000150: 1f64 e6c3 4375 2442 b5e9 b142 108d afc3
00000160: 6cf7 6243 9572 b6c2 abf0 8f44 c432 d9c0
00000170: 4fd7 adc3 a916 3943 8f46 a842 5bc9 ac42
00000180: 6460 9142 1788 4944 fb76 c5c3 3b71 7ac2
00000190: cb83 20c2 bd67 fe42 d326 1143 f0ff e1c1
000001a0: 992b 53c3 5c17 cdc1 cdb6 ba42 f13b 2b43
000001b0: 9a10 bc43 d1f9 c942 7782 64c1 0232 8643
000001c0: 24c8 3a44 b268 29c4 d1de cac2 e53d aa42
000001d0: 9a20 1b43 75a6 1f44 85f6 0443 59ee 80c3
000001e0: 9dbc 5442 831f cb42 4ba4 87c1 6f8b 19c3
000001f0: 9b44 8d41 e639 09c4 ccaa 9942 6ea6 0a43

bn1.running_var f4 [128]
400.80664 325.74997 3218.7568 421.83728 19127.434 362.83438 423.71265 309.6559
34710.38 383.10974 8471.248 44535.293 6353.9014 243.64017 623.57367 717.2268
30258.096 1444.5815 8153.394 8185.29 1193.9517 422.50305 460.50848 455.9996
30849.986 271.05777 1654.3788 4728.406 16440.576 398.26654 2828.8625 97.78701
1464.2031 2704.609 8498.694 2049.8452 2939.2517 6221.8447 38055.12 4680.7036
1182.5973 304.9847 294.4754 5626.5405 9823.631 1948.507 517.5078 54901.12
8239.573 3010.845 2697.1033 116.5696 3115.4558 344.13614 1274.2867 1956.2878
607.7068 10864.645 1310.7566 859.0847 31386.459 26430.076 1414.9491 239.6575
14637.2295 192.78502 298.0804 23163.35 2992.2944 320.54742 729.7246 12451.047
454.41412 132.64702 293.63327 437.78238 1769.8141 6539.681 90178.055 2630.516
4052.2036 500.72748 22206.957 793.2117 8125.2812 277.15906 855.2683 17551.443
1313.4341 627.32306 40649.19 134.31993 4092.1062 1241.287 532.5351 870.6318
408.91815 37094.52 3584.8484 192.48834 529.7747 13526.189 369.99878 335.5901
1193.8705 406.93655 2132.5981 2009.6873 9425.844 1028.1227 195.30205 8577.405
11984.128 12792.585 1086.6307 157.33047 1872.7792 9793.861 1517.4019 964.72656
375.3904 599.5396 130.44041 686.3125 50.654247 16209.337 315.3607 378.32907
00000000: 4067 c843 ffdf a243 1c2c 4945 2ceb d243
00000010: de6e 9546 cd6a b543 38db d343 f5d3 9a43
00000020: 6196 0747 0c8e bf43 fe5c 0446 4bf7 2d47
00000030: 368f c645 e2a3 7343 b7e4 1b44 844e 3344
00000040: 3164 ec46 9c92 b444 27cb fe45 52ca ff45
00000050: 743e 9544 6440 d343 1641 e643 f3ff e343
00000060: f903 f146 6587 8743 1fcc ce44 3fc3 9345
00000070: 2771 8046 1e22 c743 cdcd 3045 f392 c342
00000080: 8006 b744 be09 2945 c7ca 0446 861d 0045
00000090: 07b4 3745 c26e c245 1fa7 1447 a145 9245
000000a0: 1dd3 9344 0b7e 9843 da3c 9343 53d4 af45
000000b0: 867e 1946 3990 f344 8060 0144 1f75 5647
000000c0: 4bbe 0046 852d 3c45 a791 2845 a323 e942
000000d0: 4bb7 4245 6d11 ac43 2d49 9f44 3689 f444
000000e0: 3ced 1744 94c2 2946 36d8 a344 6cc5 5644
000000f0: eb34 f546 277c ce46 5fde b044 52a8 6f43
00000100: ebb4 6446 f7c8 4043 4b0a 9543 b3f6 b446
00000110: b604 3b45 1246 a043 606e 3644 308c 4246
00000120: 0235 e343 a3a5 0443 0fd1 9243 25e4 da43
00000130: 0d3a dd44 735d cc45 0721 b047 4268 2445
00000140: 4243 7d45 1e5d fa43 ea7d ad46 8c4d 4644
00000150: 40ea fd45 5c94 8a43 2cd1 5544 e31e 8946
00000160: e42d a444 add4 1c44 31c9 1e47 e751 0643
00000170: b3c1 7f45 2f29 9b44 3f22 0544 6fa8 5944
00000180: 8675 cc43 85e6 1047 930d 6045 047d 4043
00000190: 9571 0444 c258 5346 d8ff b843 88cb a743
000001a0: db3b 9544 e177 cb43 9249 0545 fe35 fb44
000001b0: 6047 1346 ed83 8044 534d 4343 9f05 0646
000001c0: 8340 3b46 57e2 4746 2fd4 8744 9a54 1d43
000001d0: ef18 ea44 7207 1946 dcac bd44 802e 7144
000001e0: f9b1 bb43 89e2 1544 bf70 0243 0094 2b44
000001f0: f39d 4a42 5945 7d46 2bae 9d43 1f2a bd43

fc2.weight f4 [64, 128]
-0.0792288 0.12861216 -1.1469312 0.84521055 2.4038742 0.05216113 -1.2353392 5.9618325
2.2217157 0.002514153 -0.539901 -3.322584 -1.8732717 0.957498 -2.1207104 1.1775479
-2.3821774 -1.0157939 0.18272391 0.20358776 3.9299421 1.0479543 -1.339294 0.07927972
-2.4803293 -1.9883952 -1.5914724 -0.37296528 -0.21729915 -1.1535832 -0.40593147 -2.6902103
-2.7474582 -2.7694595 -1.5780892 0.78364795 -2.772962 3.3976743 -0.6117395 2.9236283
3.638575 -0.021742301 2.4943528 -0.90651536 -1.1645555 0.5443025 -0.13387257 1.6097211
0.916587 -2.0542839 -1.7325517 4.4581375 0.59465766 -0.02959168 2.253795 -1.4675624
0.01787265 0.2626574 0.041429516 -1.230119 -1.7059444 0.83798134 0.17805776 2.683148
-4.808994 -0.9401543 5.72474 1.9290336 -7.2927566 -2.6533105 2.5142684 -3.8412845
0.98782957 -0.21805307 0.010764289 0.9354588 -1.5870607 -2.125219 -0.0004961383 -0.8647801
3.5350344 -0.058363743 -0.42287904 2.1158993 3.1129508 0.15604009 -1.3025472 -0.6443829
-2.4268348 4.4681177 2.0108569 -2.104744 4.8657255 -1.3211163 -0.09489445 2.190583
0.07233847 0.07898229 -2.6490643 -4.5631056 -4.371584 -1.6613373 3.2359731 6.9405127
1.0231323 -1.5124905 1.8299725 0.14060296 2.4784257 0.064526506 0.6355496 -6.801439
-0.055252995 1.9810307 -0.8819403 2.5866077 6.8786206 0.5686121 0.8355976 0.3522396
2.3155506 1.2394981 -3.0400755 1.8515873 -5.268474 0.7312954 -0.109291695 0.370851
0.052103963 -2.510796 -1.046287 -1.9314697 0.37433454 0.023024792 -1.2997148 1.9448186
-4.2392473 -0.045888316 0.57842 -4.3340416 4.111478 -1.5854728 2.9349053 0.054941975
4.596222 -3.0899081 0.548196 1.4940419 1.4797509 0.5725113 -1.8046635 0.024521977
4.5388308 -1.5200838 -0.3687299 -0.5928567 -1.1025306 -1.6142983 0.40482157 -0.7686051
4.266893 0.24900302 1.2368731 1.7473893 3.811786 -1.6384493 1.2245544 -1.9690611
-0.51365197 -0.03230107 3.97717 2.1039479 0.8376417 3.6309295 -0.16790359 4.4012146
3.8735368 0.73019874 -1.521224 -1.8341421 -1.0666502 0.0005137459 0.5459281 0.35034102
-0.08681401 -0.10365839 -0.05080152 -3.5255902 1.2239046 -0.13468939 -0.49286687 1.4682438
-7.8054843 -0.22299488 2.3384457 4.765003 -0.19173059 -3.3666477 -1.9011661 -2.0200553
-7.9604535 -2.7527502 -0.0056251427 0.22835614 0.87513024 1.038811 2.3888087 -1.2700752
-2.1985772 -0.03289518 -5.201398 -0.6734933 1.017077 0.106105484 0.9584189 -0.82453096
-1.1223085 -1.4584516 -4.232332 -0.9745974 -1.6692916 1.6710227 -0.015127804 -7.1671696
0.017402245 0.9437082 -3.1328495 -4.6329923 -0.63345486 -2.1822422 -1.387222 -0.8168397
0.7702966 -3.1613328 0.031237291 2.4533684 1.9066061 -0.066336535 -1.326102 4.170365
3.9918303 -8.346776 -0.383211 0.6247502 -1.4719287 -0.28859845 0.37288478 -5.382606
1.7893039 1.1648405 1.1035908 2.1372943 -0.8090112 -3.607325 -0.03414922 0.7207009
00000000: b642 a2bd e8b2 033e a4ce 92bf b85f 583f
00000010: 13d9 1940 e9a6 553d 981f 9ebf 55c7 be40
00000020: 9730 0e40 7dc4 243b f436 0abf 37a5 54c0
00000030: 5ec7 efbf 971e 753f b8b9 07c0 e4b9 963f
00000040: 9875 18c0 8905 82bf fa1b 3b3e 4f79 503e
00000050: 2c84 7b40 5e23 863f fc6d abbf 685d a23d
00000060: b7bd 1ec0 bc83 febf 5eb5 cbbf 4ef5 bebe
00000070: ab83 5ebe 9da8 93bf 40d6 cfbe 682c 2cc0
00000080: 5bd6 2fc0 d33e 31c0 d4fe c9bf 279d 483f
00000090: 3678 31c0 7f73 5940 f69a 1cbf ba1c 3b40
000000a0: 6ade 6840 e91c b2bc 7aa3 1f40 6411 68bf
000000b0: 2810 95bf 6957 0b3f e415 09be 570b ce3f
000000c0: 72a5 6a3f 6379 03c0 41c4 ddbf 10a9 8e40
000000d0: 7c3b 183f 406a f2bc 2d3e 1040 16d9 bbbf
000000e0: aa69 923c 087b 863e ffb1 293d 8a74 9dbf
000000f0: 635c dabf f285 563f c654 363e b2b8 2b40
00000100: 47e3 99c0 f4ad 70bf 1231 b740 93ea f63f
00000110: 435e e9c0 d7cf 29c0 c6e9 2040 9bd7 75c0
00000120: 66e2 7c3f 4e49 5fbe b35c 303c 3a7a 6f3f
00000130: ce24 cbbf 9703 08c0 470f 02ba 3b62 5dbf
00000140: 013e 6240 d20e 6fbd 9a83 d8be e56a 0740
00000150: 963a 4740 f9c8 1f3e deb9 a6bf 47f6 24bf
00000160: 4351 1bc0 d2fa 8e40 e1b1 0040 20b4 06c0
00000170: 06b4 9b40 571a a9bf 0558 c2bd 8332 0c40
00000180: 3126 943d 78c1 a13d 458a 29c0 f604 92c0
00000190: 04e4 8bc0 b3a6 d4bf 2f1a 4f40 ae18 de40
000001a0: 00f6 823f 4a99 c1bf 8a3c ea3f 39fa 0f3e
000001b0: 879e 1e40 7926 843d 61b3 223f 63a5 d9c0
000001c0: f750 62bd 6a92 fd3f d7c6 61bf fb8a 2540
000001d0: a91d dc40 9090 113f b9e9 553f c058 b43e
000001e0: fb31 1440 e0a7 9e3f 9990 42c0 d000 ed3f
000001f0: 5797 a8c0 2d36 3b3f 53d4 dfbd 2fe0 bd3e
00000200: f76a 553d e2b0 20c0 bbec 85bf 663a f7bf
00000210: c7a8 bf3e 7d9e bc3c 0e5d a6bf d1ef f83f
00000220: eaa7 87c0 63f5 3bbd 5513 143f 78b0 8ac0
00000230: 3a91 8340 c6f0 cabf 7dd5 3b40 d60a 613d
00000240: 4014 9340 0ec1 45c0 9356 0c3f c43c bf3f
00000250: 7a68 bd3f 1a90 123f 37ff e6bf 50e2 c83c
00000260: 1a3e 9140 1b92 c2bf 2aca bcbe 75c5 17bf
00000270: b91f 8dbf 54a1 cebf c644 cf3e 4ec3 44bf
00000280: 638a 8840 a6fa 7e3e dc51 9e3f 74aa df3f
00000290: 4df4 7340 b5b8 d1bf 33be 9c3f 320a fcbf
000002a0: b27e 03bf 204e 04bd f489 7e40 15a7 0640
000002b0: b06f 563f 2661 6840 ebee 2bbe c0d6 8c40
000002c0: 07e8 7740 4eee 3a3f 78b7 c2bf 2bc5 eabf
000002d0: fe87 88bf e7ac 063a f2c1 0b3f e65f b33e
000002e0: 8bcb b1bd da4a d4bd 4115 50bd 45a3 61c0
000002f0: e8a8 9c3f 04ec 09be 0c59 fcbe 6aef bb3f
00000300: 87c6 f9c0 c558 64be 18a9 1540 e87a 9840
00000310: 0655 44be 2877 57c0 6959 f3bf 9648 01c0
00000320: 09bc fec0 0f2d 30c0 1e53 b8bb 31d6 693e
00000330: 8908 603f c2f7 843f 3ee2 1840 d391 a2bf
00000340: 7db5 0cc0 19bd 06bd da71 a6c0 0f6a 2cbf
00000350: 942f 823f d54d d93d f15a 753f 7614 53bf
00000360: cea7 8fbf 8bae babf 446f 87c0 377f 79bf
00000370: 59ab d5bf 12e4 d53f 9cda 77bc 7459 e5c0
00000380: 278f 8e3c dc96 713f 9b80 48c0 7941 94c0
00000390: 192a 22bf dba9 0bc0 7e90 b1bf 681c 51bf
000003a0: 2832 453f 4753 4ac0 59e5 ff3c fd03 1d40
000003b0: ab0b f43f 73db 87bd b6bd a9bf a173 8540
000003c0: 267a 7f40 658c 05c1 3b34 c4be a1ef 1f3f
000003d0: 2968 bcbf 2dc3 93be c1ea be3e 4f3e acc0
000003e0: e907 e53f 7e19 953f 7742 8d3f 6ec9 0840
000003f0: 5c1b 4fbf 6ade 66c0 0de0 0bbd db7f 383f

fc2.bias f4 [64]
-0.017337946 -0.047652274 -0.008585795 -0.009208353 0.018469745 0.0119639505 -0.110633194 0.12221244
-0.005771051 0.008101313 -0.024161099 -0.12844901 0.16012453 -0.05137016 0.051821373 0.04349344
-0.07037924 0.056055702 0.10119245 -0.58655477 -0.010448295 -0.04228601 -0.004284689 -0.10943518
0.038139634 -0.15031454 -0.6144174 -0.07681062 -0.023006603 -0.02327774 0.08097979 0.047414165
0.05730043 -0.097078405 0.038806513 -0.0867166 0.020618243 0.015008378 -0.029404836 0.05232148
-0.018283635 0.35806718 -0.0646528 0.068452455 0.09414208 -0.035215702 -0.080404654 -0.15112273
-0.10601684 -0.00918631 0.0021065401 -0.020167384 0.026245961 0.051608395 0.092611395 -0.06117129
-0.03330838 -0.007207495 0.08016786 -0.10943594 0.0055402904 0.009948372 0.08808979 0.052925877
00000000: 4f08 8ebc 082f 43bd 6fab 0cbc a2de 16bc
00000010: dd4d 973c 7204 443c a893 e2bd 844a fa3d
00000020: 161b bdbb 5fbb 043c 7fed c5bc 2388 03be
00000030: aff7 233e 8469 52bd a642 543d 2d26 323d
00000040: fe22 90bd aa9a 653d fd3d cf3d 7428 16bf
00000050: 532f 2bbc 1834 2dbd 9466 8cbb 8d1f e0bd
00000060: 4e38 1c3d 0eec 19be 754a 1dbf e34e 9dbd
00000070: 5878 bcbc f6b0 bebc bbd8 a53d 5b35 423d
00000080: dbb3 6a3d 0bd1 c6bd 94f3 1e3d 7998 b1bd
00000090: 97e7 a83c b3e5 753c 69e2 f0bc 0c4f 563d
000000a0: 90c7 95bc 9554 b73e b068 84bd cd30 8c3d
000000b0: 90cd c03d 573e 10bd 32ab a4bd ebbf 1abe
000000c0: 5b1f d9bd 2d82 16bc e10d 0a3b 1236 a5bc
000000d0: c501 d73c 5363 533d 0bab bd3d bf8e 7abd
000000e0: 5e6e 08bd da2c ecbb 0c2f a43d f31f e0bd
000000f0: 538b b53b 7ffe 223c 6b68 b43d cec8 583d

bn2.weight f4 [64]
4.4678683 4.156169 2.8523273 4.49948 3.558597 3.1700022 4.557485 5.1142097
5.1129427 3.900575 2.5054343 4.1541743 5.143318 3.0731237 6.4666214 6.5516663
2.7365677 2.612629 3.8157818 2.7661645 4.4661183 3.4449964 3.3959775 4.9874425
4.8114085 2.469058 2.0123603 2.6528919 2.832343 3.5682642 3.4807549 2.9135122
4.0823946 4.2799926 3.084318 3.9911647 4.0121384 3.2631152 3.5302749 4.1691065
3.294478 4.29975 3.300794 3.6478882 5.2973576 4.2167554 2.5818264 3.4147584
3.9773307 4.1790476 3.8905108 1.7752404 3.4721344 2.3874664 4.5814967 3.1515558
5.3029027 3.821569 3.8481827 4.935043 5.502287 4.7207417 2.5858681 1.3434769
00000000: c7f8 8e40 56ff 8440 888c 3640 bdfb 8f40
00000010: 0ec0 6340 51e1 4a40 ebd6 9140 9ba7 a340
00000020: 3a9d a340 05a3 7940 0959 2040 ffee 8440
00000030: 1096 a440 0fae 4440 90ee ce40 40a7 d140
00000040: ed23 2f40 5035 2740 c535 7440 d708 3140
00000050: 71ea 8e40 d27a 5c40 b257 5940 2199 9f40
00000060: 0ff7 9940 0c05 1e40 83ca 0040 fbc8 2940
00000070: 1c45 3540 715e 6440 b0c4 5e40 fc76 3a40
00000080: faa2 8240 b3f5 8840 7765 4540 3e6f 7f40
00000090: 7063 8040 e1d6 5040 06f0 6140 5269 8540
000000a0: bad8 5240 8d97 8940 3540 5340 0077 6940
000000b0: f483 a940 a9ef 8640 a53c 2540 678b 5a40
000000c0: 968c 7e40 c2ba 8540 21fe 7840 143b e33f
000000d0: 7337 5e40 40cc 1840 9f9b 9240 17b3 4940
000000e0: 61b1 a940 9694 7440 a048 7640 dfeb 9d40
000000f0: bc12 b040 5110 9740 dd7e 2540 0df7 ab3f

bn2.bias f4 [64]
1.0617406 0.31137073 -0.29544172 -1.6912861 1.1917593 0.8124493 -0.22058013 -2.5781531
1.7054583 -2.0958493 -1.2057288 0.47588542 -1.4621617 -1.4970889 1.5631607 0.5030838
-0.77119666 -0.21609485 2.290091 -2.8793504 -1.6506175 1.1659338 2.0949895 -1.3112427
0.6536809 2.014002 3.018327 1.5000018 -0.3499852 0.2680072 -0.68875146 -0.9087561
-1.8847102 -1.5227678 -0.5767812 -0.9576432 -1.2222632 -0.35884643 -0.64673615 1.6081651
-1.3547504 2.7480025 -0.7894042 -1.5280529 1.0526645 1.8582357 0.8168648 2.8183663
-0.05164266 -0.11368201 -2.388859 -0.5213309 0.3546364 0.36443284 1.2623448 0.23237476
2.078838 -1.1487906 -0.115287244 0.76940536 2.1696608 0.76754445 0.6485628 -0.086037226
00000000: 1ee7 873f fc6b 9f3e 2344 97be 107c d8bf
00000010: 928b 983f adfc 4f3f c2df 61be 7600 25c0
00000020: 754c da3f 6522 06c0 5255 9abf 41a7 f33e
00000030: 1d28 bbbf 9ca0 bfbf a615 c83f 1aca 003f
00000040: 256d 45bf f847 5dbe da90 1240 4747 38c0
00000050: 6f47 d3bf 523d 953f 4f14 0640 cdd6 a7bf
00000060: a257 273f 69e5 0040 452c 4140 0f00 c03f
00000070: 4331 b3be 3d38 893e 0452 30bf 3da4 68bf
00000080: 2f3e f1bf 0eea c2bf efa7 13bf 1b28 75bf
00000090: 1f73 9cbf b8ba b7be 8090 25bf 5bd8 cd3f
000000a0: 7668 adbf 46df 2f40 6516 4abf 3d97 c3bf
000000b0: b6bd 863f abda ed3f 0d1e 513f 1d60 3440
000000c0: 4187 53bd 1dd2 e8bd 11e3 18c0 f175 05bf
000000d0: e792 b53e f196 ba3e 8494 a13f a6f3 6d3e
000000e0: af0b 0540 920b 93bf b81b ecbd c0f7 443f
000000f0: b9db 0a40 cb7d 443f 3608 263f 4934 b0bd

bn2.running_mean f4 [64]
5.827643 -54.6681 4.3005877 23.001467 -2.9833422 -21.978172 -15.665652 -23.071007
-38.041134 -9.1675415 -19.850319 -36.87498 -28.9074 46.543106 12.672815 55.02721
35.986134 -16.556856 -2.363312 35.670437 46.557804 29.948381 -8.389582 -26.843416
-28.572783 25.29541 5.062362 -37.12865 0.8674103 -35.155136 53.02752 -9.937842
-16.763693 17.237179 0.0853839 6.3717203 11.868494 24.968863 -13.223125 7.0288005
28.324694 -35.374207 31.392838 19.502077 -6.770951 41.029526 9.816416 -30.810148
33.3427 -32.52047 28.420088 -41.04274 -24.67498 -31.586678 -44.901573 -13.307349
-18.10879 39.55618 -23.455643 3.230994 -22.101032 -29.482227 2.1088755 4.733616
00000000: 0d7c ba40 22ac 5ac2 6a9e 8940 0103 b841
00000010: 14ef 3ec0 4cd3 afc1 83a6 7ac1 6c91 b8c1
00000020: 1f2a 18c2 40ae 12c1 74cd 9ec1 fb7f 13c2
00000030: 5b42 e7c1 242c 3a42 dac3 4a41 dd1b 5c42
00000040: cdf1 0f42 7174 84c1 8140 17c0 87ae 0e42
00000050: 313b 3a42 4996 ef41 ba3b 06c1 51bf d6c1
00000060: 0f95 e4c1 005d ca41 dffe a140 bd83 14c2
00000070: 9a0e 5e3f dc9e 0cc2 2e1c 5442 6701 1fc1
00000080: 0b1c 86c1 bee5 8941 c1dd ae3d 22e5 cb40
00000090: 5ae5 3d41 3bc0 c741 ec91 53c1 efeb e040
000000a0: f998 e241 307f 0dc2 8824 fb41 4104 9c41
000000b0: a1ab d8c0 3c1e 2442 0a10 1d41 2f7b f6c1
000000c0: ed5e 0542 f614 02c2 575c e341 c42b 24c2
000000d0: 5c66 c5c1 84b1 fcc1 369b 33c2 e7ea 54c1
000000e0: cdde 90c1 8739 1e42 28a5 bbc1 9bc8 4e40
000000f0: eace b0c1 9adb ebc1 d1f7 0640 c879 9740

bn2.running_var f4 [64]
485.57248 410.20584 458.98236 516.5876 271.1285 445.5908 420.36816 486.10406
435.63327 480.54532 524.01746 369.81833 681.37634 239.8949 796.6248 718.65625
360.479 206.05037 694.77246 386.24542 406.75287 454.9154 493.9901 519.7452
467.1266 444.75848 263.83618 488.26666 414.48816 517.17596 472.2678 406.60077
575.816 460.24313 419.14993 463.26147 322.2239 375.66248 260.9758 296.56223
369.4738 440.39734 173.1187 364.34525 582.65814 601.5412 264.96484 302.51282
285.83557 504.02222 927.735 189.77199 298.3981 198.98837 355.54303 334.91736
426.91672 586.9956 601.32196 666.71106 638.0803 424.593 240.57071 273.7793
00000000: 47c9 f243 591a cd43 be7d e543 9b25 0144
00000010: 7390 8743 9fcb de43 202f d243 520d f343
00000020: 0fd1 d943 cd45 f043 1e01 0344 bfe8 b843
00000030: 1658 2a44 18e5 6f43 fd27 4744 00aa 3344
00000040: 503d b443 e50c 4e43 70b1 2d44 6a1f c143
00000050: 5e60 cb43 2c75 e343 bcfe f643 b1ef 0144
00000060: 3490 e943 1661 de43 08eb 8343 2222 f443
00000070: 7c3e cf43 434b 0144 4722 ec43 e64c cb43
00000080: 39f4 0f44 1f1f e643 3193 d143 78a1 e743
00000090: a91c a143 ccd4 bb43 e77c 8243 f747 9443
000000a0: a5bc b843 dc32 dc43 631e 2d43 312c b643
000000b0: 1faa 1144 a362 1644 807b 8443 a441 9743
000000c0: f4ea 8e43 d802 fc43 0aef 6744 a1c5 3d43
000000d0: f532 9543 06fd 4643 82c5 b143 6c75 a743
000000e0: 5775 d543 b8bf 1244 9b54 1644 82ad 2644
000000f0: 2485 1f44 e74b d443 1a92 7043 c0e3 8843

fc3.weight f4 [10, 64]
1.6406124 -0.6709924 2.5852406 2.392537 -0.7876211 -1.6814466 0.6160264 -0.13000105
1.4310265 0.5111632 0.17397586 -1.0459528 1.5737013 1.2005072 2.2067528 2.8782985
-0.6137327 -1.0198282 0.33684838 2.8717175 -0.1211625 -1.3533069 0.15062122 0.11700335
-2.2369008 -0.9966675 2.7217066 -0.7766353 -0.3621262 1.6494511 0.013550138 -2.3592844
-0.38346577 0.90679836 0.6751221 -0.43844497 -0.9791234 -1.510285 0.6334131 -0.3432644
0.95675296 -0.821094 -0.85202473 -0.88476133 -0.38923737 0.9310823 -2.023735 1.1879364
0.21657073 0.23595192 -0.5840718 0.40825477 1.6465503 -0.75681573 0.07575247 -2.0840886
0.8980865 0.59056133 -0.6380222 1.2601693 0.6138583 0.60408616 -0.62886953 -0.993495
-0.8924921 -1.5709251 -0.8069778 -0.07150031 0.83465517 2.36982 -0.578994 0.40142506
0.12152073 0.02938223 -2.7749505 0.45577517 0.5314095 -1.187206 1.3158065 0.32945222
1.3678652 0.42589402 1.7454007 -2.1046803 -0.5311276 2.1122334 -2.0539002 -2.0663674
-0.36878678 0.9458538 -2.9283469 3.0827944 1.5713317 -1.8078914 -1.219712 0.24138486
0.37195075 0.7510332 -0.73850256 1.8770417 0.23642898 -1.4506959 0.19493134 -0.5908715
-0.598514 1.2792437 -0.45789918 1.5970639 -0.97420937 -0.4498547 0.36104283 -0.84944576
0.062838465 0.62438196 -2.2933466 0.22616857 -0.605535 1.4571705 1.9387921 2.3303154
-0.70756865 -0.6147856 1.2959728 -0.30139554 -2.2871737 -0.60908353 -0.014630211 2.0508218
-0.009218679 0.53327566 -1.0883784 -1.2385726 -0.0032997588 0.9193369 1.0316781 -1.1343691
0.52482206 -1.9282913 0.7981231 1.0465277 -1.7005926 -0.8083179 0.55662763 -1.7509271
-0.1065686 -0.93271023 -0.6739803 0.5499051 0.40904894 1.3651582 0.58087575 1.6731706
1.1442459 1.5138713 1.4537905 0.121142946 -0.80637777 0.34400925 1.5671906 1.2994868
-1.3263245 -0.5023103 -1.2079854 -1.2366542 -0.27533558 0.06462438 -1.201 1.7491434
-0.16571766 -0.0745613 0.5072305 0.037525155 2.1618874 -0.07767322 0.109557964 -0.5812164
0.6844461 -1.1665816 1.4062587 0.74277323 0.32589647 -0.69423693 -0.78211015 -1.3960611
-0.12578537 1.8943529 0.9036965 1.4107641 1.6055018 -0.26607877 0.9458234 -0.49288112
-3.202089 1.8519876 -1.0968372 0.8319522 -0.76427907 -1.2264923 -1.9813828 4.875435
0.96257424 4.933267 -0.0155484965 -0.10987573 3.8617156 -0.90971166 -2.0216095 -2.455633
3.5908966 3.3259923 -2.0380878 1.8959436 -1.0628434 -4.57317 -2.787891 1.0848643
-0.9518359 3.2409954 -1.7583011 -1.7283858 -0.24852079 -4.0268846 -0.51710707 7.4532633
-0.17562492 -3.512332 5.129075 -1.846026 0.08247612 1.4653614 0.6164313 -3.1839032
4.1838665 -1.3658028 -0.39922664 -1.4958739 -3.9058087 -3.2563605 -1.3607068 -2.3024127
1.7328926 -5.2868953 -1.2843162 2.4911473 -2.6518261 -2.6197057 -1.1249974 -1.3598675
-0.20766106 -3.9299927 -0.34220415 -2.3038368 -1.4941435 -3.0547009 -3.8876975 2.6442392
00000000: 96ff d13f 28c6 2bbf 9574 2540 541f 1940
00000010: 89a1 49bf a439 d7bf e8b3 1d3f ff1e 05be
00000020: e02b b73f 97db 023f ba26 323e c8e1 85bf
00000030: 0b6f c93f 38aa 993f 703b 0d40 0b36 3840
00000040: 961d 1dbf bb89 82bf 6477 ac3e 38ca 3740
00000050: 0b24 f8bd 2939 adbf 733c 1a3e 749f ef3d
00000060: 6229 0fc0 9a25 7fbf 7130 2e40 92d1 46bf
00000070: 9b68 b9be 3721 d33f 6601 5e3c 84fe 16c0
00000080: a055 c4be f023 683f cdd4 2c3f dc7b e0be
00000090: d5a7 7abf 0551 c1bf 5c27 223f 5ac0 afbe
000000a0: c3ed 743f 3733 52bf 4b1e 5abf b87f 62bf
000000b0: 1f4a c7be 695b 6e3f e084 01c0 4d0e 983f
000000c0: b8c4 5d3e 619d 713e bb85 15bf c506 d13e
000000d0: 29c2 d23f adbe 41bf 1c24 9b3d b561 05c0
000000e0: ffe8 653f 072f 173f 6c55 23bf 3a4d a13f
000000f0: d125 1d3f 64a5 1a3f 98fd 20bf b055 7ebf
00000100: 5d7a 64bf 1314 c9bf 1996 4ebf c16e 92bd
00000110: f6ab 553f 22ab 1740 f338 14bf 9687 cd3e
00000120: dcdf f83d 01b3 f03c ca98 31c0 5d5b e93e
00000130: 740a 083f 5ef6 97bf 596c a83f f6ad a83e
00000140: 3516 af3f c80e da3e 4a69 df3f 15b3 06c0
00000150: faf7 07bf d52e 0740 1a73 03c0 5d3f 04c0
00000160: 9fd1 bcbe 7a23 723f 096a 3bc0 814c 4540
00000170: 6621 c93f fc68 e7bf 861f 9cbf 982d 773e
00000180: 5470 be3e b643 403f 810e 3dbf e742 f03f
00000190: 701a 723e 67b0 b9bf 159c 473e 5b43 17bf
000001a0: 3738 19bf 42be a33f c371 eabe 976c cc3f
000001b0: c965 79bf 5b53 e6be 9bda b83e 4775 59bf
000001c0: 74b1 803d 7fd7 1f3f 31c6 12c0 bc98 673e
000001d0: 5704 1bbf 9084 ba3f 572a f83f e323 1540
000001e0: 3823 35bf 9762 1dbf 70e2 a53f 8450 9abe
000001f0: 0e61 12c0 e6ec 1bbf 8db3 6fbc aa40 0340
00000200: f109 17bc c184 083f fc4f 8bbf 8c89 9ebf
00000210: c440 58bb aa59 6b3f 070e 843f 0233 91bf
00000220: bd5a 063f 40d2 f6bf cc51 4c3f 9ff4 853f
00000230: 05ad d9bf eced 4ebf 267f 0e3f 611e e0bf
00000240: a340 dabd 19c6 6ebf f989 2cbf 95c6 0c3f
00000250: dd6e d13e 81bd ae3f 46b4 143f 742a d63f
00000260: a676 923f 89c6 c13f cf15 ba3f cb19 f83d
00000270: c66e 4ebf fb21 b03e b499 c83f 9555 a63f
00000280: 00c5 a9bf 6897 00bf 449f 9abf af4a 9ebf
00000290: c9f8 8cbe c959 843d 5eba 99bf eee3 df3f
000002a0: e4b1 29be 98b3 98bd dcd9 013f fab3 193d
000002b0: 5d5c 0a40 2313 9fbd ed5f e03d 99ca 14bf
000002c0: dc37 2f3f 8c52 95bf 4900 b43f 6326 3e3f
000002d0: e7db a63e 83b9 31bf 5f38 48bf 21b2 b2bf
000002e0: e1cd 00be 287a f23f a758 673f eb93 b43f
000002f0: 1581 cd3f 7a3b 88be 7b21 723f ea5a fcbe
00000300: 07ef 4cc0 ee0d ed3f 2965 8cbf d2fa 543f
00000310: cba7 43bf b3fd 9cbf f49d fdbf 9003 9c40
00000320: 446b 763f 53dd 9d40 1fbf 7ebc 8706 e1bd
00000330: 5926 7740 dde2 68bf 0d62 01c0 1729 1dc0
00000340: 40d1 6540 0fdd 5440 0870 02c0 48ae f23f
00000350: 410b 88bf 6957 92c0 ce6c 32c0 d5dc 8a3f
00000360: 84ab 73bf 786c 4f40 0310 e1bf bf3b ddbf
00000370: 3c7c 7ebe 3ddc 80c0 2161 04bf 2281 ee40
00000380: 05d7 33be 0cca 60c0 6221 a440 944a ecbf
00000390: 3de9 a83d f690 bb3f 71ce 1d3f 12c5 4bc0
000003a0: 3ce2 8540 a0d2 aebf 6f67 ccbe cc78 bfbf
000003b0: c5f8 79c0 3668 50c0 a42b aebf bb5a 13c0
000003c0: 6dcf dd3f 3f2e a9c0 7964 a4bf f56e 1f40
000003d0: 85b7 29c0 42a9 27c0 eaff 8fbf 2310 aebf
000003e0: 1aa5 54be 0085 7bc0 6235 afbe 1072 13c0
000003f0: 1840 bfbf 3880 43c0 09d0 78c0 373b 2940

fc3.bias f4 [10]
-1.0644319 1.998469 -0.9577282 -2.6817589 1.7828937 -0.9285885 -0.2823513 -1.7495635
1.2339292 -4.925736
00000000: 4e3f 88bf d5cd ff3f ad2d 75bf f0a1 2bc0
00000010: dc35 e43f fab7 6dbf 5990 90be b2f1 dfbf
00000020: 64f1 9d3f a19f 9dc0

exp_avg f4 [128, 26]
-6.35783e-11 -9.436092e-11 1.0862132e-12 3.4250326e-13 1.5424437e-12 4.646876e-13 8.654183e-13 -1.2307092e-12
2.1452347e-13 1.4114449e-13 9.6244525e-15 -1.6356443e-14 3.1675468e-13 2.7291475e-13 -4.339741e-13 -1.3933792e-13
8.436533e-12 1.7317439e-12 1.3898235e-13 1.5827319e-14 -8.038854e-13 4.960895e-12 8.7521266e-13 2.9801975e-13
-1.0828774e-10 -1.0078543e-10 0.0031569896 -0.0012587572 -2.6305763e-06 1.4509685e-05 -2.820212e-06 2.0427344e-05
-5.7555626e-05 3.2189633e-05 9.023663e-06 5.8581777e-06 1.04842e-05 3.35642e-05 -3.4654477e-05 1.109529e-05
-1.4418242e-05 4.4132717e-06 -2.9159897e-05 9.557116e-05 7.0490927e-07 1.6878358e-06 -0.00062367175 6.6905855e-06
-1.7275227e-07 1.5231521e-05 -0.0011739417 -0.0015743894 0.0005151631 0.0010050414 -2.1170214e-05 -8.249312e-06
-2.9697747e-05 -1.1370896e-05 -3.5801786e-05 1.2725477e-05 1.5960479e-05 7.781787e-06 -6.6598795e-07 -1.5423362e-05
7.738083e-06 8.8823235e-06 -3.5305686e-07 -8.4401756e-07 -0.00018831113 -5.1264677e-05 8.475366e-07 -1.1645271e-06
-0.0001778006 -3.2755647e-06 -1.6026843e-05 -7.43034e-06 0.00020450135 0.0025161633 0.000343989 0.0013812146
-2.4570418e-06 -2.216002e-06 -3.5045136e-06 -2.917284e-06 1.8540028e-05 2.4760907e-06 -9.8954e-06 -1.0319182e-05
-8.0156263e-07 -1.00570405e-05 -1.2072536e-06 4.0223217e-06 4.8045554e-06 2.4373933e-06 1.1243883e-05 -1.4886861e-05
-3.033084e-07 -8.079481e-07 0.00020260616 -9.8652934e-05 -8.810288e-06 -1.5161817e-06 0.0004146837 -0.0003904854
-4.5842004e-05 -0.0005675011 3.3733807e-06 3.5266262e-07 4.720688e-06 5.659678e-07 1.240806e-05 -6.040814e-06
-3.7398179e-06 -2.077397e-06 -5.501003e-07 -1.4807657e-06 4.133762e-06 -4.4369435e-07 -3.029412e-06 8.2004124e-07
5.290073e-05 6.8856457e-07 -8.409047e-07 5.7162673e-08 0.0001318449 2.7277805e-05 1.9404412e-07 2.9472957e-07
6.651614e-05 -0.00035870436 1.1735783e-10 2.2154768e-10 -1.0550803e-12 4.7496644e-15 -1.6420599e-12 -4.6672274e-14
9.324744e-13 -8.1260676e-13 -5.403097e-13 7.1033826e-13 -2.8988232e-13 -8.2264e-13 -2.160078e-12 5.586567e-13
1.1686886e-12 1.2553875e-12 -8.664118e-12 -1.4426678e-12 1.3285419e-14 3.769196e-14 -1.3960653e-12 -6.8364567e-12
-9.125133e-13 -5.0242003e-14 6.3299216e-10 -4.541203e-11 -0.00030177474 -0.00011269956 4.7018275e-06 6.993824e-07
6.5614345e-06 9.041751e-07 5.909351e-06 -1.0532546e-05 1.1722003e-06 2.4235885e-06 1.0275342e-06 -3.9252172e-06
4.4012786e-06 -1.3898673e-06 -8.212423e-09 9.221462e-07 5.6765955e-05 4.1420776e-06 3.6656337e-07 7.324908e-08
0.00013622594 3.327348e-05 2.6316338e-06 2.731378e-07 0.00094331463 -0.00013728158 0.00054530654 -0.00068006315
-1.2903782e-05 -5.313823e-06 -1.8155906e-05 -7.547064e-06 -5.3414024e-05 -1.7858565e-05 2.8432993e-05 3.239565e-05
1.0444102e-05 -1.0565943e-05 -1.2972922e-05 2.2978396e-05 -2.2614897e-06 2.8221268e-06 -0.00014867583 -3.0218282e-05
2.0000705e-06 -1.1608727e-06 -0.00047097716 0.000121002995 -1.0593963e-05 -5.065173e-06 0.0026724664 0.0021628425
3.3433006e-10 2.7997247e-08 -5.3282506e-10 -3.5377204e-10 -7.4642176e-10 -4.7883386e-10 -7.280719e-10 4.4418358e-10
2.926115e-10 4.9506885e-11 -5.8224786e-11 -1.5150656e-10 1.2245643e-11 1.5847013e-10 2.2968426e-11 -4.2172193e-11
-4.327926e-09 -2.0160356e-09 -3.613895e-11 3.7693126e-12 -4.301168e-09 -3.3964448e-10 -5.4563615e-10 -3.873307e-10
2.3744307e-07 1.6565328e-07 1.301465e-10 4.245089e-10 -2.249945e-12 -4.32009e-13 -3.4085178e-12 -6.670132e-13
1.6795499e-12 -2.018908e-12 -3.5930503e-13 1.0079117e-12 -3.0925257e-13 -1.3299761e-12 -2.921868e-12 1.1701771e-12
1.4254566e-12 1.6562027e-12 -1.8407983e-11 -4.0205617e-12 -6.776738e-14 -4.69361e-14 -2.7820584e-12 -4.196764e-12
00000000: 67cf 8bae 7a80 cfae f4de 982b eccf c02a
00000010: 6414 d92b 45cc 022b f697 732b f934 adab
00000020: 2e88 712a 21ea 1e2a f460 2d28 6453 93a8
00000030: 2951 b22a 29a3 992a 424e f4aa 6ce1 1caa
00000040: c46a 142d a6b8 f32b ef7a 1c2a 508f 8e28
00000050: 0c46 62ab c58b ae2c b859 762b 2cc5 a72a
00000060: 9420 eeae 27a1 ddae 7fe5 4e3b e2fc a4ba
00000070: f588 30b6 9f6e 7337 e042 3db6 635b ab37
00000080: e267 71b8 5b03 0738 5664 1737 5d91 c436
00000090: 4ce5 2f37 49c7 0c38 f659 11b8 e825 3a37
000000a0: e1e5 71b7 b715 9436 679c f4b7 606d c838
000000b0: ff38 3d35 9989 e235 e77d 23ba b17f e036
000000c0: c87d 39b4 e28a 7f37 f2de 99ba be5b ceba
000000d0: 030c 073a 98bb 833a b096 b1b7 8666 0ab7
000000e0: 6d1f f9b7 a0c5 3eb7 e029 16b8 827f 5537
000000f0: dee2 8537 858e 0237 58c6 32b5 6b61 81b7
00000100: d0d2 0137 4a05 1537 c48b bdb4 7290 62b5
00000110: 6275 45b9 0705 57b8 4682 6335 d94c 9cb5
00000120: fc6f 3ab9 c6d1 5bb6 6271 86b7 2252 f9b6
00000130: 6a6f 5639 37e6 243b 6c59 b439 df09 b53a
00000140: a8e3 24b6 a0b6 14b6 162f 6bb6 8fc6 43b6
00000150: 6886 9b37 ea2a 2636 6b04 26b7 8d20 2db7
00000160: f72a 57b5 a9ba 28b7 eb08 a2b5 7bf7 8636
00000170: d136 a136 1992 2336 1ca4 3c37 95c2 79b7
00000180: 64d6 a2b4 c5e1 58b5 ad72 5439 e4e3 ceb8
00000190: e6cf 13b7 9b7f cbb5 e769 d939 10ba ccb9
000001a0: 7a46 40b8 5bc4 14ba 3d62 6236 9555 bd34
000001b0: 6766 9e36 03ed 1735 362c 5037 32b2 cab6
000001c0: 95f9 7ab6 6969 0bb6 9baa 13b5 b9be c6b5
000001d0: bfb4 8a36 e334 eeb4 e74c 4bb6 ce20 5c35
000001e0: bae1 5d38 ccd5 3835 88ba 61b5 0683 7533
000001f0: d93f 0a39 a4d2 e437 715a 5034 533b 9e34
00000200: 957e 8b38 7c10 bcb9 4b09 012f 2198 732f
00000210: 467d 94ab ec1f ab27 7119 e7ab 7831 52a9
00000220: ee3b 832b 7dba 64ab 6b15 18ab 44f1 472b
00000230: 7230 a3aa 768d 67ab 8200 18ac 753f 1d2b
00000240: 727a a42b 1aae b02b b86b 18ad 9609 cbab
00000250: 2e54 6f28 dfbf 2929 8e7a c4ab 5489 f0ac
00000260: c26c 80ab 1645 62a9 ddfe 2d30 66b9 47ae
00000270: 8537 9eb9 1e59 ecb8 64c4 9d36 31bd 3b35
00000280: 4b2a dc36 71b6 7235 f048 c636 f1b4 30b7
00000290: 7f54 9d35 efa4 2236 cee9 8935 5cb5 83b6
000002a0: b2ae 9336 7a8b bab5 9e16 0db2 6889 7735
000002b0: fb17 6e38 2dfc 8a36 16cc c434 1c4d 9d33
000002c0: dfd7 0e39 218f 0b38 209b 3036 c6a3 9234
000002d0: c648 773a 3ef3 0fb9 e7f2 0e3a 4446 32ba
000002e0: 527d 58b7 644d b2b6 834d 98b7 c93c fdb6
000002f0: df08 60b8 face 95b7 6383 ee37 90e0 0738
00000300: 1439 2f37 6144 31b7 47a6 59b7 bbc1 c037
00000310: 19c4 17b6 c563 3d36 dde5 1bb9 447d fdb7
00000320: f338 0636 48cf 9bb5 7ced f6b9 fdc2 fd38
00000330: babc 31b7 81f5 a9b6 8c24 2f3b 7abe 0d3b
00000340: c6cc b72f 997e f032 3b76 12b0 fd7c c2af
00000350: c32c 4db0 f09e 03b0 8121 48b0 4831 f42f
00000360: 68dd a02f ccbb 592e a409 80ae 4e95 26af
00000370: 796d 572d 603d 2e2f 4c08 ca2d ab79 39ae
00000380: d7b4 94b1 798a 0ab1 d7f0 1eae f39e 842c
00000390: 79c9 93b1 b6b8 baaf bbfb 15b0 f3ef d4af
000003a0: dbf3 7e34 6dde 3134 fc18 0f2f 5160 e92f
000003b0: 6853 1eac 0f33 f3aa 66da 6fac 5ebf 3bab
000003c0: 2a60 ec2b 6a11 0eac 5045 caaa d9d9 8d2b
000003d0: fe17 aeaa 702d bbab b29b 4dac 13b0 a42b
000003e0: 7d9d c82b fe16 e92b 18eb a1ad 0076 8dac
000003f0: 3c99 98a9 a461 53a9 1cc5 43ac 17a9 93ac
